Genetic/Models/score_58_model_291614.pt (torch, 12127 bytes, 4 tensors)

fc.0.weight f4 [156, 12]
0	0xbc704dd8	-0.014666997
1	0xbc5a5e20	-0.013328105
2	0x3e77c776	0.24197182
3	0x3dc26c13	0.0949327
4	0x3e13379b	0.1437668
5	0xbe482c23	-0.19548087
6	0x3cc4eeed	0.02403971
7	0x3e6729b2	0.22574499
8	0xbcdee4bd	-0.02720868
9	0xbd07c705	-0.033148784
10	0xbd97434a	-0.07385881
11	0x3e663610	0.2248156
12	0xbe343645	-0.17598827
13	0x3b5a888f	0.0033345555
14	0xbe749d19	-0.23888053
15	0x3e771cc8	0.24132073
16	0xbe8a1b20	-0.2697382
17	0xbdf71a0a	-0.120655134
18	0xbe8172cf	-0.25282905
19	0xbe83901f	-0.25695893
20	0xbe804916	-0.2505576
21	0x3d462a9f	0.04838049
22	0x3c2febb5	0.010737349
23	0xbe444ce0	-0.1916995
24	0xbe723b0c	-0.23655337
25	0x3e6ef6a2	0.2333627
26	0xbbd780d8	-0.0065766387
27	0x3e4ef3a7	0.20210133
28	0x3a85ee40	0.0010218099
29	0xbe6ce02f	-0.23132394
30	0x3e00d69b	0.12581865
31	0x3e418f6d	0.18902369
32	0xbc01070f	-0.007875218
33	0xbce80e67	-0.02832718
34	0xbe88f3c3	-0.26748475
35	0x3cfcb8bf	0.030849813
36	0xbdc929b1	-0.09822405
37	0x3e1e5ddd	0.15465494
38	0xbe8e2045	-0.27758995
39	0xbe0c1d0f	-0.1368296
40	0x3e38748e	0.18013212
41	0x3e8503e3	0.25979528
42	0xbe44fff5	-0.19238265
43	0x3dc923d3	0.09821286
44	0x3d840155	0.064455666
45	0x3e8a6911	0.27033284
46	0xbe56f960	-0.20993567
47	0xbe70c2f8	-0.23511875
48	0x3e33c893	0.17556982
49	0xbe7ba98d	-0.24576397
50	0xbd86b505	-0.065774955
51	0x3dbeb9dd	0.09312794
52	0xbb03b5da	-0.0020097406
53	0xbe901f5a	-0.2814892
54	0xbca51da2	-0.020155732
55	0x3d6a89ce	0.057260327
56	0x3e09d58c	0.13460368
57	0xbd7c5233	-0.06160183
58	0x3e38df75	0.18053992
59	0xbcb7cb39	-0.022435771
60	0x3e7f4f11	0.24932505
61	0x3e63f91a	0.22262993
62	0xbe3020bc	-0.17199987
63	0xbe518996	-0.20462641
64	0x3e08f36c	0.13374108
65	0xbcbf05c2	-0.023318175
66	0x3dca1df4	0.09868994
67	0x3e2f7ff1	0.1713865
68	0xbe4200e1	-0.18945648
69	0xbe84699e	-0.2586183
70	0xbda67f36	-0.08129732
71	0x3daa8416	0.08325975
72	0x3e88b389	0.26699474
73	0x3c3fd35a	0.011708105
74	0x3dfd6444	0.1237264
75	0x3cbfb667	0.023402406
76	0x3d109aac	0.035303757
77	0xbe8e781b	-0.27826008
78	0x3e6a890a	0.22903839
79	0xbe5d4a8d	-0.2161047
80	0xbe6cd38a	-0.23127571
81	0x3db029c1	0.08601714
82	0xbd90f089	-0.070771284
83	0x3cb49e52	0.02204815
84	0x3e6f134d	0.23347206
85	0x3e1b6b00	0.15177536
86	0x3e819616	0.2530982
87	0x3e2b805b	0.16748182
88	0xbe155264	-0.14582211
89	0x3b94ac8a	0.00453717
90	0xbdd22d79	-0.102625795
91	0x3d09e84c	0.0336688
92	0x3e386ffc	0.18011469
93	0x3e809f92	0.25121742
94	0xbd1f295c	-0.038857803
95	0xbd853a3a	-0.065052465
96	0x3e75fb6a	0.24021688
97	0x3e8830ac	0.26599634
98	0x3e7da148	0.24768555
99	0xbd839fd5	-0.0642697
100	0xbe8575bc	-0.26066387
101	0x3cfa7049	0.03057112
102	0xbd581f89	-0.05276445
103	0x3e7f068d	0.24904843
104	0x3e546d05	0.20744713
105	0x3e085394	0.13313133
106	0x3c8547a1	0.016269507
107	0xbe867fc9	-0.26269367
108	0x3b5e2701	0.003389776
109	0x3db88ab0	0.090108275
110	0x3cfd0b2c	0.030889116
111	0x3d7fe957	0.06247839
112	0x3dc0fd74	0.09423342
113	0x3df1eb61	0.11812473
114	0x3e4e54e9	0.20149578
115	0x3d72bb2d	0.059260536
116	0xbe340809	-0.1758119
117	0x3e2ca4aa	0.1685969
118	0xbc84d018	-0.016212508
119	0xbe34d9db	-0.1766123
120	0xbcc69db9	-0.02424513
121	0x3e599f91	0.21252276
122	0x3dfac9ea	0.12245543
123	0x3e7cbc40	0.24681187
124	0xbd757f2f	-0.059935745
125	0x3e8a5992	0.27021462
126	0xbe408ef0	-0.18804526
127	0x3e0fb81c	0.14035076
128	0xbe2dae7e	-0.16961095
129	0x3e8e7468	0.27823186
130	0x3d35cf73	0.044387292
131	0x3e1c7780	0.1527996
132	0xbdf8a870	-0.12141502
133	0x3cc91ecf	0.024550823
134	0x3e45bf33	0.19311218
135	0x3b733e9e	0.003711618
136	0xbd3c14ea	-0.045918383
137	0xba99dd42	-0.0011738914
138	0xbdd1e96d	-0.102496006
139	0x3d0a3bce	0.03374844
140	0xbcf8ed83	-0.030386692
141	0x3de3674a	0.11103685
142	0x3dad20c6	0.08453517
143	0x3e5ffe9b	0.21874468
144	0x3e057166	0.1303154
145	0x39d04519	0.00039724333
146	0xbe943d71	-0.28953126
147	0x3e5f48c8	0.21805108
148	0x3cb28e8a	0.021796484
149	0x3dbadc00	0.09123993
150	0x3e1a062e	0.1504142
151	0xbe882ce3	-0.26596746
152	0x3e4598c8	0.19296563
153	0xbc898c93	-0.016790664
154	0xbe53fb38	-0.20701301
155	0xbe35e2aa	-0.17762247
156	0x3d8e805e	0.06958078
157	0x3e8fbb43	0.28072557
158	0x3e1c2dda	0.15251866
159	0x3d816d5d	0.063196875
160	0x3dbee4c9	0.09320981
161	0xbce98be6	-0.028509092
162	0xbe0b9d0f	-0.13634132
163	0xbdc9456a	-0.09827693
164	0xbe723c39	-0.23655786
165	0xbddd8646	-0.10816626
166	0x3e08ed13	0.13371687
167	0xbe4edf58	-0.20202386
168	0x3e288f1b	0.1646084
169	0x3e0b9213	0.13629942
170	0x3df708f1	0.12062252
171	0x3cf9caaf	0.030492155
172	0x3e36fe4d	0.17870446
173	0x3e48dbe7	0.19615136
174	0xbe857c32	-0.26071316
175	0x3e1e52dd	0.15461297
176	0xbd7eea72	-0.062235303
177	0x3e053a3d	0.13010497
178	0x3e0efff7	0.1396483
179	0xbe132095	-0.14367898
180	0xbd0b3b51	-0.033992115
181	0xbd4fb23d	-0.05070709
182	0x3dc48cfa	0.09597202
183	0xbde25f2a	-0.11053307
184	0x3db28e04	0.087184936
185	0x3e867317	0.26259682
186	0xbe8169ac	-0.25275934
187	0x3d5ecd0e	0.054394774
188	0xbe827d74	-0.25486338
189	0x3cb62cdb	0.022238186
190	0x3e67edcd	0.22649308
191	0x3e7a6e43	0.24456124
192	0xbe1ac2ca	-0.15113369
193	0xbe0a2c67	-0.134935
194	0xbbcac31f	-0.006187811
195	0xbe1ecd9d	-0.15508123
196	0xbe43097b	-0.19046585
197	0x3e8cc02b	0.27490363
198	0x3e8c451d	0.2739648
199	0x3e09cb9b	0.13456576
200	0x3dd563ad	0.10419402
201	0xbd16bab6	-0.036799155
202	0xbe8057af	-0.25066897
203	0x3d077a88	0.03307584
204	0x3e6825d5	0.22670682
205	0xbe8de5b9	-0.27714327
206	0x3e104633	0.14089279
207	0x3de1064a	0.10987528
208	0x3e3f1ff8	0.18664539
209	0xbd20358e	-0.039113574
210	0x3e390e0f	0.18071769
211	0x3ce1a3d8	0.027543947
212	0x3e863b81	0.26217273
213	0xbba5c29d	-0.0050586
214	0x3e8e6178	0.27808738
215	0x3e43c5d1	0.1911843
216	0xbc90e6e1	-0.017688217
217	0xbe314b27	-0.17313825
218	0x3d31ef22	0.043440945
219	0x3cd8ffba	0.026489127
220	0x3e3a3f61	0.1818824
221	0xbc735a43	-0.014853063
222	0x3e3630aa	0.17792001
223	0xbe00f4cf	-0.12593387
224	0xbdd43bc4	-0.10362962
225	0xbe5b8396	-0.21436915
226	0x3e0ef40a	0.13960281
227	0x3db52652	0.088452
228	0x3e479cfe	0.19493482
229	0x3e3b0440	0.1826334
230	0xbd588bf5	-0.05286785
231	0x3bf236b7	0.0073917764
232	0xbde0b06a	-0.10971148
233	0x3db7a787	0.089675
234	0x3c1dd2b6	0.009632757
235	0xbe5f5195	-0.21808465
236	0x3e7403fb	0.23829643
237	0x3bdc5db8	0.0067250393
238	0x3e58a4b7	0.21156584
239	0x3dc94676	0.098278925
240	0xbe912f14	-0.2835623
241	0x3e04ebcc	0.12980574
242	0x3e881918	0.26581645
243	0xbc5133c2	-0.012768688
244	0x3d926c73	0.07149591
245	0xbe860e1a	-0.26182634
246	0xbe875bc2	-0.26437193
247	0x3c4239f1	0.011854635
248	0x3df3a0b1	0.11895884
249	0x3df75b80	0.12077999
250	0xbd559319	-0.052142236
251	0xbd29e215	-0.041475374
252	0x3e51d161	0.20490028
253	0x3e33129b	0.17487566
254	0x3dbb8a18	0.09157199
255	0xbe852883	-0.2600747

fc.0.bias f4 [156]
0	0xbbc5ad35	-0.006032611
1	0xbe055bef	-0.13023351
2	0xbe6d50b4	-0.23175317
3	0x3e49c3af	0.19703554
4	0x3e5b7464	0.21431118
5	0x3e770e06	0.24126443
6	0xbe7ed6c2	-0.24886611
7	0x3e865771	0.26238587
8	0x3e530ff0	0.20611548
9	0x3e8710a1	0.26379874
10	0xbe910fcb	-0.28332362
11	0xbe0891c4	-0.13336855
12	0x3d177eef	0.036986288
13	0xbd84db41	-0.06487132
14	0xbd95ce5e	-0.07314752
15	0xbe82893f	-0.25495335
16	0x3bed2d60	0.007238075
17	0x3e230f4f	0.15923809
18	0x3d63b3f1	0.055591527
19	0xbc14854c	-0.009064984
20	0x3cd54de7	0.026038123
21	0x3e8bc1d3	0.27296314
22	0x3d99ce4f	0.07510053
23	0x3cf00450	0.029298931
24	0x3dbadbc2	0.09123947
25	0x3dc17a9b	0.09447213
26	0x3de09dca	0.10967596
27	0xbe894a42	-0.26814467
28	0xbcb37258	-0.02190511
29	0x3e4cdcb5	0.20006068
30	0xbe083608	-0.13301861
31	0x3d21eaa5	0.039530415
32	0x3e66e5c7	0.2254859
33	0xbb474a96	-0.0030409447
34	0xbb9bbc43	-0.004752667
35	0xbca79af7	-0.020459635
36	0xbe3a8a37	-0.18216787
37	0xbdf25587	-0.11832719
38	0xbdd52c05	-0.10408787
39	0xbc778f68	-0.015109874
40	0x3d7943bb	0.06085561
41	0x3d2f878d	0.04285388
42	0x3d3ac82f	0.045601066
43	0x3e8d9f57	0.2766063
44	0x3e64ab32	0.22330931
45	0xbe4a748d	-0.19771023
46	0x3d3d4c79	0.046215508
47	0x3d6dc93c	0.05805324
48	0x3e486312	0.19569042
49	0xbc8dff48	-0.017333642
50	0x3e1996f6	0.14998993
51	0x3c906c44	0.01762975
52	0xbe64b52a	-0.22334734
53	0xbcb23fa4	-0.021758862
54	0x3e75037f	0.23927115
55	0xbe82acc2	-0.2552243
56	0x3dbf3a34	0.09337273
57	0xbe8a6e3b	-0.27037224
58	0xbc368615	-0.011140366
59	0xbd8aac0d	-0.06771097
60	0x3a8e888b	0.0010874433
61	0x3e8ceb0c	0.27523077
62	0x3d8fb272	0.070164576
63	0xbe5f97f2	-0.21835306
64	0xbbb36c41	-0.0054755514
65	0xbe3454a6	-0.17610416
66	0xbdea3d94	-0.11437526
67	0x3e64b229	0.22333588
68	0x3cc1ad2a	0.023642141
69	0x3d2fa1f7	0.04287907
70	0xbd2cd5c2	-0.042196043
71	0xbe848f3b	-0.25890526
72	0xbe88d723	-0.26726636
73	0x3d43fccf	0.04784852
74	0xbe2dc9b5	-0.16971476
75	0xbe66d5e7	-0.22542535
76	0xbde0d4c4	-0.10978082
77	0xbe2581f5	-0.16162856
78	0x3e5c8df0	0.2153852
79	0x3e8b6e6f	0.27232692
80	0x3e37141a	0.17878762
81	0xbe0b930d	-0.13630314
82	0x3e3d5f32	0.18493345
83	0xbe4f0c3c	-0.20219511
84	0xbcdbda68	-0.026837543
85	0xbe3e9854	-0.18612796
86	0x3e8328cb	0.2561706
87	0x3e6ed68e	0.23324034
88	0xbe8eab17	-0.27864906
89	0x3e782e84	0.24236494
90	0x3d97da21	0.07414652
91	0xbe25f212	-0.16205624
92	0x3e60e764	0.21963269
93	0x3e8509be	0.25983995
94	0x3e83ee9a	0.25767976
95	0x3ddaf008	0.106903136
96	0x3e8babba	0.27279454
97	0x3e5893b8	0.211501
98	0x3e783e76	0.24242577
99	0x3da4aa84	0.08040336
100	0x3e64d710	0.22347665
101	0x3e5d3119	0.2160076
102	0x3e57da29	0.21079315
103	0xbddf4a5d	-0.109028555
104	0x3e03a12d	0.12854452
105	0xbe8d9d9a	-0.27659303
106	0xbd2e6dd0	-0.042585194
107	0x3e57102f	0.21002267
108	0xbe078610	-0.13234735
109	0xbc93239c	-0.017961316
110	0xbe3d61c0	-0.1849432
111	0x3e1ee57b	0.15517227
112	0x3e430a0c	0.19046801
113	0x3e925c0c	0.2858585
114	0xbda5beae	-0.0809301
115	0x3e5e0e99	0.21685256
116	0xbe8455ab	-0.2584661
117	0x3e5c5a80	0.21518898
118	0xbe4468be	-0.19180581
119	0xbd280cf8	-0.041027993
120	0xbdaa4a65	-0.08314971
121	0xbdab73a1	-0.08371664
122	0x3e804e77	0.25059864
123	0x3e899def	0.26878306
124	0x3e393235	0.18085559
125	0x3e917d37	0.28415844
126	0x3e9155dc	0.28385818
127	0x3e34122d	0.17585059
128	0xbe8feeae	-0.28111786
129	0x3d15f5be	0.03661131
130	0x3e8f6d18	0.2801292
131	0x3e1bffab	0.15234248
132	0xbe489b9f	-0.19590615
133	0xbd5b6a76	-0.053568326
134	0x3e9408e6	0.2891304
135	0x3d8c1de8	0.06841642
136	0x3d988602	0.07447435
137	0x3db0133e	0.0859742
138	0xbdbd1afc	-0.092336625
139	0x3e6d5f22	0.23180822
140	0x3e4367dd	0.1908259
141	0x3b701943	0.003663615
142	0xbdb3ef0f	-0.08785831
143	0xbe4f8279	-0.20264615
144	0x3e180a65	0.14847715
145	0x3e6b1a14	0.22959167
146	0x3cf5cd70	0.030005187
147	0xbda7ca72	-0.0819291
148	0x3e2c2713	0.1681178
149	0x3d1c5626	0.038168095
150	0x3e8b913f	0.2725925
151	0x3e6e779f	0.2328782
152	0x3e1d7d60	0.15379858
153	0x3e1b4ce3	0.15166049
154	0xbe79a6bc	-0.2438001
155	0x3d0e8787	0.034797218

fc.2.weight f4 [4, 156]
0	0x3c982fd5	0.018577496
1	0xbd8eeec0	-0.06979132
2	0x3d51a34e	0.05118113
3	0xbd9cab63	-0.07649877
4	0xbc8981b5	-0.016785482
5	0x3d0a371b	0.03374396
6	0xbc2b2261	-0.010445208
7	0x3da43213	0.080173634
8	0xbc9a8aef	-0.018865077
9	0x3d435063	0.047684085
10	0x3d46fcdf	0.048581
11	0x3d8cc4ce	0.06873475
12	0xbd4b73e1	-0.049671058
13	0x3cdb743a	0.02678882
14	0xbcd81fb6	-0.026382308
15	0xbcf760ee	-0.030197587
16	0x3d881b2f	0.0664581
17	0x3c07511b	0.008259083
18	0x3da10185	0.07861618
19	0xbd46e0d9	-0.048554275
20	0x3c30ce25	0.010791336
21	0xbc23396f	-0.009962424
22	0x3cc1b313	0.02364496
23	0xbd12acdd	-0.035809387
24	0xbd99b979	-0.07506079
25	0xbd8804c7	-0.06641536
26	0x3d4cc495	0.049992163
27	0x3d030a5a	0.031992294
28	0x3d067a01	0.032831196
29	0xbd6452a5	-0.05574288
30	0x3d49325b	0.04912029
31	0x3d9f4256	0.077763245
32	0xbd002457	-0.031284656
33	0x3d920371	0.07129563
34	0x3d652931	0.055947486
35	0xbda86cd5	-0.08223883
36	0x3c690f81	0.014224888
37	0x3cc3f83f	0.023922084
38	0xbc87591f	-0.016521988
39	0xbd256bbe	-0.040385954
40	0x3d055136	0.032548152
41	0x3cb7dc81	0.022444012
42	0x3cfcf009	0.030876176
43	0x3da2df75	0.07952777
44	0x3ce2a8d9	0.027668403
45	0x3d227d78	0.039670438
46	0x3c1a890d	0.0094320895
47	0xbc973eab	-0.0184625
48	0x3c745111	0.014911906
49	0xbd147e5d	-0.036253322
50	0xbd65fb7d	-0.05614804
51	0xbda15337	-0.078772
52	0xbd832e54	-0.06405321
53	0x3c24034d	0.010010553
54	0x3d8250d8	0.06363076
55	0x3d5e6927	0.0542995
56	0x3a989caa	0.0011643369
57	0xbd803df1	-0.062618144
58	0xbd9b8564	-0.075938016
59	0x3d8c54da	0.06852122
60	0xbc8165e6	-0.01579566
61	0x3d506885	0.050880928
62	0x3cd918f5	0.026501158
63	0xbcff490b	-0.03116276
64	0x3b81e209	0.003963713
65	0x3d371bfc	0.044704422
66	0xbd092ce9	-0.033490095
67	0xbc897309	-0.016778486
68	0xbd23a274	-0.03994985
69	0x3d31ba70	0.04339069
70	0xbd4196e8	-0.047263056
71	0xbd870169	-0.06592066
72	0xbb39c08c	-0.0028343527
73	0x3c71c85e	0.014757244
74	0xbd77d271	-0.060503427
75	0xbd5fa041	-0.05459619
76	0xbc801ff9	-0.015640246
77	0x3c73cd2f	0.014880463
78	0x3d88669c	0.06660196
79	0xbd9c5617	-0.07633608
80	0x3d930121	0.0717795
81	0x3d6349b2	0.055490203
82	0xbd1e9b8f	-0.03872257
83	0xbd9c2a72	-0.07625283
84	0x3cdc31fb	0.026879301
85	0x3d649ef3	0.05581565
86	0x3b3263af	0.002722006
87	0x3bad9979	0.0052978364
88	0x3cf1d333	0.029519653
89	0x3cb4a231	0.022049995
90	0x3d24f7e5	0.040275473
91	0xb9261574	-0.00015838986
92	0x3d782d58	0.06059012
93	0x3addff9a	0.0016937137
94	0xbce83081	-0.028343441
95	0xbd9b9cd3	-0.07598271
96	0x3d64bc3b	0.055843573
97	0x3cf82c51	0.03029457
98	0xbd101458	-0.03517565
99	0x3d4444ae	0.04791706
100	0xbd8e0aa1	-0.06935621
101	0xbd0ae32c	-0.033908054
102	0x3bc3b756	0.005972783
103	0xbd917f1e	-0.07104324
104	0x3c568b96	0.013094803
105	0x3c768485	0.015046244
106	0x3c934592	0.01797751
107	0x3bf9f096	0.007627557
108	0xbd3419ab	-0.04396979
109	0xbd578f4a	-0.052626885
110	0xbd8a98a0	-0.06767392
111	0x3bb3f651	0.0054920097
112	0x3cd0bbbb	0.025480142
113	0xbcb77bd7	-0.022397919
114	0xbd637f81	-0.05554152
115	0xbda1d34e	-0.07901631
116	0x3b3d9e1b	0.002893335
117	0x3d3ec6ed	0.04657643
118	0xbd8b0bd6	-0.06789367
119	0x3d1e9f43	0.038726103
120	0xbd13eee0	-0.03611648
121	0x3d08c7bf	0.033393618
122	0x3d5469f0	0.051858842
123	0xbd1e34ab	-0.038624447
124	0xbabec9d9	-0.0014556005
125	0xbd960d90	-0.073268056
126	0xbc2f97e4	-0.010717366
127	0xbd9ec5a7	-0.07752543
128	0x3ccdc5ff	0.025118826
129	0xbd87fcab	-0.066399895
130	0x3d3b4e24	0.045728818
131	0xbcd6349b	-0.026148131
132	0x3d89d532	0.06730117
133	0x3d78658d	0.06064372
134	0x3da1a6c9	0.0789314
135	0xbd8d2a37	-0.068928175
136	0x3d9cef0f	0.07662784
137	0xbb983e4f	-0.0046460996
138	0xbce4babf	-0.027921079
139	0xbd4be3f2	-0.049777932
140	0x3d879fcd	0.066222765
141	0xbd01c49c	-0.031681642
142	0x3d8def4a	0.069304064
143	0x3d7e4c52	0.062084503
144	0xbd36464d	-0.044500638
145	0xbd5ec4ce	-0.054386906
146	0xbc97d3fd	-0.018533701
147	0xbd4e49f6	-0.050363503
148	0x3c481b6e	0.012213571
149	0x3cf38d81	0.02973056
150	0x3cc3239d	0.023820693
151	0xbca8191f	-0.020519791
152	0x3a1c1425	0.00059539295
153	0x3d0db7db	0.034599166
154	0x3b9ee99b	0.0048496253
155	0x3ca0d577	0.019633038
156	0xbd97aaa2	-0.074055925
157	0x3d369e83	0.044584762
158	0x3c8ab92b	0.016933998
159	0x3c05d152	0.008167582
160	0xbcd76bfe	-0.026296612
161	0x3cf70b3d	0.030156726
162	0xbcda9f98	-0.026687428
163	0x3a8c251e	0.0010692214
164	0xbd9aeefb	-0.07565113
165	0xbc24d55d	-0.010060635
166	0xbced73d5	-0.028985897
167	0xbc0309b5	-0.00799792
168	0x3d522579	0.051305268
169	0xbd6586cd	-0.05603676
170	0x3d1bc137	0.03802606
171	0x3da261d6	0.07928817
172	0x3b8d99a9	0.0043212962
173	0xbc186178	-0.009300582
174	0xbcf42c81	-0.029806377
175	0x3baf63e0	0.005352482
176	0x3d372027	0.044708397
177	0x3badcb4d	0.0053037764
178	0x3d939fcc	0.07208213
179	0xbcf8bd8e	-0.030363824
180	0xbd1402a0	-0.036135316
181	0xbc6e8fa1	-0.014560611
182	0x3d7f00da	0.06225667
183	0x3cde4a18	0.02713494
184	0x3d5e1c05	0.05422594
185	0x3c51ad5b	0.012797679
186	0x3cb8209d	0.022476489
187	0x3cec8d7e	0.028876062
188	0x3d09efb3	0.03367586
189	0x3abcd19c	0.001440573
190	0xbd4c04f9	-0.04980943
191	0x3c962c49	0.018331664
192	0xbda077c6	-0.07835345
193	0xbd5f673c	-0.05454181
194	0x3b100ed6	0.00219815
195	0xbbbef9b8	-0.0058281086
196	0xbd42cb5e	-0.047557227
197	0xbcbe83ee	-0.023256268
198	0xbcc846c4	-0.024447806
199	0xbd3dcfbb	-0.046340685
200	0x3c16f98f	0.009214773
201	0xbc8a68b7	-0.016895635
202	0x3bfaee0a	0.007657771
203	0x3c0a710a	0.008449802
204	0x3c93a2f6	0.018022042
205	0x3b48c1fc	0.0030633202
206	0xbd9098ce	-0.07060395
207	0xbc81fd0f	-0.015867738
208	0xbd3024d5	-0.043003876
209	0x3d9f9efe	0.07793997
210	0x3da2efed	0.079559185
211	0xbb8e20f5	-0.004337425
212	0x3d4a59b8	0.04940197
213	0x3d7fbf92	0.062438555
214	0xbb2b3be5	-0.002612823
215	0x3c78f638	0.015195422
216	0xb9fd70bb	-0.0004833991
217	0x3d2502f8	0.040286034
218	0x3c850923	0.016239708
219	0x3d839745	0.06425337
220	0x3d0095f2	0.031393
221	0x3cde55db	0.027140548
222	0x3cd90bb5	0.02649484
223	0x3d1d3ee5	0.03839006
224	0xbcfc2514	-0.030779399
225	0xbd86b630	-0.06577718
226	0xbd2bb33b	-0.041918974
227	0xbd8a7aec	-0.06761727
228	0xbd0545f6	-0.032537423
229	0xbd7baf1d	-0.061446298
230	0xbd08a3a0	-0.03335917
231	0x3d24684c	0.040138528
232	0xbce269a6	-0.027638268
233	0x3d2782b0	0.040896118
234	0x3ba19e27	0.0049321833
235	0xbd95a2ac	-0.07306418
236	0xbc589da0	-0.0132211745
237	0x3c34c622	0.011033567
238	0x3c5f0aec	0.013613444
239	0x3c814946	0.01578201
240	0xbd9f9277	-0.07791608
241	0x3d60a48c	0.054844424
242	0x3c9bd4b7	0.019022329
243	0xbd249d29	-0.040188942
244	0xbd81bfc7	-0.06335407
245	0xbd961b9b	-0.07329484
246	0xbd4e32ba	-0.050341345
247	0xbc8a061d	-0.016848618
248	0xbd5b4654	-0.053533867
249	0x3d5436b9	0.05181
250	0x3d2b45e5	0.041814703
251	0xbc9a72d3	-0.01885358
252	0xbd5964cc	-0.053074643
253	0x3d02c027	0.031921532
254	0xbd6ac1ef	-0.057313856
255	0x3d641ba8	0.055690438

fc.2.bias f4 [4]
0	0xbbe2e95a	-0.0069247903
1	0xbc9b238f	-0.018937854
2	0x3d6f8aee	0.058482103
3	0x3d5870cc	0.052841946
