Genetic/Models/score_55_model_132047.pt (torch, 12127 bytes, 4 tensors)

fc.0.weight f4 [156, 12]
0	0xbc7816d5	-0.015142162
1	0xbc5e547f	-0.01356995
2	0x3e776817	0.24160801
3	0x3dc09081	0.09402562
4	0x3e1220d0	0.1427033
5	0xbe48e7d5	-0.19619687
6	0x3cc233a7	0.02370627
7	0x3e668219	0.22510566
8	0xbce14b93	-0.027501857
9	0xbd0a3d14	-0.033749655
10	0xbd989bc7	-0.07451587
11	0x3e670ae2	0.22562745
12	0xbe328dbb	-0.17436878
13	0x3b764ff7	0.0037584284
14	0xbe744c01	-0.23857118
15	0x3e75530c	0.23957461
16	0xbe8abc2a	-0.27096683
17	0xbdf807ef	-0.12110888
18	0xbe80d375	-0.2516133
19	0xbe8363a9	-0.25661972
20	0xbe7f53fc	-0.24934381
21	0x3d4c2147	0.049836423
22	0x3c260da7	0.010135091
23	0xbe440928	-0.19144118
24	0xbe731645	-0.23738964
25	0x3e6f1226	0.23346767
26	0xbbec10a8	-0.007204134
27	0x3e4e669f	0.20156334
28	0xb8e234ba	-0.00010786341
29	0xbe6c4055	-0.23071416
30	0x3e00ed88	0.12590611
31	0x3e41882e	0.18899605
32	0xbbfc0269	-0.007690717
33	0xbcec2a46	-0.028828751
34	0xbe889aa1	-0.26680472
35	0x3d046ca6	0.032330178
36	0xbdc77386	-0.09738831
37	0x3e1f515e	0.15558383
38	0xbe8d92b9	-0.27651003
39	0xbe0c2650	-0.1368649
40	0x3e37e877	0.17959772
41	0x3e8531c7	0.2601454
42	0xbe455146	-0.19269285
43	0x3dc8eeee	0.09811197
44	0x3d855cdb	0.065118514
45	0x3e89db06	0.26924914
46	0xbe572eb1	-0.21013905
47	0xbe71823b	-0.23584835
48	0x3e34a457	0.17640816
49	0xbe7c644f	-0.2464764
50	0xbd84aeb2	-0.06478633
51	0x3dc19c24	0.094536096
52	0xbb386077	-0.002813367
53	0xbe8fcc0f	-0.28085372
54	0xbca6db67	-0.020368291
55	0x3d6ee846	0.058326982
56	0x3e09d0e7	0.13458596
57	0xbd7c2d1a	-0.06156645
58	0x3e386c12	0.18009976
59	0xbcbe94b9	-0.023264276
60	0x3e800829	0.25006226
61	0x3e632f2b	0.22185962
62	0xbe2f8a0b	-0.17142503
63	0xbe521b0c	-0.2051813
64	0x3e084283	0.13306622
65	0xbcbe6622	-0.02324206
66	0x3dcbb0f4	0.099458605
67	0x3e2e8c95	0.17045815
68	0xbe4196d4	-0.18905193
69	0xbe84dbb5	-0.25948873
70	0xbdaa1461	-0.08304668
71	0x3da84b54	0.08217493
72	0x3e890a26	0.26765555
73	0x3c4eb743	0.012616935
74	0x3dfd3333	0.12363281
75	0x3cb9ab7a	0.022664774
76	0x3d09cd19	0.033642862
77	0xbe8ed92c	-0.27900064
78	0x3e6b4254	0.22974521
79	0xbe5cde5f	-0.21569203
80	0xbe6dbff6	-0.23217759
81	0x3db1ec03	0.08687594
82	0xbd8ee7a2	-0.06977774
83	0x3cb1cfc8	0.021705523
84	0x3e6eb5a4	0.23311478
85	0x3e1c30f3	0.15253048
86	0x3e8140a5	0.25244632
87	0x3e2a05b4	0.16603738
88	0xbe15bc62	-0.14622644
89	0x3bbce70a	0.0057648467
90	0xbdd4ac4f	-0.10384428
91	0x3d0d7737	0.03453752
92	0x3e374658	0.17897928
93	0x3e80391b	0.25043568
94	0xbd22a450	-0.03970748
95	0xbd83fc71	-0.06444634
96	0x3e76f829	0.24118103
97	0x3e87c547	0.26517698
98	0x3e7dcd98	0.24785459
99	0xbd82ba3f	-0.0638318
100	0xbe85feea	-0.26171046
101	0x3cf5204d	0.029922629
102	0xbd58bb01	-0.052912716
103	0x3e7db009	0.24774183
104	0x3e55dc18	0.2088474
105	0x3e073ba6	0.13206348
106	0x3c8a2126	0.01686151
107	0xbe863c60	-0.26217937
108	0x3b8619de	0.004092439
109	0x3db7b8a2	0.08970763
110	0x3cfd5397	0.030923648
111	0x3d83d202	0.0643654
112	0x3dc2d116	0.09512536
113	0x3def53be	0.116858944
114	0x3e4fc2ed	0.20289202
115	0x3d6ee3fa	0.058322884
116	0xbe349fd0	-0.17639089
117	0x3e2c810e	0.16846105
118	0xbc6e6373	-0.014550078
119	0xbe352906	-0.1769143
120	0xbcc4cfc1	-0.024024846
121	0x3e58c058	0.21167123
122	0x3dfbc863	0.1229408
123	0x3e7c60d3	0.2464631
124	0xbd78689d	-0.060646642
125	0x3e8a12f7	0.26967594
126	0xbe40d535	-0.18831332
127	0x3e0fe45a	0.14051953
128	0xbe2c844e	-0.16847345
129	0x3e8e6b44	0.27816212
130	0x3d39f97e	0.04540395
131	0x3e1d5115	0.15362962
132	0xbdf981d5	-0.121829666
133	0x3cc41258	0.023934528
134	0x3e467850	0.19381833
135	0x3b4e5ef0	0.0031489693
136	0xbd38fb46	-0.045161508
137	0x3978e298	0.00023735536
138	0xbdd08eab	-0.10183462
139	0x3d08c9de	0.03339564
140	0xbcfba62c	-0.030718885
141	0x3de2124b	0.11038645
142	0x3daeb9f8	0.085315645
143	0x3e603ed8	0.21898973
144	0x3e06e06e	0.1317155
145	0x3aa4ecaa	0.0012582738
146	0xbe94b2a1	-0.29042533
147	0x3e5f23e1	0.2179103
148	0x3cb834bb	0.022486081
149	0x3dbb6eae	0.0915197
150	0x3e1add32	0.15123442
151	0xbe880021	-0.26562598
152	0x3e4565b7	0.19277082
153	0xbc8ad3f8	-0.016946778
154	0xbe52390d	-0.20529576
155	0xbe365ba1	-0.17808391
156	0x3d8cc0bf	0.06872701
157	0x3e8f2228	0.27955747
158	0x3e1c8007	0.15283214
159	0x3d7e123f	0.06202912
160	0x3dbf3460	0.093361616
161	0xbceddb2c	-0.029035173
162	0xbe0d0d9c	-0.13774723
163	0xbdcae3da	-0.099067405
164	0xbe71bba7	-0.2360674
165	0xbdddd4f0	-0.1083163
166	0x3e094378	0.13404644
167	0xbe4fa2e1	-0.20276977
168	0x3e27f3d2	0.16401604
169	0x3e0e0919	0.13870658
170	0x3df670b4	0.12033215
171	0x3ceec714	0.029147662
172	0x3e35657c	0.17714494
173	0x3e49039d	0.19630285
174	0xbe85a4ce	-0.26102298
175	0x3e1f4042	0.15551856
176	0xbd7f9fdd	-0.062408317
177	0x3e032641	0.12807561
178	0x3e0e4dea	0.1389691
179	0xbe1399bf	-0.14414118
180	0xbd0823a5	-0.03323712
181	0xbd542a16	-0.05179795
182	0x3dc63223	0.096775316
183	0xbde52826	-0.11189298
184	0x3db53a77	0.08849042
185	0x3e86a0c7	0.26294538
186	0xbe816ef8	-0.25279975
187	0x3d5e2019	0.05422983
188	0xbe82502e	-0.25451797
189	0x3cb91836	0.022594552
190	0x3e67dcda	0.22642842
191	0x3e7c6dc5	0.24651249
192	0xbe1a42b1	-0.15064503
193	0xbe0aff4f	-0.13573955
194	0xbbe00d33	-0.006837511
195	0xbe1de782	-0.15420344
196	0xbe4367ff	-0.1908264
197	0x3e8cebda	0.2752369
198	0x3e8c86f7	0.2744672
199	0x3e08afcb	0.1334831
200	0x3dd656fe	0.10465811
201	0xbd161b76	-0.036647283
202	0xbe8029f0	-0.25031996
203	0x3d0b74a3	0.03404678
204	0x3e681582	0.22664455
205	0xbe8e326d	-0.27772847
206	0x3e115b92	0.14195088
207	0x3de2ff78	0.11083883
208	0x3e3ef6fb	0.18648903
209	0xbd1e1a96	-0.038599573
210	0x3e38ba5f	0.18039845
211	0x3ce1d069	0.027565198
212	0x3e856ab1	0.26057962
213	0xbba0a086	-0.0049019484
214	0x3e8e5aa4	0.27803528
215	0x3e4413cb	0.19148175
216	0xbc8a6818	-0.016895339
217	0xbe319658	-0.17342508
218	0x3d301f30	0.042998493
219	0x3ce1c931	0.027561756
220	0x3e3ac1d0	0.18237996
221	0xbc709acf	-0.014685347
222	0x3e36d69b	0.17855303
223	0xbe011482	-0.1260548
224	0xbdd4f64f	-0.10398542
225	0xbe5c76fc	-0.21529764
226	0x3e0d5fa7	0.1380602
227	0x3db2caf4	0.087301165
228	0x3e46fb5f	0.19431828
229	0x3e3ae6a3	0.18252043
230	0xbd59cf7f	-0.0531764
231	0x3c0aad24	0.0084641315
232	0xbde37c9b	-0.11107751
233	0x3dba310f	0.090913884
234	0x3c32aa65	0.010904883
235	0xbe606037	-0.21911703
236	0x3e7542c8	0.23951256
237	0x3bbabef6	0.005699034
238	0x3e577c3e	0.21043488
239	0x3dc7edc2	0.097621456
240	0xbe90da86	-0.2829172
241	0x3e03b698	0.12862623
242	0x3e884b2d	0.26619855
243	0xbc57f766	-0.013181543
244	0x3d908d94	0.07058254
245	0xbe85e31d	-0.26149836
246	0xbe870238	-0.2636888
247	0x3c479c24	0.012183223
248	0x3df4f966	0.119616315
249	0x3df78212	0.12085356
250	0xbd517e08	-0.051145583
251	0xbd22c9c5	-0.039743204
252	0x3e528a47	0.20560561
253	0x3e32a9ca	0.17447582
254	0x3dbbe02c	0.09173617
255	0xbe85067c	-0.2598151

fc.0.bias f4 [156]
0	0xbbcd53ee	-0.0062661087
1	0xbe03ee3b	-0.12883846
2	0xbe6ce09e	-0.2313256
3	0x3e49ffd7	0.19726501
4	0x3e5b3b55	0.21409352
5	0x3e775b90	0.24156022
6	0xbe7f73c9	-0.24946512
7	0x3e86974c	0.26287305
8	0x3e53a8a0	0.20669794
9	0x3e86ab4c	0.26302564
10	0xbe90b3ac	-0.2826208
11	0xbe07e065	-0.13269193
12	0x3d1137ec	0.035453722
13	0xbd838214	-0.06421295
14	0xbd95e8b5	-0.07319776
15	0xbe81edc3	-0.2537671
16	0x3bf9515e	0.0076085767
17	0x3e231e11	0.15929438
18	0x3d653469	0.055958185
19	0xbbe7c8d5	-0.0070735016
20	0x3ccfd2b5	0.025369028
21	0x3e8c36cd	0.2738556
22	0x3d97e4cb	0.07416686
23	0x3ce63f4b	0.028106352
24	0x3dba966b	0.09110721
25	0x3dbfb516	0.09360711
26	0x3de3ec39	0.1112904
27	0xbe89b196	-0.268933
28	0xbcb46694	-0.02202157
29	0x3e4cbd2a	0.19994035
30	0xbe08c81a	-0.13357583
31	0x3d1d0bac	0.03834121
32	0x3e64903d	0.22320648
33	0xbb59d702	-0.0033239727
34	0xbb9f55f5	-0.004862542
35	0xbca52c9c	-0.020162873
36	0xbe3ae52f	-0.18251489
37	0xbdf6bd51	-0.12047828
38	0xbdd69adc	-0.10478756
39	0xbc706ddb	-0.014674629
40	0x3d73d022	0.059524663
41	0x3d30fc0b	0.043209117
42	0x3d3d8cee	0.04627698
43	0x3e8d1e6a	0.27562267
44	0x3e65c8ee	0.2243993
45	0xbe4a6d7f	-0.19768332
46	0x3d380623	0.044927727
47	0x3d6f92ae	0.058489494
48	0x3e483760	0.19552374
49	0xbc87a4be	-0.016558047
50	0x3e19e70d	0.15029545
51	0x3c8c5298	0.017129228
52	0xbe6583bb	-0.22413532
53	0xbcb4108d	-0.021980548
54	0x3e74aa17	0.23893009
55	0xbe82b4e0	-0.25528622
56	0x3dc162cc	0.09442672
57	0xbe8a9523	-0.27066907
58	0xbc35f14b	-0.011104892
59	0xbd8bf04a	-0.06832941
60	0xb913d0d2	-0.00014096804
61	0x3e8cc4d3	0.27493915
62	0x3d8f3291	0.06992067
63	0xbe5f56c6	-0.21810445
64	0xbba5ba36	-0.0050575985
65	0xbe339f68	-0.17541277
66	0xbde71c81	-0.112847336
67	0x3e660c0a	0.2246553
68	0x3cbd7a96	0.023129743
69	0x3d305d9d	0.043058027
70	0xbd2e8ac0	-0.04261279
71	0xbe8497d0	-0.25897074
72	0xbe88a1cb	-0.26685938
73	0x3d44420a	0.047914542
74	0xbe2e1f19	-0.1700405
75	0xbe66581b	-0.22494547
76	0xbde202d5	-0.110356964
77	0xbe2536f7	-0.16134249
78	0x3e5bc64b	0.21462362
79	0x3e8b3b6e	0.2719378
80	0x3e36f38a	0.1786634
81	0xbe0b5a09	-0.13608564
82	0x3e3c9e6e	0.18419811
83	0xbe4fe889	-0.20303549
84	0xbce25c07	-0.027631773
85	0xbe3df8b3	-0.18551902
86	0x3e8325f1	0.25614884
87	0x3e6ef1a6	0.23334369
88	0xbe8e65a6	-0.27811927
89	0x3e78a899	0.24283065
90	0x3d993063	0.07479932
91	0xbe25026a	-0.16114202
92	0x3e5fa471	0.21840073
93	0x3e853ed0	0.26024485
94	0x3e83b4ab	0.25723776
95	0x3ddce9da	0.10786791
96	0x3e8b762d	0.27238598
97	0x3e58c87c	0.21170229
98	0x3e780061	0.24218895
99	0x3da62bc1	0.08113814
100	0x3e640b13	0.2226985
101	0x3e5d1c10	0.21592736
102	0x3e5905f7	0.21193682
103	0xbddf401b	-0.10900899
104	0x3e03c0f9	0.12866582
105	0xbe8d5b1c	-0.27608573
106	0xbd29f708	-0.041495353
107	0x3e562637	0.20913015
108	0xbe068aee	-0.13138935
109	0xbc9cbc30	-0.019132704
110	0xbe3e83cf	-0.18604968
111	0x3e1de357	0.15418755
112	0x3e439116	0.19098315
113	0x3e924cc8	0.28574204
114	0xbda6cf0c	-0.0814496
115	0x3e5eb97b	0.21750443
116	0xbe849009	-0.2589114
117	0x3e5c422a	0.21509615
118	0xbe44436d	-0.19166346
119	0xbd2568d6	-0.040383182
120	0xbda9a3b2	-0.082831755
121	0xbda91b6d	-0.08257184
122	0x3e801957	0.25019333
123	0x3e897102	0.2684403
124	0x3e38ac02	0.18034366
125	0x3e911b7a	0.28341275
126	0x3e924829	0.2857068
127	0x3e34b898	0.17648542
128	0xbe906ea9	-0.28209427
129	0x3d125b53	0.035731625
130	0x3e8fc479	0.28079584
131	0x3e1be129	0.1522261
132	0xbe47f205	-0.19525917
133	0xbd5598be	-0.05214762
134	0x3e93ef2d	0.28893414
135	0x3d8a8538	0.06763691
136	0x3d9b4b43	0.075827144
137	0x3db0d26d	0.086338855
138	0xbdbdca34	-0.09267083
139	0x3e6b50df	0.22980069
140	0x3e42203b	0.18957607
141	0x3b5b0232	0.0033418057
142	0xbdb4067c	-0.08790299
143	0xbe511b8a	-0.20420662
144	0x3e188b4d	0.14896889
145	0x3e6b14bd	0.2295713
146	0x3cf185bf	0.02948272
147	0xbda69d5b	-0.08135482
148	0x3e2be019	0.16784705
149	0x3d161e50	0.036650002
150	0x3e8c004f	0.27343985
151	0x3e6f7f2a	0.23388353
152	0x3e1d2089	0.15344442
153	0x3e1c12f0	0.15241599
154	0xbe7a1190	-0.24420762
155	0x3d118250	0.035524666

fc.2.weight f4 [4, 156]
0	0x3c9f76c1	0.019465806
1	0xbd8e4909	-0.06947524
2	0x3d4e6a65	0.050394434
3	0xbd9b3813	-0.07579055
4	0xbc87eded	-0.016592944
5	0x3d0b68b5	0.034035403
6	0xbc1e103a	-0.009647423
7	0x3da417b9	0.08012337
8	0xbca1f179	-0.019768463
9	0x3d425425	0.047443528
10	0x3d475efa	0.04867456
11	0x3d8c3399	0.06845779
12	0xbd4ce9a0	-0.05002749
13	0x3ce80b8c	0.028325818
14	0xbcd70dfc	-0.026251785
15	0xbcf636bd	-0.030055398
16	0x3d897feb	0.067138515
17	0x3c09390b	0.0083754165
18	0x3da07e03	0.07836535
19	0xbd461ba7	-0.048366215
20	0x3c2104c7	0.009827799
21	0xbc2d5c45	-0.010581081
22	0x3cc60960	0.024174392
23	0xbd0e6c06	-0.034770988
24	0xbd981258	-0.07425374
25	0xbd897d94	-0.06713405
26	0x3d4afb3d	0.049556006
27	0x3d023d33	0.031796645
28	0x3d00dcc1	0.031460527
29	0xbd5f1d06	-0.05447104
30	0x3d47a5ab	0.048741978
31	0x3d9fd81c	0.078048915
32	0xbcf86eeb	-0.030326327
33	0x3d933299	0.07187385
34	0x3d6842d5	0.05670436
35	0xbda5dbd2	-0.08098568
36	0x3c7e20fa	0.015510792
37	0x3cc20bba	0.023687232
38	0xbc8dbc91	-0.01730183
39	0xbd1d487c	-0.038399205
40	0x3d03d2b9	0.032183383
41	0x3cbce138	0.023056611
42	0x3cf5688a	0.029957075
43	0x3da63ac1	0.08116675
44	0x3cdbbe40	0.026824117
45	0x3d231eeb	0.039824408
46	0x3c090c54	0.008364756
47	0xbc97ddda	-0.018538404
48	0x3c82dc7c	0.015974276
49	0xbd110f89	-0.035415206
50	0xbd65c374	-0.0560946
51	0xbda4fb33	-0.08055725
52	0xbd84b996	-0.0648071
53	0x3c1edfef	0.009696945
54	0x3d838a70	0.06422889
55	0x3d601112	0.05470378
56	0x3b205e56	0.002447029
57	0xbd7f21db	-0.062288146
58	0xbd9ab2c1	-0.07553626
59	0x3d8ca2f6	0.0686702
60	0xbc736042	-0.014854493
61	0x3d5006f5	0.050787885
62	0x3cdbe00c	0.026840232
63	0xbcf83010	-0.030296355
64	0x3b7947fe	0.0038037295
65	0x3d3293bd	0.043597925
66	0xbd084bb7	-0.033275332
67	0xbc8d232e	-0.017228689
68	0xbd273db9	-0.040830348
69	0x3d308bcf	0.043102082
70	0xbd489208	-0.04896739
71	0xbd8a3391	-0.06748117
72	0xbb999e1a	-0.0046880366
73	0x3c80db4c	0.015729569
74	0xbd7de221	-0.06198323
75	0xbd6128c3	-0.054970514
76	0xbc7710d7	-0.0150796985
77	0x3c6dbb7a	0.01451003
78	0x3d868e0a	0.065700606
79	0xbd9c953e	-0.07645653
80	0x3d91c4de	0.071176276
81	0x3d629fa0	0.05532801
82	0xbd1fe76f	-0.03903907
83	0xbd9917ee	-0.07475267
84	0x3cd733a5	0.026269743
85	0x3d64ca86	0.055857204
86	0x3b0e4c4e	0.0021712962
87	0x3b7ac9e9	0.003826732
88	0x3cf21807	0.029552473
89	0x3cb1f613	0.021723783
90	0x3d253b7b	0.040339928
91	0xbab7b75b	-0.0014016436
92	0x3d788e72	0.06068272
93	0x3abe38ea	0.0014512811
94	0xbceb746d	-0.02874204
95	0xbd9b4f5f	-0.07583498
96	0x3d67a2bd	0.056551684
97	0x3cf521ad	0.029923284
98	0xbd0d344c	-0.034473702
99	0x3d428357	0.047488537
100	0xbd8b2d1e	-0.06795715
101	0xbd0cc863	-0.03437079
102	0x3ba5a332	0.005054855
103	0xbd939332	-0.0720581
104	0x3c4b6404	0.012413982
105	0x3c6bac4e	0.014384342
106	0x3c8aa35b	0.016923597
107	0x3bdb26ee	0.0066879904
108	0xbd345786	-0.04402878
109	0xbd543283	-0.051805984
110	0xbd8a81df	-0.06763052
111	0x3bef722b	0.007307311
112	0x3ccd29fd	0.025044436
113	0xbcb678c8	-0.02227439
114	0xbd66c642	-0.056341417
115	0xbda04446	-0.07825522
116	0x3b8c0ddc	0.004274113
117	0x3d44a6f3	0.048010778
118	0xbd8beeee	-0.068326816
119	0x3d1f9a8f	0.038965758
120	0xbd1272b4	-0.03575392
121	0x3d0ba491	0.03409249
122	0x3d52bc1c	0.051448926
123	0xbd225f33	-0.03964157
124	0xbb299875	-0.0025878225
125	0xbd94d821	-0.07267786
126	0xbc323bef	-0.010878547
127	0xbd9ea35e	-0.077460036
128	0x3cd37730	0.025813669
129	0xbd89543c	-0.067055196
130	0x3d3f666a	0.04672853
131	0xbcd34da1	-0.025793852
132	0x3d8acb63	0.06777074
133	0x3d771194	0.0603195
134	0x3da264ce	0.07929383
135	0xbd8a2798	-0.06745833
136	0x3d9c8fd0	0.076446176
137	0xbb8d5bec	-0.0043139365
138	0xbce981d9	-0.028504299
139	0xbd4d6740	-0.050147295
140	0x3d86f99e	0.065905795
141	0xbcfaea56	-0.030629318
142	0x3d916b0f	0.07100498
143	0x3d820c78	0.063500345
144	0xbd3789f5	-0.0448093
145	0xbd674dda	-0.05647073
146	0xbc9f8105	-0.019470701
147	0xbd4fb9dc	-0.05071436
148	0x3c4dc913	0.012560147
149	0x3ceefe75	0.029174069
150	0x3cc2e609	0.02379133
151	0xbc9910eb	-0.018684825
152	0x3ab70361	0.0013962799
153	0x3d0a0384	0.03369476
154	0x3b91a5f0	0.00444483
155	0x3c9ccbaf	0.019140093
156	0xbd9b2b64	-0.075766355
157	0x3d332b2c	0.043742344
158	0x3c85ede0	0.01634878
159	0x3c04550a	0.0080769155
160	0xbcd48c19	-0.02594571
161	0x3cf6a983	0.030110126
162	0xbcd8163f	-0.026377795
163	0x3af0b808	0.0018365392
164	0xbd99e8e0	-0.075151205
165	0xbc189fa8	-0.009315409
166	0xbd00d6d0	-0.03145486
167	0xbc029429	-0.007969894
168	0x3d524bb4	0.051341727
169	0xbd6a34da	-0.05717931
170	0x3d1a11ab	0.037614506
171	0x3da11f20	0.07867265
172	0x3b9a4724	0.0047081877
173	0xbc13c69e	-0.009019522
174	0xbcfb373c	-0.030665986
175	0x3bcd7b08	0.00627077
176	0x3d3d799d	0.046258558
177	0x3bb732f4	0.005590791
178	0x3d9601e3	0.073245786
179	0xbcf6b3aa	-0.030114967
180	0xbd179ad8	-0.037012905
181	0xbc80c1af	-0.015717356
182	0x3d7b49bc	0.061349615
183	0x3cf4ce5f	0.029883562
184	0x3d6036cd	0.054739762
185	0x3c54196e	0.012945516
186	0x3cbf6760	0.023364723
187	0x3ce9ba78	0.028531298
188	0x3d0a7398	0.033801645
189	0x397cc3f8	0.00024105597
190	0xbd52eb0e	-0.051493697
191	0x3c8657a7	0.016399218
192	0xbda1d8d5	-0.079026856
193	0xbd60d1b0	-0.054887474
194	0x3b045f44	0.0020198384
195	0xbba5a0e2	-0.005054579
196	0xbd418326	-0.047244214
197	0xbcc5cf4a	-0.024146695
198	0xbccca722	-0.024982039
199	0xbd3ce0f5	-0.046112973
200	0x3c076a5b	0.008265103
201	0xbc86c61a	-0.016451884
202	0x3be2f95c	0.0069266986
203	0x3c10e5fa	0.008843893
204	0x3c91f2bf	0.017815946
205	0x3b462867	0.0030236484
206	0xbd92df10	-0.07171452
207	0xbc877b4e	-0.016538288
208	0xbd333dd6	-0.043760143
209	0x3d9fb06d	0.077973224
210	0x3da1c0a8	0.078980744
211	0xbbb1edde	-0.0054299673
212	0x3d49ae31	0.049238387
213	0x3d7f1b6b	0.062282007
214	0xbb2a681f	-0.0026002002
215	0x3c8d6d45	0.017264018
216	0xba59d264	-0.0008309244
217	0x3d21bcb7	0.039486613
218	0x3c848079	0.016174542
219	0x3d869c75	0.065728106
220	0x3d03c752	0.03217251
221	0x3ce6a483	0.028154617
222	0x3cdf311f	0.027245102
223	0x3d22913c	0.039689288
224	0xbcf90acf	-0.030400662
225	0xbd87678e	-0.06611548
226	0xbd2cb176	-0.042161427
227	0xbd8d3971	-0.06895722
228	0xbd033308	-0.03203109
229	0xbd771779	-0.06032512
230	0xbd02ec5b	-0.031963687
231	0x3d2812d7	0.041033592
232	0xbce34c6f	-0.027746407
233	0x3d2a918c	0.04164271
234	0x3ba50168	0.005035568
235	0xbd940dd8	-0.07229203
236	0xbc6a5d6f	-0.014304503
237	0x3c44e219	0.0120167965
238	0x3c6bc07b	0.014389153
239	0x3c87aae9	0.016560989
240	0xbda2740b	-0.0793229
241	0x3d5a3bb5	0.053279597
242	0x3c9e424b	0.01931872
243	0xbd1dadf4	-0.038495973
244	0xbd80e713	-0.06294074
245	0xbd96780c	-0.07347116
246	0xbd4e5b8d	-0.05038028
247	0xbc9334ed	-0.017969573
248	0xbd62ae6d	-0.055342127
249	0x3d585145	0.05281188
250	0x3d2bed43	0.041974317
251	0xbc9e116f	-0.019295422
252	0xbd60e0ff	-0.054902073
253	0x3d011a2c	0.0315191
254	0xbd68366a	-0.05669252
255	0x3d63165c	0.055441245

fc.2.bias f4 [4]
0	0xbbf677ea	-0.007521619
1	0xbc96f236	-0.018426042
2	0x3d70a9ce	0.05875569
3	0x3d58fb82	0.05297423
