V1/Models/score_57_model_167397.pt (torch, 12127 bytes, 4 tensors)

fc.0.weight f4 [156, 12]
00000000: fabf 69bc 0c8e 64bc 87b0 773e 8a88 c13d
00000010: 2ab7 113e da8b 48be 6ae7 c03c cbd5 663e
00000020: 418c dcbc 8039 0bbd 0ba7 97bd 19da 663e
00000030: 2a01 33be 8185 743b 8877 74be e147 753e
00000040: a8bb 8abe 2369 f7bd 92f4 80be e5e3 83be
00000050: 8cc7 7fbe f803 4e3d b6c1 333c 9f9a 43be
00000060: af5d 73be 79ba 6e3e 5fcb febb 3739 4e3e
00000070: ff7c c539 c163 6cbe 138a 013e e06d 423e
00000080: 403c efbb 6b8b ebbc 3f15 89be 180f 013d
00000090: d029 c6bd 0f32 1f3e e575 8dbe 7c65 0dbe
000000a0: 5b33 383e 56db 843e 90e3 44be 0a4c cb3d
000000b0: 4d25 843d 0ff9 893e 96f0 56be 89fa 71be
000000c0: 86e3 333e 059b 7dbe 16eb 85bd f956 c23d
000000d0: bfda 4cbb 3b81 8fbe fe46 a4bc 26f2 6f3d
000000e0: 47f3 083e fe4c 7dbd dba9 383e 9c98 c1bc
000000f0: a564 7f3e 188e 633e 7327 2fbe 2cc5 51be
00000100: d96a 083e 49be c2bc dee9 ca3d bf7e 2f3e
00000110: 54f9 41be 575b 84be 9a80 a8bd 750c a83d
00000120: 78ff 883e 4882 4e3c b4fa fd3d 90ad ba3c
00000130: ff80 093d 7a87 8ebe 5589 6a3e fc54 5cbe
00000140: 6490 6dbe 02d5 b23d adfe 8dbd e09d ac3c
00000150: 8c73 6e3e 3a71 1b3e 9800 813e 78d7 2a3e
00000160: ec57 15be c4f7 c53b 64ce d2bd 19aa 0e3d
00000170: af51 373e e54e 803e 2268 23bd dbc2 81bd
00000180: d83a 773e 17e3 873e 71e8 7d3e 2086 83bd
00000190: 1711 86be d145 f13c 42b5 5bbd b41c 7d3e
000001a0: bffa 563e 2df9 073e 16ce 893c 9029 86be
000001b0: f11b 803b 8290 b63d dec7 003d 4a0a 843d
000001c0: e77f c33d bde7 ef3d 34ce 4e3e 6cf5 703d
000001d0: 3f78 34be 8016 2d3e 534b 72bc 2749 34be
000001e0: 4565 c6bc 436f 583e fbc1 fb3d 7575 7c3e
000001f0: 09a6 72bd 27af 8a3e bdea 40be dc3d 103e
00000200: 58c5 2bbe 8967 8e3e 3c4d 3f3d 8b34 1e3e
00000210: d5c4 f8bd 1999 be3c 8381 463e 60dd 6f3b
00000220: 52b7 38bd 60de 553a 1c70 d0bd 70ac 083d
00000230: d34e fdbc f63d e13d e621 b03d cc52 613e
00000240: 2bdb 063e c3eb 093b 4450 94be 0028 5e3e
00000250: aed9 b53c 9208 ba3d d1a8 1a3e c695 87be
00000260: 14e3 453e d543 90bc df99 52be a3a5 36be
00000270: 31ea 8d3d af0f 8f3e 61be 1c3e d026 803d
00000280: 433a bf3d 525f e7bc 32c1 0dbe 192c c9bd
00000290: 0bf6 71be c43b debd ac42 093e cc8f 50be
000002a0: a90e 283e 6092 0c3e 721e f53d eb57 f33c
000002b0: 4af7 333e 1c41 493e 7590 85be f63d 1e3e
000002c0: fd90 7dbd f818 033e bb54 0d3e f01c 13be
000002d0: b6a9 08bd e4b1 53bd 2af9 c73d 2d2f e6bd
000002e0: b372 b63d e229 863e 5a28 81be cd7b 5f3d
000002f0: ddb4 81be 6241 b33c 5b12 683e 5730 7d3e
00000300: 8782 1bbe 013d 0bbe e677 febb 95df 1dbe
00000310: f854 44be 5104 8d3e 1de4 8c3e a704 093e
00000320: c5b5 d43d 385d 18bd cf8b 7fbe cc25 073d
00000330: 163c 683e 2d21 8ebe 9fcf 103e e4f4 e33d
00000340: 4257 403e 36ae 1cbd b06f 383e 31d7 df3c
00000350: 8561 853e 917e c2bb 9160 8e3e 9a76 443e
00000360: 6c70 8abc d02a 32be 8d55 313d 1229 df3c
00000370: 09c8 3a3e d426 72bc 0c0a 363e 0299 01be
00000380: b696 d5bd 1616 5cbe d635 0d3e ba9d b33d
00000390: 2426 483e d328 3b3e b537 59bd 8898 fa3b
000003a0: d53b e5bd fbe0 b93d 7c29 243c 2bda 5fbe
000003b0: f014 753e 0062 ac3b dff6 563e f2f4 c73d
000003c0: e951 91be c03e 033e e87e 883e cfe8 4fbc
000003d0: d965 913d 2abe 85be aada 86be 428c 4e3c
000003e0: d7ec f33d 1841 f63d 35a8 50bd f74b 24bd
000003f0: e05b 523e 05ea 323e 3c80 bb3d fb88 84be
-0.014266962 -0.013949882 0.24188434 0.09449871 0.14230028 -0.19584599 0.023547847 0.22542493
-0.026922347 -0.033990383 -0.07404908 0.22544135 -0.17480913 0.003731102 -0.23873723 0.23953201
-0.27096295 -0.120806 -0.25186592 -0.25759807 -0.24978465 0.050296754 0.010971477 -0.19101952
-0.23766206 0.23313321 -0.0077757086 0.20139013 0.00037667897 -0.23084928 0.12650327 0.18987226
-0.0073008835 -0.028753003 -0.26774022 0.031508535 -0.09675944 0.1554644 -0.2762901 -0.13808244
0.1798834 0.2594859 -0.19227433 0.09926613 0.06452427 0.2694783 -0.20990214 -0.23630728
0.17567262 -0.24766167 -0.0653898 0.09489245 -0.0031258313 -0.28028283 -0.020053383 0.05858054
0.13374053 -0.061841004 0.18033545 -0.02363234 0.24940737 0.22222173 -0.17104892 -0.20485371
0.13322009 -0.023772376 0.09907888 0.17138194 -0.18942767 -0.25850937 -0.08227654 0.08205501
0.26757407 0.012604304 0.124013335 0.02278784 0.033570286 -0.27837735 0.2290395 -0.21516794
-0.23199612 0.08732034 -0.06933341 0.021071374 0.23286265 0.15179911 0.25195765 0.16683757
-0.14584321 0.006041499 -0.10293272 0.034830187 0.17902254 0.25060192 -0.03989423 -0.06335994
0.24143541 0.26540443 0.247957 -0.06422067 -0.26184914 0.029452236 -0.053639658 0.2471798
0.2099409 0.13278647 0.016821902 -0.26203585 0.003909581 0.089142814 0.03144061 0.06447275
0.0954588 0.117141224 0.20195848 0.058827803 -0.17623995 0.16903114 -0.0147884665 -0.1760603
-0.024218211 0.21136193 0.12292858 0.24654181 -0.059240375 0.27086756 -0.18839546 0.14086097
-0.167745 0.27813366 0.046704516 0.15449731 -0.12146918 0.023266362 0.19385342 0.0036600456
-0.045096703 0.00081584416 -0.10177633 0.033367574 -0.030921375 0.10998146 0.086002156 0.22004241
0.13169543 0.0021045066 -0.28967488 0.21694946 0.022198524 0.09083666 0.15103461 -0.26481456
0.19324905 -0.01761047 -0.2056651 -0.17836623 0.06929434 0.27941653 0.15306999 0.06257403
0.093372844 -0.028243694 -0.1384323 -0.09822864 -0.23629014 -0.10851243 0.1340434 -0.20367354
0.16411842 0.13727713 0.119686976 0.029705008 0.17574802 0.19653744 -0.26086774 0.15453324
-0.06190585 0.12802494 0.13801853 -0.14366508 -0.033364974 -0.05168332 0.09764321 -0.11239467
0.08908596 0.2620383 -0.25226098 0.054561425 -0.253333 0.021881763 0.22663252 0.24725471
-0.15186511 -0.1359749 -0.007765758 -0.15417321 -0.19173038 0.27542356 0.27517787 0.13380681
0.10386232 -0.037198275 -0.24955676 0.03299503 0.22679171 -0.27759686 0.14141701 0.111306936
0.18783286 -0.038252078 0.18011355 0.027324291 0.26050964 -0.005935498 0.2780805 0.19185868
-0.01689931 -0.17399144 0.04329448 0.027241264 0.1824037 -0.014779765 0.1777727 -0.12656024
-0.104291365 -0.214928 0.13790068 0.08770318 0.195458 0.18277292 -0.053031642 0.0076475777
-0.11193053 0.09076115 0.010019656 -0.21860568 0.23933768 0.005260706 0.20992611 0.097635165
-0.28382805 0.12816906 0.26659322 -0.012689783 0.07099504 -0.26121646 -0.26338702 0.012606682
0.11910408 0.120241344 -0.050941665 -0.04011151 0.2054286 0.17472084 0.09155318 -0.25885758

fc.0.bias f4 [156]
00000000: eea0 cbbb 6448 03be 7144 6dbe 6aee 483e
00000010: 7915 5b3e 9435 773e aa0f 80be 9c5b 863e
00000020: 70ff 533e 4297 863e 5a5d 90be 71c7 08be
00000030: 1931 123d 7632 82bd d7b8 94bd afca 81be
00000040: b3ce 013c 66a6 223e 45a3 693d c205 f9bb
00000050: 7d83 cc3c 203b 8c3e 8ba7 983d cd08 e23c
00000060: 25cb bc3d aae8 c23d 5b21 e43d 3ab5 89be
00000070: 9c05 b1bc 63dc 4c3e a8be 09be 80ec 1b3d
00000080: 3f09 653e 68b7 54bb 3e84 a0bb 61fc a1bc
00000090: 28eb 39be ece8 f7bd 8eff d6bd d1fa 77bc
000000a0: 66e1 743d f827 2e3d f79e 3a3d 6433 8d3e
000000b0: 33d2 653e 0b96 4abe 3427 393d 9ac6 6e3d
000000c0: 5ee9 483e e473 7bbc 8eef 193e 5754 833c
000000d0: b22e 66be e28f b7bc af1d 743e 6d6a 82be
000000e0: 40cf c03d 8b9e 8abe 911f 34bc 71e5 8dbd
000000f0: ea63 23ba 2560 8c3e 4ab9 8f3d eef8 5fbe
00000100: 3bc1 b7bb 7d76 33be 3816 e6bd 25ae 653e
00000110: 5551 c43c 944f 2f3d 9bb2 32bd 52d4 84be
00000120: fe70 88be e7c0 433d 56e1 2ebe ae46 66be
00000130: ca74 e2bd e348 25be 78ea 5b3e badc 8a3e
00000140: 10f1 363e 1e49 0bbe 53ad 3c3e 5e82 4fbe
00000150: 7aaa f0bc 74ad 3dbe 4f95 833e 011d 6e3e
00000160: 2241 8ebe e129 793e 1bd5 9a3d 3a9b 25be
00000170: 4ef6 5f3e 269f 853e bafd 833e 8203 dc3d
00000180: 4023 8b3e 9f9a 593e 8cb7 773e 594c a63d
00000190: 4d93 643e 06d8 5c3e 9b75 583e 5830 ddbd
000001a0: 0a64 033e cd4f 8dbe 57b1 29bd 2b6c 563e
000001b0: 869b 06be cf4a 95bc a013 3ebe b1ed 1c3e
000001c0: 361b 443e f950 923e 6a52 a7bd 5884 5e3e
000001d0: 278c 84be 572f 5c3e bb51 44be b9ab 23bd
000001e0: 9bd5 a8bd 0a43 a9bd 3dbd 7f3e ea35 893e
000001f0: cb6b 393e a233 913e 77ac 923e 0690 343e
00000200: f427 90be f363 113d ced1 8f3e 7c13 1c3e
00000210: ad02 48be ca2e 59bd 305f 933e 2d5d 8c3d
00000220: cd2b 9a3d bdd8 b13d ec43 bebd 42d9 6a3e
00000230: bab6 423e f0e0 723b c973 b3bd 47c5 50be
00000240: dfce 173e 0ede 6a3e a351 ef3c 7487 a7bd
00000250: 6f93 2b3e 954f 183d 4427 8c3e 5938 6f3e
00000260: eacc 1c3e 3f7b 1c3e 8ba0 79be 0c74 103d
-0.0062142527 -0.12820584 -0.2317064 0.19622198 0.2139491 0.24141532 -0.2501195 0.26241767
0.2070291 0.26287276 -0.28196222 -0.13357331 0.035691354 -0.06357281 -0.07261818 -0.25349948
0.007922816 0.15883788 0.05704047 -0.0075995633 0.024965042 0.2738886 0.07453831 0.027592087
0.09218434 0.095170334 0.111391746 -0.26896077 -0.02160912 0.20005946 -0.13451636 0.03806734
0.22366808 -0.0032457951 -0.004898577 -0.019773664 -0.18156111 -0.12104973 -0.10497962 -0.015135483
0.05978527 0.042518586 0.045561757 0.2757827 0.22443466 -0.197838 0.045203403 0.05829487
0.19620273 -0.015347455 0.15032789 0.016031427 -0.2247875 -0.022407476 0.23839448 -0.2547182
0.0941453 -0.27074084 -0.010993854 -0.06928528 -0.0006232845 0.27417102 0.07017763 -0.21872303
-0.0056077517 -0.17525668 -0.11234707 0.22429712 0.023964563 0.0428005 -0.043627363 -0.25943238
-0.26648706 0.047791388 -0.17078146 -0.224879 -0.11057432 -0.16141085 0.21476161 0.27121526
0.17865396 -0.1360211 0.18425493 -0.20264575 -0.029378165 -0.18523198 0.2569985 0.23253252
-0.27784067 0.24332382 0.07560178 -0.16172495 0.21871302 0.26097983 0.25779516 0.107428566
0.2717533 0.2125039 0.24191111 0.08120031 0.22321816 0.21566781 0.21138613 -0.108002365
0.1283113 -0.27599946 -0.04142889 0.209397 -0.13145265 -0.018224148 -0.18562174 0.15325047
0.19151005 0.28577402 -0.08170016 0.21730173 -0.25888178 0.21502434 -0.19171803 -0.03995869
-0.08243867 -0.0826474 0.24974532 0.26798946 0.18107526 0.28359705 0.28647205 0.17633066
-0.28155482 0.03549571 0.28089756 0.15241808 -0.1953227 -0.053023137 0.2878356 0.06853709
0.075278856 0.08683918 -0.09290299 0.2293444 0.19015017 0.0037060343 -0.08762319 -0.20387755
0.14825009 0.2293627 0.029213732 -0.081801325 0.1675546 0.03718527 0.27373707 0.23361339
0.15312544 0.1528139 -0.24377649 0.03526692

fc.2.weight f4 [4, 156]
00000000: 4c52 a33c 511b 8fbd 8577 4f3d ab41 9bbd
00000010: b3bd 83bc 7317 0c3d 3176 1ebc 75f3 a43d
00000020: 4e65 a7bc f6ca 403d 4099 453d 6add 8a3d
00000030: fd4b 4bbd 089c ea3c a6d4 cebc fc45 fabc
00000040: b10b 8c3d 94c5 0a3c 0594 a13d fe91 42bd
00000050: 5b46 253c abca 33bc c869 c33c 5fe7 0cbd
00000060: c1c3 97bd e3aa 89bd 636d 4a3d 24c9 043d
00000070: 6278 023d 0d0b 5fbd 9553 483d 5dff 9f3d
00000080: 6248 fcbc 659f 923d bdb3 653d d7d4 a5bd
00000090: 511b 813c 6843 b93c 435e 8fbc ccd6 1cbd
000000a0: 9019 093d f30b b93c af31 f23c 62e5 a33d
000000b0: 8c04 d53c cf0f 253d 3885 013c ad71 96bc
000000c0: c06d 8b3c 02bf 14bd 5bff 5fbd 36f0 a2bd
000000d0: d060 85bd c47d 223c bb57 823d 4a5f 5c3d
000000e0: 2064 093b 8930 7fbd 0252 9abd b30d 8d3d
000000f0: e398 7ebc 7c20 533d 0701 d23c b24d f6bc
00000100: 2afa 913b 69d9 313d c629 08bd 0356 97bc
00000110: 1f7f 25bd 43d6 323d d521 45bd 33e2 88bd
00000120: 09dd babb db16 8d3c f2c1 7fbd a729 63bd
00000130: de68 74bc 8bfb 763c 8f4b 883d 813b 9cbd
00000140: 42cc 903d 1c53 663d dce3 1dbd ba95 9bbd
00000150: 25c0 d83c 1284 653d 25a2 163b b397 6c3b
00000160: 5510 f63c c5ff af3c 755c 1f3d c53d c2ba
00000170: af72 793d 32f8 ca3a d725 e9bc d07a 9cbd
00000180: f403 643d 3318 f53c f285 0cbd 25f8 413d
00000190: e74b 8bbd 89be 0abd 05ed b53b 9cd0 92bd
000001a0: 5c85 5a3c 573f 5a3c b1fe 923c b2a7 c13b
000001b0: b394 33bd 8982 53bd d785 8cbd f115 e93b
000001c0: 3fe6 cd3c 6b29 b5bc d2a9 66bd 3e42 a1bd
000001d0: 0cb0 883b 540e 473d 1b51 8bbd e6d4 203d
000001e0: 8b88 0dbd d5e6 0c3d 4166 523d d4c8 22bd
000001f0: 39cd cfba 9746 95bd 889b 2bbc 2827 9dbd
00000200: 2415 d53c 1278 8abd 9b99 3b3d a393 d4bc
00000210: 9c4a 8b3d 769a 7b3d b935 a33d f270 8abd
00000220: 91db 9b3d 657d 62bb bf8f e5bc 901f 4cbd
00000230: 1115 863d 2a23 fabc feb8 913d b1a8 823d
00000240: 27f2 34bd 5c85 67bd 9fd4 a0bc fa76 50bd
00000250: 34f2 523c 455f f43c db4c c53c 6b20 9abc
00000260: d9d9 e33a 76ae 093d dd2c 963b 9a2a a13c
00000270: e636 9dbd cea1 323d feed 843c 2770 0b3c
00000280: 59db d6bc ab7f f63c 03bb debc 5df4 ee3a
00000290: ec3e 9abd 29a1 14bc 53ac 03bd 78ba 0abc
000002a0: 4662 533d 3279 6bbd cee6 1b3d 0465 a13d
000002b0: fe19 9b3b e266 08bc e154 fbbc 912a da3b
000002c0: e0ea 3a3d 2890 c13b 85b3 933d 8728 f5bc
000002d0: 2fac 19bd 7fe3 81bc 7020 7b3d 08a9 f13c
000002e0: 7689 5f3d f44d 4f3c 6cb2 b63c 8b47 f13c
000002f0: 38fd 063d 0344 423a 1355 53bd 8ed5 893c
00000300: 7321 a2bd ddc4 62bd d065 1e3b 2a29 abbb
00000310: 354c 43bd 89b8 cfbc b9fc cbbc bac7 3cbd
00000320: 7b6c 073c 48d9 89bc 0051 e73b 1a23 1e3c
00000330: dc12 953c 0f14 163b 24b9 90bd 4d19 84bc
00000340: e9eb 31bd dbbe 9f3d 70eb a03d 5b97 bdbb
00000350: f7ec 4a3d 9462 803d eb8c 10bb 3812 8e3c
00000360: d121 80ba c971 243d 82a1 813c 4ff4 863d
00000370: ae69 043d e44d eb3c cf86 e33c 5bdc 233d
00000380: 8780 f9bc 9474 87bd d2f6 2bbd 6644 8dbd
00000390: 4ec8 00bd 4694 77bd e050 04bd 7481 263d
000003a0: 7684 dfbc a7b0 2c3d 6eb9 a53b 4ffb 92bd
000003b0: ef66 77bc d4ee 433c 6500 713c 04e2 853c
000003c0: 9f5a a1bd 44d1 553d 22b9 953c d71c 22bd
000003d0: 20b0 81bd 6d57 96bd 66f4 4dbd 9eb7 8ebc
000003e0: 9e69 63bd 3345 5a3d 0f7c 293d 59e9 9fbc
000003f0: f99d 62bd f928 043d f6f2 66bd 6ff5 623d
0.019936703 -0.06987632 0.050651092 -0.075808845 -0.016081667 0.03420205 -0.009671734 0.08054248
-0.020434048 0.04706856 0.048241854 0.06780513 -0.049633015 0.028638855 -0.025247883 -0.03055095
0.068381675 0.008469958 0.078895606 -0.04750251 0.010087575 -0.010973613 0.023854151 -0.03440034
-0.07410384 -0.06722047 0.049420726 0.032418385 0.031853087 -0.0544539 0.048907835 0.078123786
-0.030796234 0.07159308 0.056079615 -0.080972366 0.015760096 0.02261515 -0.017501002 -0.038290784
0.033471644 0.022588706 0.029564707 0.08002736 0.026003145 0.04029828 0.007905297 -0.018364752
0.017020106 -0.03631497 -0.054686885 -0.07955973 -0.06512606 0.00991768 0.063643895 0.053801812
0.002096422 -0.062302146 -0.07535173 0.068873785 -0.015539381 0.05154465 0.025635256 -0.030066345
0.0044548707 0.04342023 -0.033242963 -0.01847363 -0.040404435 0.043661367 -0.048127968 -0.06683769
-0.005702619 0.017222812 -0.06244082 -0.055459645 -0.01491758 0.015074621 0.06655037 -0.07628537
0.07070209 0.056231603 -0.03854738 -0.075969175 0.02645881 0.056034155 0.002298483 0.0036101162
0.030037085 0.021484265 0.038906533 -0.0014819434 0.060900386 0.0015485345 -0.028460426 -0.07640612
0.055667832 0.029918766 -0.034307428 0.04735579 -0.068015866 -0.033873115 0.0055519366 -0.07168695
0.013337459 0.013320765 0.017943712 0.0059098834 -0.043842983 -0.05163816 -0.068614654 0.0071132113
0.025134204 -0.022114476 -0.056314297 -0.07873963 0.004171377 0.04859765 -0.06802579 0.039265536
-0.034554046 0.034399826 0.05136705 -0.039742306 -0.0015854008 -0.072888546 -0.010474093 -0.07673484
0.026011057 -0.06761183 0.045800786 -0.025949305 0.0680134 0.061426602 0.07969231 -0.06759824
0.07610238 -0.0034559604 -0.028022645 -0.049834788 0.06546987 -0.030534346 0.071153626 0.063798316
-0.044176247 -0.056523666 -0.019632636 -0.050894715 0.012875129 0.029830584 0.0240845 -0.018814286
0.0017383649 0.033613645 0.004582985 0.019673634 -0.07676487 0.04361134 0.016226765 0.008510626
-0.02622764 0.030090174 -0.027188784 0.0018230785 -0.07531533 -0.009071627 -0.032146763 -0.008467309
0.051607393 -0.057488628 0.03806191 0.07880595 0.004733323 -0.00832531 -0.030680122 0.0066579063
0.04563415 0.0059070773 0.07211975 -0.029926552 -0.037517723 -0.015855549 0.06131023 0.029499546
0.054574452 0.012652863 0.022301875 0.02945306 0.032956332 0.0007410647 -0.051594805 0.016825464
-0.07916536 -0.055363525 0.0024169572 -0.005223413 -0.0476801 -0.025356548 -0.024900781 -0.04608891
0.00826561 -0.01682724 0.0070592165 0.009651924 0.01819747 0.002290014 -0.07066563 -0.016125346
-0.043437872 0.07800075 0.07857406 -0.0057858652 0.049542394 0.06268802 -0.002205665 0.017342672
-0.0009775703 0.040147576 0.015824083 0.06589567 0.032327347 0.028723665 0.027774243 0.04000507
-0.030456794 -0.066140324 -0.041983433 -0.068978116 -0.031441025 -0.06044414 -0.03230369 0.0406508
-0.027284842 0.042160656 0.0050575053 -0.071768396 -0.015100225 0.0119587965 0.014709567 0.016343124
-0.07878613 0.052201524 0.018276755 -0.039578285 -0.06332421 -0.07340894 -0.050281905 -0.01742154
-0.055520646 0.05328865 0.041378077 -0.019520449 -0.055326436 0.032265637 -0.05638405 0.055409845

fc.2.bias f4 [4]
00000000: 01a1 0cbc 8e28 9bbc 6653 6d3d e702 5b3d
-0.008583308 -0.018940236 0.057940863 0.053469565
