V1/Models/score_57_model_174071.pt (torch, 12127 bytes, 4 tensors)

fc.0.weight f4 [156, 12]
000000 8d 3a 6c bc 86 3d 65 bc 6c ba 77 3e 9b 12 c1 3d
       -0.0144182565 -0.013991719 0.24192208 0.09427377
000010 f8 a5 11 3e 12 ba 48 be 29 8d c1 3c c1 69 66 3e
       0.14223468 -0.1960223 0.02362688 0.2250128
000020 a9 fe dc bc 0c 6c 0b bd 78 47 97 bd 22 b3 66 3e
       -0.0269769 -0.03403859 -0.073866785 0.22529271
000030 c7 18 33 be 0f e2 80 3b 84 70 74 be 8e 47 75 3e
       -0.1748992 0.0039331983 -0.23871046 0.23953077
000040 ef b4 8a be 98 41 f7 bd 11 e5 80 be ac d2 83 be
       -0.27091166 -0.12073058 -0.25174764 -0.25746667
000050 96 99 7f be d9 23 4f 3d 45 d6 33 3c 37 d9 43 be
       -0.24960932 0.050571296 0.010976379 -0.1912583
000060 24 41 73 be cc ce 6e 3e 45 d8 00 bc 1a ff 4d 3e
       -0.23755318 0.23321074 -0.007864063 0.20116845
000070 20 d3 82 39 1a 35 6c be c0 ac 01 3e 51 9b 42 3e
       0.00024952833 -0.23067132 0.12663555 0.19004561
000080 33 e9 ec bb 36 af ea bc 54 fc 88 be b8 2d 01 3d
       -0.007229948 -0.028648 -0.2675501 0.03153774
000090 2f 35 c6 bd 8b 27 1f 3e cc a1 8d be 18 49 0d be
       -0.09678113 0.15542428 -0.27662504 -0.13797414
0000a0 c7 56 38 3e 8b d7 84 3e ed e9 44 be ee 20 cb 3d
       0.18001853 0.25945696 -0.1922986 0.0991839
0000b0 9d 14 84 3d 5b e5 89 3e 6d c2 56 be c4 f5 71 be
       0.06449244 0.26932797 -0.20972605 -0.23628908
0000c0 46 fd 33 3e 6d 85 7d be d8 eb 85 bd d5 e4 c2 3d
       0.17577085 -0.24757929 -0.06539124 0.095163025
0000d0 f3 b7 3f bb ac 71 8f be 92 c9 a2 bc 8d ab 6f 3d
       -0.002925393 -0.28016412 -0.019871507 0.058513213
0000e0 09 d7 08 3e 5a 89 7c bd 64 9d 38 3e 20 9f c3 bc
       0.1336328 -0.061654426 0.1802879 -0.023879588
0000f0 cc 2e 7f 3e 9a 8a 63 3e d9 52 2f be 77 b1 51 be
       0.24920195 0.22220841 -0.17121448 -0.20477854
000100 b8 6e 08 3e 30 f0 c2 bc cd 33 cb 3d 43 63 2f 3e
       0.13323486 -0.023796171 0.099219896 0.17127709
000110 2b d1 41 be 03 69 84 be 3a 84 a8 bd ee 75 a7 3d
       -0.18927447 -0.25861368 -0.08228345 0.0817679
000120 a2 ea 88 3e 17 ad 50 3c 38 f8 fd 3d c3 da bb 3c
       0.2674151 0.01273658 0.124008596 0.022931462
000130 35 01 0a 3d 47 96 8e be b9 6b 6a 3e a8 55 5c be
       0.033692557 -0.27849028 0.22892655 -0.2151705
000140 a5 85 6d be 11 22 b3 3d 32 63 8e bd f0 fb ac 3c
       -0.23195513 0.08746732 -0.06952514 0.021116227
000150 30 5a 6e 3e c5 85 1b 3e 25 f5 80 3e e6 f6 2a 3e
       0.23276591 0.15187748 0.2518703 0.16695747
000160 4b 6b 15 be fb f7 c9 3b 35 77 d2 bd 26 b1 0e 3d
       -0.1459171 0.006163595 -0.10276643 0.03483691
000170 1a 3a 37 3e d0 60 80 3e f1 05 24 bd 17 83 81 bd
       0.17893258 0.25073862 -0.04004473 -0.063238315
000180 e0 39 77 3e 8d cd 87 3e 31 b4 7d 3e 65 6f 83 bd
       0.24143171 0.2652401 0.24775769 -0.06417731
000190 5e 11 86 be 7f 19 f1 3c 10 74 5b bd b6 f9 7c 3e
       -0.26185125 0.029431103 -0.053577483 0.24704632
0001a0 ed 28 57 3e 91 46 08 3e 7b ad 8b 3c b0 0c 86 be
       0.21011706 0.13308169 0.017050495 -0.26181555
0001b0 80 5c 7d 3b 9f 47 b6 3d d3 8c 00 3d fc e0 83 3d
       0.003865987 0.089003794 0.0313843 0.06439397
0001c0 c8 ac c3 3d cb 26 f0 3d 51 b8 4e 3e 81 bc 71 3d
       0.0955444 0.11726149 0.20187499 0.059017662
0001d0 ec bd 34 be 44 00 2d 3e 8c 1c 71 bc 2d 40 34 be
       -0.17650574 0.16894633 -0.014716279 -0.17602606
0001e0 c5 5d c7 bc fb 75 58 3e 48 8a fb 3d e8 9b 7c 3e
       -0.024336705 0.21138756 0.122822344 0.24668849
0001f0 b5 e1 72 bd 29 b2 8a 3e cf b7 40 be ba 4b 10 3e
       -0.059297282 0.2708905 -0.18820117 0.14091387
000200 69 c1 2b be 0d 67 8e 3e b0 4c 3f 3d 2c 59 1e 3e
       -0.16772999 0.27812997 0.046703994 0.15463704
000210 10 58 f8 bd fb ef bd 3c 6f 58 46 3e da 36 64 3b
       -0.121261716 0.02318572 0.19369672 0.0034822733
000220 2b 64 39 bd 7a a3 02 3a 02 2b d1 bd b3 e3 08 3d
       -0.045261543 0.00049834664 -0.10213281 0.033420276
000230 f1 19 fd bc 3b 30 e1 3d 5b e4 af 3d db 46 61 3e
       -0.030896159 0.10995527 0.08588477 0.21999685
000240 49 be 06 3e 0f 3e 0d 3b c3 5a 94 be 32 54 5e 3e
       0.13158526 0.0021551882 -0.28975496 0.21711805
000250 69 c6 b5 3c c0 0a ba 3d 3c a9 1a 3e 1c 81 87 be
       0.022189336 0.09084082 0.1510362 -0.2646569
000260 43 fb 45 3e 39 03 90 bc 64 b3 52 be bb ab 36 be
       0.1933413 -0.017579662 -0.20576245 -0.17838947
000270 46 28 8e 3d cd fb 8e 3e 08 eb 1c 3e 80 39 80 3d
       0.06941275 0.27926484 0.15324032 0.06260967
000280 da 62 bf 3d 49 20 e7 bc 7a c5 0d be 48 e6 c8 bd
       0.09345026 -0.028213637 -0.13844863 -0.09809548
000290 b6 32 72 be ef cd dd bd 59 3c 09 3e 56 8b 50 be
       -0.23652157 -0.10830294 0.13401927 -0.20365652
0002a0 e5 30 28 3e 7d 89 0c 3e 6d fe f4 3d dc 41 f2 3c
       0.16424902 0.13724323 0.1196259 0.02957242
0002b0 e7 39 34 3e 41 61 49 3e f1 86 85 be 7f 07 1e 3e
       0.17600213 0.19666006 -0.26079515 0.15432547
0002c0 37 0e 7e bd 56 5b 03 3e da 79 0d 3e cb 21 13 be
       -0.062025275 0.1282781 0.13816014 -0.1436836
0002d0 67 16 08 bd 1f fb 53 bd cd d6 c7 3d e5 35 e6 bd
       -0.03322449 -0.05175316 0.09757767 -0.11240748
0002e0 e5 75 b6 3d f7 31 86 3e 26 14 81 be 63 d4 5e 3d
       0.08909205 0.26209995 -0.25210685 0.054401767
0002f0 bc c1 81 be fd 88 b4 3c 63 36 68 3e df 6f 7d 3e
       -0.2534312 0.022037977 0.22676997 0.24749707
000300 9a 5f 1b be 66 16 0b be 51 fc 00 bc 3b e6 1d be
       -0.15173188 -0.13582763 -0.007872657 -0.15419857
000310 03 66 44 be e9 07 8d 3e a4 ed 8c 3e 01 cf 08 3e
       -0.1917954 0.27545097 0.27525055 0.13360216
000320 d8 2b d5 3d 7d 03 18 bd 23 64 7f be a6 97 07 3d
       0.10408753 -0.0371127 -0.24940543 0.033103608
000330 86 16 68 3e 6a 08 8e be 27 f7 10 3e 89 fa e3 3d
       0.22664842 -0.27740794 0.14156781 0.1113177
000340 3f 6d 40 3e 55 b9 1c bd 64 a2 38 3e 71 73 e1 3c
       0.18791674 -0.038262684 0.18030697 0.027520867
000350 01 4a 85 3e ba db be bb 2b 5b 8e 3e d2 7c 44 3e
       0.26033023 -0.0058245333 0.2780393 0.1918824
000360 70 13 8b bc 39 4f 32 be c7 be 31 3d 22 93 e0 3c
       -0.016977042 -0.17413034 0.04339483 0.027413908
000370 06 cd 3a 3e 0d 5d 75 bc ae 30 36 3e ee 9d 01 be
       0.18242273 -0.014975798 0.17792007 -0.12657902
000380 32 82 d5 bd 77 f3 5b be 92 36 0d 3e 15 fb b2 3d
       -0.104252234 -0.21479593 0.13790348 0.08739296
000390 53 fb 47 3e 37 39 3b 3e 0e 99 59 bd a5 4d f8 3b
       0.19529466 0.18283544 -0.05312448 0.0075776153
0003a0 3f 12 e5 bd e2 f3 b9 3d a6 8c 24 3c 5d f8 5f be
       -0.11185121 0.0907972 0.010043299 -0.21872087
0003b0 05 18 75 3e 1e 01 a3 3b 31 05 57 3e 88 3d c8 3d
       0.23934944 0.0049744984 0.20998074 0.09777361
0003c0 0c 4c 91 be 2c fa 02 3e f3 68 88 3e a4 19 4f bc
       -0.28378332 0.12790745 0.2664257 -0.012640391
0003d0 b0 09 91 3d 13 d2 85 be 56 f2 86 be b7 de 4f 3c
       0.07081926 -0.26136836 -0.26356763 0.012687377
0003e0 f1 b5 f3 3d 30 29 f6 3d b6 f0 50 bd 2e 69 24 bd
       0.11899937 0.12019575 -0.05101081 -0.04013937
0003f0 0f 61 52 3e c3 b4 32 3e d9 8b bb 3d 40 8f 84 be
       0.20544837 0.17451768 0.09157533 -0.2589054

fc.0.bias f4 [156]
000000 7e 49 c5 bb c2 38 03 be 61 18 6d be 60 f4 48 3e
       -0.006020724 -0.1281462 -0.23153831 0.19624472
000010 f8 fc 5a 3e 06 43 77 3e e6 e9 7f be 14 69 86 3e
       0.21385562 0.24146661 -0.24991569 0.26252043
000020 b6 e2 53 3e ff 98 86 3e a0 73 90 be 83 dc 08 be
       0.20691952 0.26288602 -0.28213215 -0.13365369
000030 0e 1b 13 3d 7e ee 81 bd 87 c0 94 bd 45 be 81 be
       0.035914473 -0.06344317 -0.07263284 -0.25340477
000040 45 95 05 3c 02 dc 22 3e d1 e5 69 3d b2 e8 fd bb
       0.008153264 0.15904239 0.057103936 -0.0077486867
000050 0c 3b cc 3c 5b 55 8c 3e 19 f0 98 3d 89 38 e3 3c
       0.0249305 0.2740887 0.0746767 0.027736919
000060 ec 9f bc 3d f6 c2 c2 3d 40 9b e4 3d 6d b0 89 be
       0.0921019 0.09509842 0.11162424 -0.26892415
000070 d7 8d af bc 86 37 4d 3e 42 a1 09 be 2c cb 1b 3d
       -0.02142994 0.20040712 -0.13440421 0.038035557
000080 ac 04 65 3e a0 28 57 bb f9 9f a5 bb 13 b7 a2 bc
       0.22365063 -0.003283061 -0.0050544706 -0.019862687
000090 5b 20 3a be 02 e5 f7 bd ef 7f d7 bd 20 a2 78 bc
       -0.18176405 -0.12104227 -0.10522448 -0.015175372
0000a0 6f aa 74 3d c3 d4 2d 3d f4 32 3b 3d 7d 27 8d 3e
       0.05973285 0.042439234 0.04570289 0.2756919
0000b0 30 e0 65 3e c5 7e 4a be f3 d5 39 3d f3 d2 6e 3d
       0.22448802 -0.19774921 0.045370053 0.058306646
0000c0 9f af 48 3e 7a 96 7b bc 48 ea 19 3e 8e ec 81 3c
       0.19598244 -0.015355701 0.15030777 0.015859868
0000d0 b9 1f 66 be 95 f4 b5 bc 61 32 74 3e 49 77 82 be
       -0.22473039 -0.022211352 0.23847343 -0.25481632
0000e0 d0 3a c0 3d 59 b2 8a be 10 00 35 bc 4f da 8d bd
       0.093862176 -0.27089193 -0.011047378 -0.06926405
0000f0 04 5a bd b9 33 74 8c 3e 1f 65 8f 3d a9 fc 5f be
       -0.00036115956 0.27432403 0.07001709 -0.21873726
000100 7e de b7 bb 2e 4a 33 be c3 4b e6 bd a8 b3 65 3e
       -0.00561124 -0.17508766 -0.11244919 0.22431815
000110 77 a7 c4 3c 43 c5 2f 3d e1 cc 32 bd 79 af 84 be
       0.024005635 0.042912733 -0.04365242 -0.25915125
000120 0c 79 88 be 4a 4b 43 3d b2 ba 2e be 58 3c 66 be
       -0.2665485 0.047679223 -0.17063406 -0.22483957
000130 0d 5a e2 bd a2 54 25 be b5 a3 5b 3e 2e c0 8a 3e
       -0.11052332 -0.16145566 0.21449168 0.27099746
000140 f6 55 37 3e 04 2e 0b be 1a a5 3c 3e fe 22 4f be
       0.17903885 -0.13591772 0.18422356 -0.20228192
000150 16 7e ef bc 20 94 3d be 9f 8c 83 3e 1c 28 6e 3e
       -0.029234927 -0.18513536 0.25693223 0.23257488
000160 8b 32 8e be 34 ee 78 3e f7 fc 9a 3d 6d 73 25 be
       -0.27772936 0.24309617 0.075677805 -0.16157313
000170 93 e5 5f 3e f4 8c 85 3e 03 09 84 3e bc ee db 3d
       0.2186492 0.260841 0.25788125 0.10738894
000180 f7 2b 8b 3e 89 b2 59 3e 1a c7 77 3e 58 de a5 3d
       0.2718198 0.21259512 0.24197045 0.08099049
000190 47 73 64 3e 73 fb 5c 3e 4e a4 58 3e 59 b4 dd bd
       0.223096 0.21580295 0.21156427 -0.10825414
0001a0 f5 54 03 3e 25 3b 8d be 1f 6e 29 bd b6 5b 56 3e
       0.12825377 -0.27584186 -0.041364785 0.20933422
0001b0 72 d0 06 be f1 35 94 bc b7 e1 3d be 23 03 1d 3e
       -0.13165453 -0.018092128 -0.18543135 0.15333228
0001c0 dd 0e 44 3e 58 7e 92 3e 15 9b a7 bd 11 b0 5e 3e
       0.19146295 0.28612018 -0.081838764 0.21746852
0001d0 28 8b 84 be 65 28 5c 3e 95 5c 44 be 8f ff 22 bd
       -0.25887418 0.21499784 -0.19175942 -0.0397945
0001e0 f1 e7 a8 bd 4f d1 a8 bd 9c a8 7f 3e b0 35 89 3e
       -0.08247364 -0.082430474 0.24966663 0.26798773
0001f0 fb 7d 39 3e 88 20 91 3e a8 ab 92 3e 28 9e 34 3e
       0.18114464 0.28345132 0.28646588 0.17638457
000200 b4 17 90 be 2b b7 10 3d 49 c4 8f 3e 79 05 1c 3e
       -0.28143084 0.035330933 0.2807944 0.15236463
000210 ad d5 47 be ca f7 57 bd 76 65 93 3e f3 49 8c 3d
       -0.19515105 -0.052726544 0.28788346 0.06850042
000220 b3 fc 99 3d 64 33 b1 3d 9d 1c be bd 9b c3 6a 3e
       0.07518902 0.0865238 -0.09282801 0.2292618
000230 81 dd 42 3e 09 eb 80 3b b2 53 b3 bd 46 0b 51 be
       0.1902981 0.0039342684 -0.08756198 -0.20414457
000240 cb f9 17 3e ea 8e 6a 3e ea af ee 3c 24 18 a7 bd
       0.14841382 0.2290608 0.029136617 -0.08158901
000250 1e 78 2b 3e dd b8 19 3d 84 20 8c 3e ae 3b 6f 3e
       0.1674504 0.037529815 0.27368557 0.2336261
000260 82 15 1d 3e 39 60 1c 3e 2a 90 79 be 6f 28 11 3d
       0.15340236 0.15271081 -0.243714 0.03543895

fc.2.weight f4 [4, 156]
000000 a3 18 a2 3c ee 20 8f bd 0f 09 50 3d 6d 57 9b bd
       0.019787138 -0.06988703 0.05078989 -0.075850345
000010 b6 15 84 bc 92 4e 0b 3d d9 76 20 bc 7c b1 a4 3d
       -0.016123634 0.034010477 -0.0097939605 0.08041665
000020 51 86 a6 bc c4 ac 41 3d f4 10 45 3d 78 3f 8a 3d
       -0.020327719 0.047283903 0.04811187 0.06750387
000030 19 a7 49 bd 70 b6 ea 3c 92 84 cf bc 16 99 fa bc
       -0.049231622 0.028651446 -0.02533177 -0.030590575
000040 48 2a 8c 3d c6 20 0b 3c 51 40 a1 3d 47 e3 43 bd
       0.06844002 0.0084917005 0.078735955 -0.04782417
000050 de 94 27 3c 25 f7 36 bc b7 cc c4 3c 05 b7 0c bd
       0.010228364 -0.011167322 0.024023397 -0.03435423
000060 7f 69 97 bd 68 6a 89 bd 73 47 4b 3d cd 6f 04 3d
       -0.07393169 -0.067097485 0.049628686 0.032333184
000070 f6 ca 01 3d fe 08 5f bd c4 8f 49 3d 57 27 a0 3d
       0.0316877 -0.054451935 0.04920937 0.078200035
000080 91 26 fa bc d5 cb 92 3d 14 58 65 3d a7 81 a5 bd
       -0.030535968 0.07167784 0.0559922 -0.0808137
000090 8a 0d 82 3c f0 c2 ba 3c b2 7a 8d bc d9 fa 1c bd
       0.015875597 0.022798032 -0.01727042 -0.038325164
0000a0 23 df 08 3d a5 75 b9 3c 5c a6 f2 3c 07 e0 a3 3d
       0.033415925 0.022639105 0.029620342 0.08001714
0000b0 0e 01 d5 3c 99 94 25 3d 75 2d 03 3c a8 97 96 bc
       0.02600148 0.040424917 0.008006443 -0.018382862
0000c0 7c 7d 8b 3c 4f 88 13 bd 02 00 60 bd 1a 2f a2 bd
       0.017027609 -0.036018666 -0.054687507 -0.0791914
0000d0 14 fb 84 bd 07 b7 23 3c 92 77 82 3d a4 2e 5d 3d
       -0.06493202 0.009992368 0.063704625 0.053999558
0000e0 6d 32 e8 3a 90 d0 7e bd 4e 28 9a bd b8 6d 8d 3d
       0.0017715223 -0.06221062 -0.07527219 0.06905693
0000f0 15 ec 7c bc c4 06 53 3d e2 4d d3 3c db 95 f4 bc
       -0.015437146 0.051520124 0.025793973 -0.029856613
000100 42 d2 96 3b 50 4b 32 3d fd 9f 07 bd eb 0d 94 bc
       0.0046027014 0.043528855 -0.03311156 -0.018073043
000110 be 01 25 bd 11 21 33 3d b4 57 45 bd b0 cd 88 bd
       -0.040284865 0.043732706 -0.048179343 -0.06679857
000120 ea 22 ba bb c5 71 8b 3c fa 4e 80 bd 94 f4 63 bd
       -0.0056804316 0.017022023 -0.062650636 -0.05565317
000130 d8 bd 6f bc a0 da 78 3c da 62 88 3d ee 7b 9c bd
       -0.014632665 0.015188843 0.066594794 -0.07640825
000140 88 b4 90 3d ff f7 67 3d 80 3d 1e bd 27 96 9b bd
       0.070656836 0.056632992 -0.03863287 -0.07596999
000150 f7 cd d8 3c 24 1a 65 3d 13 ec 0f 3b 3c 1b 6b 3b
       0.0264654 0.055933133 0.002196078 0.0035874387
000160 02 ac f6 3c 41 40 b0 3c ab f9 1e 3d aa 15 ce ba
       0.030111317 0.021515014 0.03881232 -0.0015723009
000170 ae 62 78 3d 22 bb bf 3a 51 d2 e8 bc e9 e1 9c bd
       0.060640983 0.0014627913 -0.0284206 -0.076602764
000180 01 da 63 3d 8b 6c f4 3c 29 94 0c bd 6e 5d 41 3d
       0.055627827 0.029836914 -0.034320984 0.047208242
000190 07 6a 8b bd b0 82 0b bd 55 08 ba 3b 34 e8 92 bd
       -0.068073325 -0.03406018 0.005677263 -0.071731955
0001a0 14 96 5c 3c 86 3b 58 3c fe 44 92 3c ca 5c c7 3b
       0.013463516 0.013197785 0.017855164 0.0060840594
0001b0 30 d0 32 bd 32 9f 54 bd d0 f0 8c bd 06 a7 e7 3b
       -0.043655574 -0.051909633 -0.06881869 0.0070694713
0001c0 63 86 cc 3c dc c4 b5 bc f1 ce 66 bd 72 06 a1 bd
       0.024966424 -0.022188596 -0.0563497 -0.078625575
0001d0 7e 7b 82 3b 2e f2 47 3d 0d a6 8b bd 67 f9 20 3d
       0.0039820066 0.048814945 -0.06818781 0.03930035
0001e0 e0 ba 0c bd 7b 51 0d 3d e4 55 53 3d aa 6a 22 bd
       -0.034357905 0.034501534 0.051595584 -0.039652504
0001f0 57 80 c3 ba c4 af 95 bd e9 27 2c bc 21 94 9d bd
       -0.0014915568 -0.07308915 -0.010507562 -0.07694269
000200 f8 28 d5 3c e2 e7 89 bd 76 83 3b 3d f4 3e d4 bc
       0.026020512 -0.06733681 0.045779668 -0.025908925
000210 92 53 8b 3d 6e 7f 7c 3d ec af a2 3d fe f5 8a bd
       0.06803049 0.061644964 0.07943711 -0.067852005
000220 b1 53 9c 3d d0 d8 60 bb 00 31 e6 bc 1c 37 4c bd
       0.0763315 -0.0034308918 -0.028099537 -0.049857244
000230 3d 0f 86 3d fa eb f9 bc 10 ef 91 3d 3e bb 82 3d
       0.06545875 -0.03050803 0.07125676 0.0638337
000240 7f 44 34 bd 59 a5 66 bd d0 3d a0 bc c4 c8 4f bd
       -0.044010635 -0.05631003 -0.019560724 -0.050728574
000250 e1 e8 53 3c a9 1a f3 3c 5b 0a c4 3c 9e 05 99 bc
       0.012933941 0.029675798 0.02393072 -0.018679436
000260 94 99 db 3a b3 92 0a 3d 2f 4d 91 3b 45 b4 9f 3c
       0.0016754144 0.03383131 0.00443425 0.019495139
000270 c9 0b 9d bd 46 21 33 3d c9 c9 84 3c 2b a6 0a 3c
       -0.076682635 0.043732904 0.0162095 0.008462469
000280 98 a9 d9 bc 44 ea f5 3c 01 4c dc bc 0a 31 ed 3a
       -0.026570126 0.030018933 -0.02689171 0.001809628
000290 ba 46 9a bd 7e 41 12 bc 8c a9 03 bd 58 c6 0d bc
       -0.07533021 -0.008926747 -0.032144114 -0.008653246
0002a0 9b 57 53 3d ec 9d 6b bd 42 e2 1a 3d 94 57 a1 3d
       0.05159722 -0.057523653 0.037813433 0.07878032
0002b0 ee dc 9b 3b 4c 0f 06 bc 46 1f fa bc 7c c8 d1 3b
       0.0047565615 -0.008182358 -0.03053249 0.0064020734
0002c0 06 d2 39 3d 25 40 c3 3b 60 95 93 3d 3c 1b f6 bc
       0.04536631 0.0059585744 0.072062254 -0.030042283
0002d0 8a 93 18 bd 9b f4 80 bc 4a b3 7a 3d 1a 0b f2 3c
       -0.03725008 -0.015741637 0.06120614 0.02954631
0002e0 74 f9 5e 3d f8 5e 51 3c dd 21 b7 3c d5 5f f1 3c
       0.054437116 0.01277899 0.022355014 0.029464642
0002f0 4d ad 06 3d 5a 59 43 3a bb cd 52 bd 09 2b 8a 3c
       0.032880116 0.0007451974 -0.05146573 0.016866224
000300 83 55 a2 bd 54 da 62 bd 20 8d 15 3b d7 31 a5 bb
       -0.07926466 -0.055383995 0.0022819713 -0.0050413418
000310 06 2d 42 bd 65 a4 cc bc 0f f5 cb bc 98 44 3c bd
       -0.04740622 -0.024980733 -0.024897126 -0.045963854
000320 6b ca 07 3c f8 92 88 bc df f9 e4 3b d8 a9 1d 3c
       0.008288006 -0.016671643 0.006987795 0.009623013
000330 19 5c 95 3c 3b cd 10 3b 3e df 90 bd 9b 5e 86 bc
       0.018232392 0.0022094983 -0.0707383 -0.016402533
000340 79 f9 32 bd d1 eb 9f 3d 4b 98 a0 3d d0 19 b9 bb
       -0.043694947 0.0780865 0.078415476 -0.005648829
000350 f0 ff 4b 3d 6c eb 80 3d 50 a8 16 bb c2 4b 8d 3c
       0.049804628 0.06294903 -0.0022988506 0.017248038
000360 34 ad 42 ba 01 e8 24 3d 1e 5f 82 3c 05 ed 86 3d
       -0.0007426322 0.04026032 0.015914496 0.06588177
000370 63 a4 04 3d 86 8f ec 3c 9e 26 e2 3c 8f c5 23 3d
       0.032383334 0.028877031 0.027606305 0.03998333
000380 5a 80 f9 bc 57 1f 87 bd 9f 44 2b bd 43 a6 8d bd
       -0.03045671 -0.065977745 -0.04181349 -0.069164775
000390 44 c1 01 bd 14 3f 77 bd de 9b 05 bd b5 2f 27 3d
       -0.031678453 -0.06036289 -0.03261935 0.04081698
0003a0 dd 3e e0 bc 3b 3d 2c 3d 48 f6 a3 3b ad 03 93 bd
       -0.027373726 0.04205058 0.0050037242 -0.071784355
0003b0 8f 22 7a bc 56 c7 41 3c 65 e7 6f 3c 96 e4 86 3c
       -0.0152670285 0.011827311 0.014642571 0.01646642
0003c0 b5 ec a0 bd 65 d6 55 3d 88 17 96 3c 52 86 21 bd
       -0.07857648 0.052206416 0.018321767 -0.03943474
0003d0 56 92 81 bd 6e ec 96 bd 5e 30 4e bd 58 32 8e bc
       -0.063267395 -0.07369314 -0.050339095 -0.01735799
0003e0 8f aa 63 bd c4 9f 59 3d e1 e1 28 3d 02 12 9d bc
       -0.05558258 0.05313088 0.04123104 -0.019173626
0003f0 95 5e 62 bd d5 7c 03 3d 12 f6 66 bd fb 84 63 3d
       -0.05526598 0.03210147 -0.056387015 0.055546742

fc.2.bias f4 [4]
000000 87 00 0a bc 68 5e 9a bc fb 87 6c 3d aa 76 59 3d
       -0.008422977 -0.018843845 0.05774687 0.053091682
