V1/Models/score_59_model_238434.pt (torch, 12127 bytes, 4 tensors)

fc.0.weight f4 [156, 12]
-0.015743015 -0.013853075 0.24206555 0.09473779 0.1433578 -0.19625458 0.023970764 0.22598557
-0.027127087 -0.033060115 -0.07310722 0.22530277 -0.17470217 0.0037087149 -0.23879547 0.24030505
-0.26994962 -0.12113615 -0.25214055 -0.25691682 -0.2508901 0.04869492 0.011226544 -0.19148396
-0.23703882 0.2320589 -0.0070434688 0.20169282 0.00016903898 -0.23090485 0.12597466 0.18873857
-0.008710167 -0.027579837 -0.26705906 0.03243103 -0.098316364 0.15566453 -0.27787066 -0.1373996
0.17983726 0.25972414 -0.19206962 0.09699826 0.06504243 0.26973316 -0.21041071 -0.23587392
0.17573054 -0.24599434 -0.06612945 0.094172925 -0.0029805796 -0.2802641 -0.020944303 0.056993973
0.13409005 -0.0612627 0.17947735 -0.023106858 0.24943595 0.22201233 -0.1715716 -0.2048609
0.13306598 -0.023107657 0.09978436 0.17117767 -0.1890612 -0.25860867 -0.08179617 0.082229085
0.26671287 0.011385226 0.12402311 0.022407003 0.034900926 -0.2782184 0.22946218 -0.21621178
-0.23103751 0.08615737 -0.07040042 0.02200928 0.23389249 0.15245719 0.25185975 0.16575892
-0.14627467 0.005207902 -0.10272417 0.033753756 0.17961618 0.25146562 -0.039286707 -0.064439535
0.24052605 0.26625863 0.24741381 -0.063899 -0.26042798 0.030462598 -0.052933972 0.24897496
0.20748957 0.13279326 0.015887251 -0.26269338 0.0037366978 0.09057095 0.030658191 0.06302053
0.094412155 0.11786885 0.20177446 0.059460636 -0.1763238 0.1688343 -0.0153369745 -0.17620768
-0.023787647 0.21251805 0.12286111 0.24647017 -0.060442206 0.27031264 -0.18822123 0.14030279
-0.1685326 0.27828306 0.04395042 0.15304431 -0.12151296 0.024047315 0.19308622 0.0027904294
-0.045460936 -0.00052359834 -0.102357075 0.033491354 -0.030772705 0.11083811 0.08537958 0.21867588
0.13127041 0.0011291626 -0.2892846 0.2184607 0.02158412 0.09123578 0.15139727 -0.26517555
0.19277936 -0.017297816 -0.20525166 -0.17749333 0.068872176 0.2805412 0.15259762 0.06285599
0.09357083 -0.028679466 -0.13702142 -0.09809691 -0.23620787 -0.108053304 0.1342216 -0.20213255
0.16441676 0.1373032 0.12043823 0.030086143 0.17826504 0.19584948 -0.26075172 0.15459849
-0.062274486 0.12882619 0.13969831 -0.1436589 -0.033842847 -0.050943296 0.09649233 -0.11088017
0.08806791 0.2632835 -0.25271675 0.054681107 -0.2548949 0.022693556 0.22662127 0.24535273
-0.15064865 -0.13537264 -0.0057552033 -0.15477286 -0.19057505 0.2750762 0.27409387 0.13378105
0.10428808 -0.03663211 -0.25064814 0.0333545 0.2269267 -0.2775323 0.14086075 0.11021007
0.1865957 -0.038890913 0.17970042 0.027479626 0.26127777 -0.00497706 0.2780136 0.19174638
-0.016675744 -0.1730753 0.043540347 0.02775947 0.1819375 -0.014836189 0.1783053 -0.12662748
-0.104140274 -0.21429273 0.13860722 0.08867641 0.19531305 0.18192269 -0.053086113 0.00834393
-0.11041712 0.09025477 0.010042774 -0.21770602 0.23914717 0.006463639 0.21146633 0.09767529
-0.28323367 0.12953584 0.26586562 -0.012512339 0.07083752 -0.26187593 -0.26427314 0.012589342
0.11915674 0.12118162 -0.052239966 -0.040983178 0.20511603 0.17535004 0.09162595 -0.25943035
00000000: 7ff7 80bc 02f8 62bc 08e0 773e e305 c23d
00000010: 63cc 123e f6f6 48be 565e c43c c368 673e
00000020: a039 debc 0b6a 07bd 3db9 95bd c5b5 663e
00000030: 20e5 32be e90d 733b cd86 74be 8712 763e
00000040: d636 8abe 3b16 f8bd 9118 81be 9a8a 83be
00000050: ab74 80be 5374 473d 8aef 373c 5f14 44be
00000060: 4eba 72be d9a0 6d3e e6cc e6bb 9088 4e3e
00000070: 0e40 3139 5272 6cbe 80ff 003e af44 413e
00000080: 17b5 0ebc 1cef e1bc f7bb 88be 66d6 043d
00000090: 175a c9bd 8666 1f3e 1045 8ebe 7bb2 0cbe
000000a0: 4227 383e 90fa 843e e6ad 44be 06a7 c63d
000000b0: f734 853d 771a 8a3e e875 57be ef88 71be
000000c0: b5f2 333e f1e5 7bbe e16e 87bd bcdd c03d
000000d0: d455 43bb c77e 8fbe 6393 abbc 8372 693d
000000e0: e74e 093e 99ee 7abd e9c8 373e 984a bdbc
000000f0: 236c 7f3e 3357 633e 77b0 2fbe 0ec7 51be
00000100: 7342 083e 454c bdbc be5b cc3d 3349 2f3e
00000110: 4299 41be 5b68 84be c084 a7bd b967 a83d
00000120: 978e 883e 1989 3a3c d4ff fd3d e48e b73c
00000130: 46f4 0e3d a472 8ebe 22f8 6a3e 9f66 5dbe
00000140: 1995 6cbe 4673 b03d 182e 90bd ce4c b43c
00000150: 8381 6f3e bd1d 1c3e c3f3 803e b5bc 293e
00000160: 07c9 15be 0ca7 aa3b 0d61 d2bd 6141 0a3d
00000170: 4eed 373e 1ac0 803e 19eb 20bd e0f8 83bd
00000180: 764c 763e 0d53 883e 0c5a 7d3e 7bdd 82bd
00000190: d156 85be b38c f93c 4bd1 58bd 4bf3 7e3e
000001a0: 2578 543e f5fa 073e fb25 823c bf7f 86be
000001b0: 63e3 743b 437d b93d e326 fb3c e810 813d
000001c0: 295b c13d 3965 f13d f79d 4e3e ff8c 733d
000001d0: 3a8e 34be e6e2 2c3e ef47 7bbc c96f 34be
000001e0: 50de c2bc 559e 593e 9b9e fb3d ad62 7c3e
000001f0: 3f92 77bd 6b66 8a3e 11bd 40be 89ab 0f3e
00000200: cf93 2cbe 1e7b 8e3e 5b05 343d a6b7 1c3e
00000210: c9db f8bd e0fe c43c 65b8 453e a3df 363b
00000220: 3f35 3abd 1742 09ba 96a0 d1bd 3b2e 093d
00000230: 0a17 fcbc 17ff e23d 7ddb ae3d 92ec 5f3e
00000240: c06b 063e 6900 943a 1c1d 94be 29b4 5f3e
00000250: 2ed1 b03c d3d9 ba3d e307 1b3e 17c5 87be
00000260: f467 453e 26b4 8dbc 7e2d 52be d0c0 35be
00000270: db0c 8d3d 19a3 8f3e 8d42 1c3e a4ba 803d
00000280: 10a2 bf3d 33f1 eabc 584f 0cbe 08e7 c8bd
00000290: 7ae0 71be 0d4b ddbd 6371 093e d6fb 4ebe
000002a0: de5c 283e 3699 0c3e 52a8 f63d 3777 f63c
000002b0: 1c8b 363e c48c 483e 4081 85be 114f 1e3e
000002c0: 8813 7fbd 03eb 033e 130d 0f3e 521b 13be
000002d0: cc9e 0abd eba9 50bd c59d c53d 2415 e3bd
000002e0: f35c b43d 18cd 863e 1764 81be 4cf9 5f3d
000002f0: 9681 82be d6e7 b93c 680f 683e bf3d 7b3e
00000300: a443 1abe 209f 0abe 2596 bcbb c77c 1ebe
00000310: 1b26 43be cad6 8c3e 0856 8c3e e6fd 083e
00000320: fd94 d53d 8d0b 16bd f454 80be ba9e 083d
00000330: 795f 683e b718 8ebe cd3d 103e d1b5 e13d
00000340: f112 3f3e 144c 1fbd 6303 383e f41c e13c
00000350: 33c6 853e 9b16 a3bb cc57 8e3e 2a59 443e
00000360: 929b 88bc a73a 31be 5d57 323d d467 e33c
00000370: d34d 3a3e 7d13 73bc aa95 363e a2aa 01be
00000380: 7f47 d5bd 8e6f 5bbe 0def 0d3e fa9b b53d
00000390: 2500 483e f149 3a3e d370 59bd fbb4 083c
000003a0: 5f22 e2bd 7ed7 b83d 728a 243c 54ee 5ebe
000003b0: ffe2 743e efcc d33b a18a 583e fc09 c83d
000003c0: 0104 91be 0ba5 043e 8a1f 883e 8e00 4dbc
000003d0: 4313 913d 9a14 86be cf4e 87be 8743 4e3c
000003e0: 7308 f43d 122e f83d 93f9 55bd fadd 27bd
000003f0: f009 523e f68e 333e 63a6 bb3d 0ed4 84be

fc.0.bias f4 [156]
-0.0063616512 -0.12951766 -0.23158051 0.19694689 0.21495932 0.24171615 -0.2489985 0.26230103
0.2062668 0.2634781 -0.28291395 -0.13205409 0.03655441 -0.064986944 -0.07355752 -0.2542573
0.007104871 0.15920945 0.055925872 -0.008054033 0.025822096 0.27352765 0.07513557 0.029276675
0.09081927 0.09462092 0.1103032 -0.2684378 -0.02114374 0.19995885 -0.13358633 0.039040696
0.22456597 -0.0038990409 -0.004725941 -0.020661417 -0.18166068 -0.12001625 -0.10480904 -0.014762419
0.060355075 0.042803004 0.045431815 0.2766149 0.22399645 -0.19763659 0.045281846 0.05847795
0.19543053 -0.017171051 0.14939645 0.017808408 -0.22349465 -0.021946914 0.23869278 -0.2551257
0.09315632 -0.27077624 -0.01088888 -0.06843851 0.00081536535 0.2748244 0.06926655 -0.21873781
-0.005823791 -0.17596512 -0.11298758 0.22373305 0.02329087 0.0429322 -0.043218534 -0.25956213
-0.26721328 0.04790581 -0.1692639 -0.22483481 -0.10968606 -0.16146927 0.21458155 0.27246362
0.17871521 -0.13579455 0.18412316 -0.20247248 -0.026769193 -0.18581505 0.2558168 0.2335209
-0.2785484 0.24266957 0.074991554 -0.16175677 0.21926285 0.25963992 0.25684735 0.10707014
0.27258867 0.21103758 0.24221243 0.08014501 0.22304413 0.21565452 0.21165957 -0.108660884
0.12878099 -0.2761354 -0.042085443 0.20996812 -0.13182195 -0.018363666 -0.18584539 0.15469593
0.19049108 0.28547028 -0.08149687 0.21702833 -0.25878018 0.2152322 -0.19196218 -0.04089277
-0.082091145 -0.083121136 0.2502394 0.26949617 0.18088013 0.28370142 0.2849041 0.17597264
-0.28129676 0.03643719 0.28013468 0.15296736 -0.19605432 -0.05268006 0.2893314 0.0676507
0.075100124 0.08652792 -0.0930144 0.2313926 0.18987024 0.003975659 -0.08788967 -0.20400044
0.14865097 0.22953351 0.029469086 -0.08224688 0.16785683 0.03758009 0.27257627 0.232823
0.15391728 0.1515525 -0.24325842 0.035136305
00000000: 6675 d0bb 47a0 04be 7123 6dbe 72ac 493e
00000010: 4c1e 5c3e 7084 773e 76f9 7ebe 524c 863e
00000020: 9b37 533e 9ae6 863e 19da 90be 3039 07be
00000030: 14ba 153d e017 85bd 53a5 96bd 032e 82be
00000040: facf e83b cd07 233e 8712 653d 10f5 03bc
00000050: dc88 d33c d10b 8c3e ade0 993d a3d5 ef3c
00000060: 74ff b93d 9dc8 c13d a5e6 e13d ae70 89be
00000070: a335 adbc 03c2 4c3e dbca 08be 23e9 1f3d
00000080: 9ff4 653e 0d87 7fbb 11dc 9abb 2242 a9bc
00000090: 4205 3abe 14cb f5bd 1fa6 d6bd 13de 71bc
000000a0: e236 773d 3452 2f3d b616 3a3d 78a0 8d3e
000000b0: 535f 653e 3f61 4abe 7579 393d 9386 6f3d
000000c0: f11e 483e 4eaa 8cbc 62fb 183e f0e2 913c
000000d0: c8db 64be 04ca b3bc e16b 743e d69f 82be
000000e0: bec8 be3d 2fa3 8abe 4667 32bc 7d29 8cbd
000000f0: 3ebe 553a c9b5 8c3e 9fdb 8d3d cefc 5fbe
00000100: 80d5 bebb 3330 34be 0866 e7bd 471a 653e
00000110: 7fcc be3c add9 2f3d eb05 31bd 54e5 84be
00000120: 2ed0 88be e238 443d 8453 2dbe 193b 66be
00000130: 16a3 e0bd 3358 25be 44bb 5b3e 5a80 8b3e
00000140: 1f01 373e ba0d 0bbe c88a 3c3e f254 4fbe
00000150: 114b dbbc 4d46 3ebe 6bfa 823e 1a20 6f3e
00000160: e59d 8ebe 5f7e 783e 2c95 993d 91a3 25be
00000170: 7186 603e 86ef 843e 7f81 833e 9747 db3d
00000180: be90 8b3e 3c1a 583e 8906 783e 1123 a43d
00000190: ae65 643e 8ad4 5c3e 49bd 583e 9989 debd
000001a0: 2adf 033e 9f61 8dbe c961 2cbd e201 573e
000001b0: 55fc 06be 666f 96bc 414e 3ebe 9c68 1e3e
000001c0: 1810 433e 2929 923e d5e7 a6bd ad3c 5e3e
000001d0: d67e 84be d465 5c3e bc91 44be 2d7f 27bd
000001e0: 671f a8bd 6a3b aabd 611f 803e 67fb 893e
000001f0: a438 393e 5041 913e f3de 913e 2c32 343e
00000200: 2106 90be 2a3f 153d d06d 8f3e 7aa3 1c3e
00000210: 77c2 48be 0cc7 57bd 3f23 943e 738c 8a3d
00000220: 18ce 993d 8d35 b13d 557e bebd 2ff2 6c3e
00000230: 586d 423e 3f46 823b 80ff b3bd 7ee5 50be
00000240: f637 183e d50a 6b3e 2769 f13c 0d71 a8bd
00000250: a9e2 2b3e 95ed 193d 1e8f 8b3e 2769 6e3e
00000260: 7e9c 1d3e 9430 1b3e bc18 79be 16eb 0f3d

fc.2.weight f4 [4, 156]
0.01853556 -0.07043584 0.0508437 -0.07521961 -0.016723186 0.03440899 -0.0099315895 0.08030447
-0.019737497 0.047883954 0.048947256 0.068432294 -0.049882047 0.027813956 -0.02676069 -0.030210936
0.0673248 0.009131664 0.078160584 -0.048172425 0.010096491 -0.010256586 0.024056468 -0.034757063
-0.07400077 -0.06640513 0.05016959 0.031837545 0.03232981 -0.0552059 0.04896048 0.07793025
-0.030863188 0.07130478 0.056339692 -0.08189212 0.0144345155 0.023556665 -0.016990123 -0.040180575
0.032770578 0.022441996 0.030710535 0.08009424 0.02701541 0.039712593 0.00867594 -0.018509462
0.015531472 -0.036280334 -0.057347298 -0.079390705 -0.06407622 0.010407192 0.06453592 0.05463421
0.0009142937 -0.061590355 -0.07582689 0.06889653 -0.0152559765 0.05049955 0.026398009 -0.030909786
0.0040383595 0.04410562 -0.033642296 -0.016669124 -0.040233713 0.04264537 -0.04786125 -0.066671
-0.0033190548 0.015011931 -0.061412923 -0.054751527 -0.014897844 0.014670187 0.06494616 -0.07622091
0.07217859 0.05593228 -0.03885118 -0.075933464 0.026977466 0.055934444 0.0020877684 0.0047443467
0.029840073 0.021460533 0.04005152 -0.00089747424 0.060448416 0.0013239083 -0.02884575 -0.07624787
0.056331832 0.029304346 -0.034828797 0.04788286 -0.069100186 -0.033295847 0.005301997 -0.071254134
0.013011211 0.014866881 0.017422719 0.007104776 -0.043607682 -0.051753033 -0.06722823 0.006489967
0.025651958 -0.021913948 -0.055878922 -0.07886913 0.0028727558 0.04702816 -0.068234764 0.038838364
-0.03633641 0.033588015 0.051509462 -0.039433148 -0.0016592887 -0.07368195 -0.011427971 -0.07736411
0.024645645 -0.067098446 0.04673324 -0.02594457 0.067567706 0.05998172 0.079364344 -0.06899861
0.07602564 -0.0049895016 -0.027781945 -0.049690217 0.06598637 -0.03234578 0.07027503 0.06277871
-0.04438378 -0.055230707 -0.018328767 -0.050250795 0.012387181 0.029790005 0.02385001 -0.018320635
-0.000128657 0.03396348 0.0040886197 0.020044114 -0.07403625 0.044084758 0.015783766 0.008716312
-0.025514735 0.030405294 -0.027019048 0.0019961675 -0.07561859 -0.009635839 -0.029767687 -0.007381756
0.051084816 -0.05691804 0.03765846 0.07879579 0.004207463 -0.008764862 -0.030213056 0.005805248
0.045395054 0.0057284627 0.073002286 -0.030150447 -0.03662205 -0.013607636 0.06167422 0.028330872
0.054795485 0.011882962 0.023054492 0.028649036 0.033332482 0.001491946 -0.05122095 0.017352106
-0.078915745 -0.054829054 0.002429376 -0.0052003497 -0.0475601 -0.023915604 -0.02432937 -0.046716407
0.00857895 -0.01590566 0.0066801175 0.007685855 0.017727567 0.003304862 -0.07073252 -0.01590928
-0.04332997 0.07798806 0.079337984 -0.0049962504 0.049710874 0.06260235 -0.0028600565 0.015720155
-0.00069851713 0.039731346 0.016427131 0.06500422 0.031814683 0.027827399 0.026569884 0.03894215
-0.030467192 -0.066096365 -0.04172941 -0.06900357 -0.03268087 -0.060335897 -0.03295701 0.040237084
-0.028299589 0.040558014 0.0050024856 -0.072886534 -0.013361461 0.011331777 0.013965741 0.01601283
-0.078246005 0.05445628 0.019196419 -0.04009864 -0.06313377 -0.073019885 -0.050718337 -0.01728198
-0.054222483 0.05225486 0.041669205 -0.018644648 -0.054710537 0.03179875 -0.056819487 0.05574077
00000000: e3d7 973c aa40 90bd 7c41 503d bd0c 9abd
00000010: 10ff 88bc 71f0 0c3d 1bb8 22bc ac76 a43d
00000020: 88b0 a1bc f721 443d eb7c 483d 3b26 8c3d
00000030: 1e51 4cbd 18da e33c 3c39 dbbc ed7c f7bc
00000040: 96e1 893d fa9c 153c a812 a03d 7350 45bd
00000050: c16b 253c 3d0b 28bc 1212 c53c 6c5d 0ebd
00000060: b78d 97bd 6aff 87bd a17e 4d3d 1668 023d
00000070: 436c 043d 951f 62bd c98a 483d e599 9f3d
00000080: ccd4 fcbc 3e08 923d 73c4 663d 0eb7 a7bd
00000090: bf7e 6c3c e8f9 c03c df2e 8bbc 6394 24bd
000000a0: 713a 063d 47d8 b73c a994 fb3c 7308 a43d
000000b0: 6c4f dd3c aca9 223d 8825 0e3c 28a1 97bc
000000c0: b777 7e3c b09a 14bd 00e5 6abd 9897 a2bd
000000d0: 653a 83bd ed82 2a3c 692b 843d 1fc8 5f3d
000000e0: 36ad 6f3a 2b46 7cbd 214b 9bbd a019 8d3d
000000f0: 34f4 79bc 9ed8 4e3d a340 d83c 8536 fdbc
00000100: 3754 843b 18a8 343d 81cc 09bd b08d 88bc
00000110: 1bcc 24bd e9ac 2e3d 280a 44bd ce8a 88bd
00000120: 8084 59bb 9af4 753c 1e8c 7bbd 2343 60bd
00000130: 1616 74bc 395b 703c 7e02 853d b519 9cbd
00000140: 5ed2 933d 3f19 653d 6a22 1fbd 0183 9bbd
00000150: d9ff dc3c 841b 653d f1d2 083b 7776 9b3b
00000160: 2b73 f43c 00ce af3c 100d 243d 7a44 6bba
00000170: c298 773d fe86 ad3a ec4d ecbc d827 9cbd
00000180: 35bc 663d ab0f f03c a4a8 0ebd d120 443d
00000190: 6684 8dbd 3a61 08bd 60bc ad3b b0ed 91bd
000001a0: f92c 553c 3894 733c 17ba 8e3c 2ecf e83b
000001b0: f89d 32bd fdfa 53bd f4ae 89bd caa9 d43b
000001c0: 0e24 d23c e184 b3bc 4ce1 64bd 2386 a1bd
000001d0: d844 3c3b 9aa0 403d abbe 8bbd fa14 1f3d
000001e0: 7dd5 14bd 9693 093d 96fb 523d a784 21bd
000001f0: 7d7c d9ba 90e6 96bd 623c 3bbc 1371 9ebd
00000200: aae5 c93c e96a 89bd 5b6b 3f3d b589 d4bc
00000210: f060 8a3d 64af 753d c689 a23d 254f 8dbd
00000220: 55b3 9b3d f97e a3bb f696 e3bc f887 4bbd
00000230: dd23 873d 027d 04bd 5bec 8f3d 2092 803d
00000240: c4cb 35bd 9839 62bd 3626 96bc c7d3 4dbd
00000250: 9af3 4a3c 2b0a f43c 1961 c33c 2815 96bc
00000260: 1ae8 06b9 4a1d 0b3d d4f9 853b 8e33 a43c
00000270: 51a0 97bd 3892 343d f54c 813c ddce 0e3c
00000280: 4704 d1bc 8614 f93c 0d57 ddbc 22d2 023b
00000290: ebdd 9abd a3df 1dbc 5ddb f3bc a8e2 f1bb
000002a0: 503e 513d e422 69bd c23f 1a3d b05f a13d
000002b0: c2de 893b 7f9a 0fbc 5f81 f7bc f339 be3b
000002c0: 2af0 393d d4b5 bb3b 3982 953d 12fe f6bc
000002d0: 0101 16bd 90f2 5ebc 1b9e 7c3d 2516 e83c
000002e0: 3b71 603d c1b0 423c c6dc bc3c 62b1 ea3c
000002f0: a487 083d 678d c33a 0fcd 51bd 0126 8e3c
00000300: 949e a1bd 6e94 60bd 2a36 1f3b b267 aabb
00000310: 61ce 42bd a8ea c3bc 634e c7bc b459 3fbd
00000320: b98e 0c3c 964c 82bc e3e4 da3b a0d9 fb3b
00000330: 6739 913c 6296 583b 36dc 90bd 2e54 82bc
00000340: c47a 31bd 34b8 9f3d f47b a23d 96b7 a3bb
00000350: a19d 4b3d a935 803d c96f 3bbb 8ec7 803c
00000360: b11c 37ba 56bd 223d 3192 863c ef20 853d
00000370: 1d50 023d 49f6 e33c 16a9 d93c ce81 1f3d
00000380: 5596 f9bc 885d 87bd 75ec 2abd be51 8dbd
00000390: 60dc 05bd c622 77bd eefd 06bd a4cf 243d
000003a0: 8ad4 e7bc 2920 263d e4eb a33b 8945 95bd
000003b0: 08ea 5abc eba8 393c 90d0 643c 572d 833c
000003c0: 713f a0bd 8c0d 5f3d cf41 9d3c 793e 24bd
000003d0: 474c 81bd 738b 95bd 08be 4fbd f092 8dbc
000003e0: 6518 5ebd 3109 563d 54ad 2a3d a9bc 98bc
000003f0: 2818 60bd 683f 023d 8dbb 68bd 6f50 643d

fc.2.bias f4 [4]
-0.007358303 -0.018547473 0.058937088 0.053044204
00000000: eb1d f1bb dff0 97bc 0468 713d e144 593d
