Models/score_40_model_56077.pt (torch, 9695 bytes, 4 tensors)

fc.0.weight f4 [120, 12]
0	0x3e8a187e	0.2697181
1	0x3ddaa7fc	0.10676572
2	0x3d418100	0.047242165
3	0xbe1b1a54	-0.15146762
4	0x3c936800	0.017993927
5	0xbe1b9f68	-0.15197527
6	0x3d8c091c	0.06837675
7	0x3d2a87dc	0.04163347
8	0x3d9b1be4	0.07573679
9	0xbe39df40	-0.1815157
10	0x3de78938	0.11305469
11	0xbe071d6f	-0.13194822
12	0xbc0e22a0	-0.008675247
13	0xbe56eaaf	-0.20987962
14	0x3e6685ea	0.22512022
15	0x3d91716c	0.07101712
16	0xbe788c9b	-0.24272387
17	0xbdcf2c5a	-0.10115881
18	0x3dfd665a	0.12373038
19	0x3e6db508	0.23213589
20	0xbc4e62e0	-0.012596816
21	0xbe3e1a84	-0.18564802
22	0xbb34b000	-0.0027570724
23	0xbdd2f37c	-0.10300347
24	0xbe0d87ae	-0.13821289
25	0xbdb1795e	-0.08665727
26	0xbd72c560	-0.059270263
27	0xbd846e34	-0.06466332
28	0xbe8a60c5	-0.27026954
29	0xbe1b9a79	-0.15195645
30	0x3e290872	0.16507128
31	0xbd57b4bc	-0.052662596
32	0x3e8e0604	0.27738965
33	0x3dd4b7a4	0.10386589
34	0x3e86c21c	0.2631997
35	0xbe70bb2e	-0.23508903
36	0xbe0690d2	-0.13141182
37	0xbe6fd45c	-0.23420852
38	0xbe295825	-0.1653753
39	0xbd3ad050	-0.04560882
40	0x3e1e4d73	0.15459232
41	0xbe23a7f9	-0.15982045
42	0x3d85532c	0.065100044
43	0x3e14abbe	0.1451864
44	0xbd973556	-0.0738322
45	0xbe106014	-0.14099151
46	0x3e85b100	0.26111603
47	0xbbdf0480	-0.0068059564
48	0xbe333212	-0.17499569
49	0xbd9e1d54	-0.07720438
50	0x3dd5a04c	0.10430965
51	0xbe46d96f	-0.19418882
52	0xbe5a0fcf	-0.21295093
53	0x3dac200e	0.084045514
54	0x3c796cc0	0.015223682
55	0xbdf5a54c	-0.119944185
56	0xbe7c1257	-0.24616371
57	0x3d2be7b4	0.041969016
58	0xbe69308a	-0.22772422
59	0xbe42da75	-0.19028647
60	0x3e881ab2	0.26582867
61	0x3e43dc68	0.19127047
62	0x3e8c91b4	0.27454913
63	0xbcda48d0	-0.026646048
64	0x3e8740c7	0.2641661
65	0xbdfb290c	-0.122636884
66	0x3e1929c9	0.14957346
67	0xbe785e4c	-0.24254721
68	0xbd662ee4	-0.056197062
69	0x3da0c51e	0.07850097
70	0xbe11d7ba	-0.1424245
71	0x3d5c341c	0.053760633
72	0x3c4f1260	0.012638658
73	0xbdc71eec	-0.09722695
74	0x3d93b694	0.072125584
75	0x3e3f76cb	0.1869766
76	0x3e6660a5	0.22497804
77	0x3e0b8825	0.13626154
78	0x3e8cfc35	0.2753617
79	0x3e7433d8	0.23847902
80	0xbe01fb71	-0.12693574
81	0x3e923d21	0.28562263
82	0xbe7053ba	-0.23469439
83	0x3e44588d	0.19174404
84	0xbdc32624	-0.09528759
85	0x3e2bae9e	0.1676583
86	0x3e8cb4d5	0.27481714
87	0xbcf49629	-0.029856758
88	0x3e8144d0	0.25247812
89	0xbe45742e	-0.192826
90	0x3cb69810	0.022289306
91	0xbe4c2b7a	-0.1993846
92	0xbb7de680	-0.0038742125
93	0x3e68b871	0.22726609
94	0xbdb3858a	-0.08765705
95	0x3d95019a	0.07275696
96	0xbdb96d70	-0.09054077
97	0xbc824ef0	-0.015906781
98	0xbd4c0dd4	-0.049817875
99	0x3e86ce6a	0.26329356
100	0x3dad8f0c	0.0847455
101	0x3c9873c0	0.018609881
102	0xbe6e3046	-0.23260602
103	0xbe5766d8	-0.21035326
104	0xbe7eb1c8	-0.24872506
105	0xbe32c8a4	-0.17459351
106	0x3de15da0	0.11004186
107	0xbe06fb19	-0.13181724
108	0x3e864cfe	0.26230615
109	0xbe5ac5e8	-0.21364558
110	0x3e711f2e	0.2354705
111	0x3e81fbed	0.25387517
112	0x3e735930	0.23764491
113	0x3e474094	0.19458228
114	0x3d7ed0d8	0.062210888
115	0x3db94c9c	0.09047815
116	0x3e02ca13	0.12772398
117	0xbb811d80	-0.0039402843
118	0x3dfde0c8	0.12396389
119	0xbd916966	-0.07100181
120	0xbe6e7303	-0.23286061
121	0x3b052d80	0.002032131
122	0x3e6e88de	0.23294398
123	0xbd1244a8	-0.035710007
124	0x3d21613c	0.03939937
125	0x3cab6460	0.020921886
126	0xbc768420	-0.0150461495
127	0xbe4199d5	-0.18906339
128	0x3e29d8a1	0.16586544
129	0xbe0e0b88	-0.13871586
130	0xbdd9d09a	-0.10635491
131	0x3e8a19ef	0.2697291
132	0x3dffa25e	0.12482141
133	0xbe894d9d	-0.26817027
134	0xbe813a47	-0.25239775
135	0x3df09264	0.11746672
136	0xbe8c5144	-0.2740575
137	0xbe8fcaa6	-0.28084296
138	0x3de8a69e	0.11359905
139	0xbe0f03d0	-0.13966298
140	0x3e3d2186	0.1846982
141	0xbe27eb80	-0.1639843
142	0xbe14da77	-0.14536463
143	0xbd6933c0	-0.05693412
144	0x3e308d24	0.17241341
145	0x3e855ee8	0.2604897
146	0x3e8844a2	0.26614863
147	0x3ded8122	0.11596896
148	0x3d63d9b4	0.05562754
149	0x3e3a9a18	0.18222845
150	0xbce71d70	-0.02821228
151	0x3e4e89a5	0.20169695
152	0xbe79f1f4	-0.24408704
153	0x3e85459d	0.26029673
154	0x3c0d7d20	0.008635789
155	0x3dbab5b2	0.09116687
156	0x3de38280	0.11108875
157	0x3e4167b9	0.18887223
158	0xbe2b8335	-0.1674927
159	0xbe72f47e	-0.23726079
160	0xbd2f8214	-0.04284866
161	0xbe5872e1	-0.21137573
162	0xbd9499c6	-0.072558925
163	0x3dffe386	0.124945685
164	0xbdb2128c	-0.08694944
165	0x3c861650	0.016368061
166	0x3e0e7028	0.13909972
167	0x3db4a28e	0.08820067
168	0xbcf843f0	-0.030305833
169	0x3e30656a	0.17226186
170	0xbd3fff44	-0.0468743
171	0x3e046e0c	0.12932605
172	0xbe8fd70d	-0.28093758
173	0xbcb42de0	-0.021994531
174	0xbdf40004	-0.119140655
175	0x3e08d98f	0.13364242
176	0xbc6fa692	-0.014627116
177	0x3e357b7d	0.17722888
178	0x3e694f77	0.2278422
179	0xbe7a8a82	-0.24466899
180	0x3c2dac00	0.01060009
181	0x3e1d4bc8	0.1536094
182	0x3d8c0b64	0.0683811
183	0x3e240724	0.16018349
184	0x3e3d72a9	0.1850077
185	0x3e603a86	0.21897325
186	0xbe13887f	-0.14407538
187	0x3e09f20e	0.13471243
188	0x3e7d0ba4	0.24711472
189	0x3ccebb70	0.025235862
190	0x3e1d1b04	0.15342337
191	0xbe06b313	-0.13154249
192	0xbd80479c	-0.062636584
193	0x3c503b60	0.012709469
194	0xbe430fc8	-0.19048989
195	0x3e3f0cc5	0.18657215
196	0xbcd48890	-0.025944024
197	0xbe00f52b	-0.12593524
198	0xbd4e85bc	-0.050420508
199	0x3cd80af0	0.026372403
200	0xbcc93d89	-0.024565475
201	0xbd891068	-0.06692582
202	0xbe1788b0	-0.14798236
203	0x3c672000	0.0141067505
204	0x3e5386be	0.20656869
205	0x3d88f8b6	0.06688063
206	0x3e80b877	0.25140736
207	0xbd8329ea	-0.06404479
208	0xbe1f2f3e	-0.15545365
209	0xbe059fcc	-0.13049239
210	0xbd7be034	-0.061493114
211	0xbdc73780	-0.09727383
212	0x3e6acab4	0.22928888
213	0xbe121a1d	-0.14267774
214	0xbdf4b766	-0.11949043
215	0xbe142db8	-0.14470565
216	0x3de630dc	0.11239788
217	0xbe7d7a87	-0.24753772
218	0x3e1a0901	0.15042497
219	0xbe68ac11	-0.22721888
220	0xbe36d90c	-0.17856234
221	0x3d5345a4	0.051580086
222	0x3e4b17cf	0.19833301
223	0x3e7f30c6	0.2492095
224	0x3e7bfea2	0.24608853
225	0xbe1d360a	-0.15352646
226	0xbd961574	-0.073283106
227	0x3ddffa7a	0.109364465
228	0x3e3a3170	0.18182921
229	0xbe6a02fe	-0.22852704
230	0xbda1d482	-0.07901861
231	0xbe5f7590	-0.2182219
232	0x3d5a49f4	0.053293183
233	0xbe303523	-0.1720777
234	0x3e725c48	0.23668015
235	0x3e4a6f13	0.19768934
236	0x3cba5df0	0.022749871
237	0xbe1e32b0	-0.15449023
238	0x3e1a17bf	0.15048121
239	0xbd907884	-0.070542365
240	0xbdb9d76e	-0.09074293
241	0xbe2164b6	-0.15761074
242	0x3ddde3d4	0.108344704
243	0xbdc61b4c	-0.09673175
244	0x3e769f90	0.24084306
245	0x3dca5046	0.09878592
246	0xbdb3aabc	-0.087727994
247	0xbe6ab35d	-0.22919984
248	0xbcefad50	-0.029257447
249	0x3e0f4b43	0.13993554
250	0xbe812230	-0.25221395
251	0xbe850dee	-0.2598719
252	0x3e22b70e	0.15890142
253	0x3d457314	0.04820545
254	0x3cd91147	0.026497496
255	0xbe571857	-0.21005379

fc.0.bias f4 [120]
0	0x3def4d30	0.11684644
1	0x3e424247	0.18970595
2	0xbe5a03b4	-0.21290475
3	0x3e0a89a1	0.13529064
4	0xbd404e30	-0.046949565
5	0x3da58720	0.08082414
6	0xbdd9ab8a	-0.106284216
7	0x3e3f8be8	0.18705714
8	0x3e208124	0.15674263
9	0xbe6a314a	-0.22870365
10	0xbdb3645e	-0.08759378
11	0xbe4f4723	-0.2024198
12	0xbe90c21c	-0.28273094
13	0xbe8020e3	-0.2502509
14	0xbdb0b5de	-0.086284384
15	0xbe3e9448	-0.18611252
16	0xbe67da3a	-0.2264184
17	0xbe8299eb	-0.25508055
18	0xbcce01a9	-0.025147276
19	0x3e06d8e7	0.13168679
20	0xbd9d1464	-0.07669905
21	0xbe67c213	-0.22632627
22	0x39465000	0.00018912554
23	0x3d055df0	0.03256029
24	0x3c1543ce	0.009110404
25	0x3e40d445	0.18830974
26	0xbcbecc00	-0.023290634
27	0xbe8140cf	-0.25244758
28	0x3d4331d4	0.04765494
29	0xbe5da70d	-0.21645756
30	0x3c8b7b50	0.017026573
31	0xbe5f073c	-0.21780103
32	0x3c3738ce	0.011182977
33	0xbe7a299b	-0.24429934
34	0xbe892f0d	-0.2679371
35	0x3e41b353	0.18916063
36	0xbe83d98d	-0.25751916
37	0x3d92826c	0.07153782
38	0x3e93ee8f	0.28892943
39	0xbd4c8298	-0.04992923
40	0x3d32c1c4	0.04364182
41	0x3df57976	0.119860575
42	0xbde9e81a	-0.11421223
43	0xbe1aef02	-0.15130237
44	0x3da683b2	0.08130588
45	0x3d115a2c	0.035486385
46	0xbde6df46	-0.11273055
47	0xbd49e67c	-0.049292073
48	0x3d61f394	0.055163935
49	0xbe8d5a90	-0.27608156
50	0xbe6ee8e3	-0.23331027
51	0xbe7d04b8	-0.24708831
52	0x3d25b7f4	0.040458634
53	0x3e364e2a	0.17803255
54	0xbe87f9dc	-0.26557815
55	0x3e01612e	0.12634727
56	0xbe0ca93d	-0.13736434
57	0xbe4da6a7	-0.20083104
58	0x3cc6d030	0.024269193
59	0xbde07d78	-0.10961431
60	0xbe147391	-0.1449721
61	0xbdda3276	-0.10654156
62	0xbdcccfb4	-0.10000554
63	0x3e432105	0.19055565
64	0xbdbf5ada	-0.093435004
65	0x3e4a2072	0.1973894
66	0xbced3c90	-0.028959543
67	0xbd952d36	-0.07284014
68	0x3d4d1aac	0.050074264
69	0x3cfc0827	0.030765606
70	0xbe704301	-0.2346306
71	0x3e6e3fd6	0.23266539
72	0x3d6632e0	0.056200862
73	0x3d859102	0.06521799
74	0x3e610688	0.21975148
75	0xbe934ae0	-0.28768063
76	0x3e32aa10	0.17447686
77	0xbe07bb95	-0.1325515
78	0x3e63f620	0.22261858
79	0x3df6ad5c	0.120447844
80	0x3dbc6bca	0.09200247
81	0xbde7f9f0	-0.11326969
82	0x3e621420	0.2207799
83	0x3e539703	0.20663075
84	0x3c3d0ce0	0.011538714
85	0xbd9a8cb2	-0.07546367
86	0xbe510fe7	-0.20416223
87	0x3da422d0	0.080144525
88	0x3ddda778	0.10822958
89	0x3e083a46	0.1330348
90	0x3e23ac38	0.15983665
91	0x3d875968	0.0660885
92	0x3ddecae0	0.10878539
93	0xbe64a38e	-0.22328016
94	0x3e7fc803	0.24978642
95	0x3e181d6b	0.14854972
96	0xbe93148c	-0.28726614
97	0x3d86e12e	0.06585918
98	0x3dca21ec	0.09869751
99	0x3e527f5b	0.20556395
100	0xbe080fc9	-0.13287272
101	0xbe46eca6	-0.19426212
102	0xbe26a3f4	-0.1627348
103	0x3db4f986	0.08836655
104	0xbe7ef8cc	-0.24899596
105	0xbe06284e	-0.13101313
106	0xbdca995c	-0.09892532
107	0x3e7b0992	0.2451537
108	0x3e7ba81f	0.24575852
109	0x3dbe3508	0.09287459
110	0x3d47e7dc	0.048805103
111	0xbcd2db99	-0.025739478
112	0xbd8de3a2	-0.06928183
113	0xbdbb8b06	-0.09157376
114	0x3e024106	0.12720117
115	0xbe912554	-0.28348792
116	0x3e52f0ca	0.20599666
117	0xbe070e22	-0.13188985
118	0xbe6a086e	-0.22854778
119	0xbdb479c2	-0.08812286

fc.2.weight f4 [4, 120]
0	0x3d94b1be	0.07260464
1	0xbd814b5d	-0.063132025
2	0x3c6f0456	0.014588436
3	0x3cafe10a	0.021469612
4	0x3c1266a8	0.008935608
5	0x3cd576e4	0.026057668
6	0xbd125adf	-0.035731193
7	0x3b365d60	0.0027826652
8	0x3d488ebc	0.048964247
9	0xbdb7b4ed	-0.08970056
10	0xbc4c0b9a	-0.012453938
11	0x3db04cf4	0.08608428
12	0xbd12ace1	-0.0358094
13	0x3db3e5f8	0.087840974
14	0x3c717f20	0.014739782
15	0x3d2ae8b8	0.041725844
16	0xbd7575b0	-0.05992669
17	0x3dabaf96	0.083831
18	0x3cd26574	0.025683142
19	0x3c4bbc80	0.012435079
20	0xbd95d19a	-0.07315369
21	0xbd904dc3	-0.07046082
22	0xbda976c5	-0.082746066
23	0xbca93749	-0.020656245
24	0xbbf55ac0	-0.007487625
25	0xbc55a112	-0.01303889
26	0xbd97b839	-0.074081846
27	0xbd8bc95d	-0.068255164
28	0xbdb0e00a	-0.08636482
29	0xbd3f094a	-0.046639718
30	0xbd82218f	-0.06354057
31	0xbdaaa6d6	-0.08332603
32	0x3d967608	0.073467314
33	0x3d4df438	0.050281733
34	0xbc8eb6b8	-0.017421111
35	0x3d902c14	0.07039657
36	0x3db6df46	0.08929305
37	0x3c906604	0.01762677
38	0x3d158bb0	0.03651017
39	0x3caa3ec4	0.020781882
40	0x3d1d7380	0.038440228
41	0x3c5643a0	0.0130776465
42	0xbd557007	-0.05210879
43	0x3dab2f22	0.08358599
44	0xbc470400	-0.01214695
45	0xbca5c0d8	-0.020233557
46	0xbd9fc430	-0.07801092
47	0x3bdfcc20	0.0068297535
48	0xbc8d67c8	-0.0172614
49	0xbc79cd20	-0.0152466595
50	0x3d917e78	0.071042
51	0x3daddc7c	0.0848932
52	0x3b3aba80	0.002849251
53	0xbd9bad79	-0.07601447
54	0xbd6356c3	-0.055502664
55	0x3c428290	0.011871949
56	0x3d722988	0.05912164
57	0xbda58691	-0.08082307
58	0xbbdf3250	-0.0068114176
59	0xbd9a17ff	-0.07524108
60	0xbd40476a	-0.046943106
61	0x3ae685c0	0.0017587468
62	0xbd85cda4	-0.065333635
63	0x3d99741a	0.07492848
64	0x3c782828	0.015146293
65	0xbd31c77a	-0.043403126
66	0x3d699470	0.057026327
67	0x3d58373c	0.05278705
68	0x3d8509b2	0.0649599
69	0xbd9497ea	-0.07255538
70	0xbda96674	-0.082714945
71	0x3d69a478	0.057041615
72	0x3d1d8790	0.03845936
73	0x3cf6d267	0.030129625
74	0xbd505fec	-0.05087273
75	0x3d71fd64	0.059079543
76	0x3db29c5c	0.087212294
77	0xbda34ab7	-0.07973235
78	0x3d7bbe3c	0.06146072
79	0xb9a3d200	-0.00031246245
80	0xbd71c662	-0.059027083
81	0x3cced7a0	0.025249302
82	0x3c359e60	0.011085123
83	0x3cffd08b	0.03122737
84	0x3d9c5978	0.07634252
85	0xbd27ee1f	-0.040998574
86	0xb8938000	-7.033348e-05
87	0xbd59dc08	-0.053188354
88	0x3cb72d1c	0.022360377
89	0x3d5a01b4	0.05322428
90	0x3cdfc938	0.027317628
91	0x3d9abd4c	0.07555637
92	0x3d992e60	0.074795485
93	0x3b8da610	0.0043227747
94	0x3bb5c520	0.005547181
95	0xbd438b5f	-0.047740337
96	0xbd176024	-0.03695692
97	0xbd3dae08	-0.046308547
98	0x3d9d3bf6	0.07677452
99	0xbca74e88	-0.020423189
100	0xbc994a44	-0.01871217
101	0x3d867f10	0.06567204
102	0xbd0d0e77	-0.034437623
103	0x3b30fa00	0.002700448
104	0x3c71fbbe	0.014769493
105	0xbdb22198	-0.08697814
106	0x3d55dfc0	0.052215338
107	0xbda58f68	-0.08083993
108	0xbd97f5ed	-0.074199535
109	0xbcd9364c	-0.026515149
110	0xbb5efce0	-0.0034025237
111	0xbd82ac8c	-0.06380567
112	0xbda3df84	-0.080016166
113	0x3d8048f2	0.06263913
114	0xbd90fa34	-0.070789725
115	0x3d90d90c	0.070726484
116	0x3ba31080	0.004976332
117	0xbd861d7b	-0.06548592
118	0xbd1bcba3	-0.038036
119	0x3c3343b8	0.010941438
120	0xbd4b1f88	-0.049590617
121	0x3d97e3fa	0.0741653
122	0xbda43c2b	-0.08019289
123	0x3b851640	0.0040614903
124	0x3c72f76e	0.0148295
125	0xbdb97da0	-0.09057164
126	0xbd5d35ca	-0.054006375
127	0xbd5059b8	-0.050866812
128	0x3cfe7a43	0.031064158
129	0x3d057116	0.03257855
130	0x3c8f74b0	0.017511696
131	0xbd872130	-0.06598127
132	0xbad0ebc0	-0.00159394
133	0x3d9cc91e	0.076555476
134	0xbc57ccd8	-0.013171397
135	0x3c599920	0.013281137
136	0x3d1a342c	0.03764741
137	0xbd4afa0c	-0.04955487
138	0xbd3a767a	-0.045523144
139	0x3db23f1a	0.08703442
140	0xbb82c080	-0.003990233
141	0x3caedad0	0.021344572
142	0x3d7cebd0	0.061748326
143	0x3d003358	0.031298965
144	0xbc427430	-0.011868522
145	0xbd508c88	-0.05091527
146	0x3bf22a4c	0.007390296
147	0x3d7f3428	0.0623056
148	0xbd93ab2a	-0.07210381
149	0xbd706969	-0.058694277
150	0x3bf4c5f0	0.007469885
151	0xbd71294a	-0.058877267
152	0xbd4c3e17	-0.0498639
153	0xbc3e6630	-0.011621043
154	0x3d6537d0	0.05596143
155	0xbce96d49	-0.028494494
156	0xbc75a7f0	-0.014993653
157	0xbd96aa04	-0.07356647
158	0xbc638e88	-0.013888963
159	0x3d3c651c	0.045994863
160	0x3db4364c	0.08799419
161	0xbd44b2a4	-0.048021927
162	0xbd8dd870	-0.06926048
163	0x3d812484	0.06305793
164	0x3db052f2	0.086095706
165	0xbd7196a4	-0.058981553
166	0xbdb05dc9	-0.08611638
167	0x3d6bc170	0.057557523
168	0x3a0dc880	0.00054086
169	0xbd828b17	-0.063741855
170	0x3cf4b764	0.029872604
171	0x3d44fcb8	0.048092574
172	0xbd8f40bf	-0.06994771
173	0xbca61eb0	-0.020278305
174	0x3d5de680	0.0541749
175	0x3d91aec8	0.07113415
176	0x3d3216b8	0.043478698
177	0xbce9d98d	-0.02854612
178	0x3ba8c310	0.0051502064
179	0xbcc092f0	-0.023507565
180	0xbce5fc8c	-0.028074525
181	0xbd5b6b3e	-0.05356907
182	0x3ce72de7	0.02822013
183	0xbda60ade	-0.081075415
184	0x3d2e6910	0.042580664
185	0x3d36561c	0.044515714
186	0xbd4f43f9	-0.050601933
187	0xbd1e1d62	-0.03860224
188	0xbd0969d0	-0.033548176
189	0xbd40384e	-0.046928696
190	0x3d9da88e	0.07698165
191	0x3cfb165b	0.030650308
192	0xbce59964	-0.028027244
193	0x3d116048	0.03549221
194	0x3da8787e	0.08226107
195	0xbd83c1f0	-0.06433475
196	0x3bc9b45c	0.0061555337
197	0xbcf0c926	-0.02939279
198	0xbda0293a	-0.07820363
199	0x3d862ad0	0.065511346
200	0x3d63dbc0	0.05562949
201	0x3d36c644	0.044622675
202	0xbc0e3e8a	-0.008681903
203	0x3b304c80	0.0026901066
204	0x3da3bf2e	0.07995449
205	0x3d8b86a8	0.06812793
206	0x3d779a74	0.060450032
207	0xbd012a44	-0.03153445
208	0xbcc37901	-0.02386141
209	0x3b1343c0	0.0022470802
210	0x3d2b3c34	0.04180546
211	0xbd95b158	-0.07309216
212	0x3da90a86	0.0825396
213	0x3d26528c	0.040606067
214	0xbd68ab17	-0.05680379
215	0x39fa4900	0.00047738105
216	0x3d5405e4	0.05176343
217	0x3c4df510	0.0125706345
218	0xbd8c9b8d	-0.068656065
219	0xbd0af8b2	-0.03392858
220	0xbd89fdfd	-0.067378975
221	0xbbc83f30	-0.006111048
222	0x3da78b9e	0.08180927
223	0x3c393938	0.011305146
224	0xbdb06618	-0.08613223
225	0x3d914f86	0.07095246
226	0xbcea39e8	-0.028592065
227	0xbc5105a0	-0.012757689
228	0xbd9888ac	-0.07447943
229	0x3ce53baf	0.02798256
230	0xbdb24e22	-0.08706309
231	0x3be34440	0.0069356263
232	0xbd471ea2	-0.048613198
233	0x3c888ef0	0.01666972
234	0xba9b6180	-0.0011854619
235	0x3da51576	0.08060734
236	0x3cb37880	0.021908045
237	0x3cefc31c	0.02926784
238	0xbb8b4fc0	-0.0042514503
239	0x3d4190e8	0.047257334
240	0xbd86686f	-0.06562888
241	0x3d9f121a	0.077671245
242	0xbd6ce18a	-0.05783228
243	0xbc157588	-0.00912226
244	0xbc07a9b2	-0.008280205
245	0x3c46f8c0	0.012144268
246	0xbb69ef60	-0.0035695657
247	0x3d5344c4	0.051579252
248	0x3db8aff8	0.090179384
249	0x3ce83d0c	0.028349422
250	0x3ce460be	0.027878162
251	0xbd53aea5	-0.051680226
252	0x3cd4f100	0.025993824
253	0x3d92033c	0.07129523
254	0xbdac6f06	-0.084196135
255	0xbd99031b	-0.074712954

fc.2.bias f4 [4]
0	0x3be940a0	0.0071182996
1	0x3d1e5078	0.03865096
2	0xbd3c77c0	-0.04601264
3	0xbd8e2e20	-0.069423914
