Models/score_44_model_140660.pt (torch, 12127 bytes, 4 tensors)

fc.0.weight f4 [156, 12]
0	0xbc65fb95	-0.014037033
1	0xbc6de024	-0.014518771
2	0x3e76d31d	0.24103971
3	0x3dc26192	0.09491266
4	0x3e10fb63	0.14158396
5	0xbe4a6649	-0.19765581
6	0x3cbce685	0.023059139
7	0x3e66f351	0.22553755
8	0xbcd18c98	-0.025579736
9	0xbd0fd3a8	-0.03511396
10	0xbd97e207	-0.07416158
11	0x3e680212	0.2265704
12	0xbe329655	-0.1744016
13	0x3b727add	0.0036999502
14	0xbe743c2b	-0.23851077
15	0x3e754cd1	0.23955084
16	0xbe8abe4e	-0.27098316
17	0xbdf4d0d0	-0.1195389
18	0xbe812f65	-0.25231472
19	0xbe8353c0	-0.25649834
20	0xbe7ecbb9	-0.24882402
21	0x3d4a1c4a	0.049343385
22	0x3c3e0365	0.011597489
23	0xbe432586	-0.19057283
24	0xbe73e367	-0.23817216
25	0x3e70680d	0.23477192
26	0xbbfc6c50	-0.0077033415
27	0x3e4f2b13	0.20231275
28	0xb9b0c277	-0.00033714224
29	0xbe6cbdd5	-0.2311929
30	0x3e02878f	0.12747024
31	0x3e439b12	0.19102123
32	0xbbf5f97b	-0.007506547
33	0xbcf30b0b	-0.029668352
34	0xbe898a3d	-0.2686328
35	0x3d022426	0.031772755
36	0xbdc5d0ae	-0.09658943
37	0x3e1fd057	0.15606819
38	0xbe8e8126	-0.27832907
39	0xbe0df593	-0.1386321
40	0x3e3745af	0.17897676
41	0x3e84a6d5	0.25908533
42	0xbe43e885	-0.19131668
43	0x3dc98624	0.098400384
44	0x3d826664	0.06367186
45	0x3e89a351	0.26882413
46	0xbe572ecd	-0.21013947
47	0xbe730825	-0.23733576
48	0x3e33ac40	0.17546177
49	0xbe7f7d81	-0.2495022
50	0xbd853b76	-0.06505482
51	0x3dc175b4	0.09446278
52	0xbb391f13	-0.0028247281
53	0xbe8f388a	-0.27972823
54	0xbc99654f	-0.018725066
55	0x3d6d9eeb	0.058012884
56	0x3e090554	0.13380939
57	0xbd809d68	-0.06280023
58	0x3e3862b7	0.18006407
59	0xbcc8d11e	-0.024513777
60	0x3e7f0cfd	0.24907298
61	0x3e634d7e	0.2219753
62	0xbe2db13d	-0.16962142
63	0xbe505170	-0.20343566
64	0x3e08d08a	0.13360801
65	0xbcd1c706	-0.025607597
66	0x3dcb856b	0.09937557
67	0x3e2eadbb	0.1705846
68	0xbe42b599	-0.19014587
69	0xbe84cf5b	-0.2593945
70	0xbda877ae	-0.08225952
71	0x3da694b1	0.081338294
72	0x3e8955dd	0.2682332
73	0x3c3fed63	0.011714312
74	0x3dfecf9f	0.12441944
75	0x3cb8ae00	0.022543907
76	0x3d0970a4	0.033554688
77	0xbe8e4cd6	-0.27792996
78	0x3e6b0d75	0.22954352
79	0xbe5c9ecf	-0.21544956
80	0xbe6d2e7a	-0.2316226
81	0x3db43b5f	0.08800387
82	0xbd913642	-0.07090427
83	0x3cb5036e	0.022096362
84	0x3e6eb444	0.23310953
85	0x3e1baa79	0.15201749
86	0x3e811609	0.25212124
87	0x3e2b7270	0.16742873
88	0xbe1552a3	-0.14582305
89	0x3bc6fb6c	0.0060724523
90	0xbdd1939c	-0.102332324
91	0x3d0786a3	0.033087384
92	0x3e37d78b	0.17953317
93	0x3e8012a7	0.2501423
94	0xbd2309d5	-0.0398043
95	0xbd7e6dca	-0.06211642
96	0x3e775714	0.24154311
97	0x3e873e08	0.26414514
98	0x3e7d4fa5	0.24737413
99	0xbd84172e	-0.06449734
100	0xbe85f5d5	-0.26164117
101	0x3cf1863e	0.029482957
102	0xbd5455f7	-0.051839795
103	0x3e7dddf7	0.24791704
104	0x3e568ffb	0.20953362
105	0x3e084618	0.13307989
106	0x3c8dc3ae	0.017305221
107	0xbe864f2c	-0.26232278
108	0x3b7c4000	0.0038490295
109	0x3db727a5	0.089431085
110	0x3cfc2d5f	0.030783353
111	0x3d813db6	0.063105986
112	0x3dc7031c	0.0971739
113	0x3df0d047	0.11758476
114	0x3e4d16ce	0.2002823
115	0x3d6edae6	0.058314227
116	0xbe33d16d	-0.17560358
117	0x3e2ec59b	0.17067568
118	0xbc706563	-0.01467261
119	0xbe3496aa	-0.17635599
120	0xbccaa8e9	-0.024738746
121	0x3e59ad06	0.2125741
122	0x3dfac3fa	0.12244411
123	0x3e7e163f	0.24813174
124	0xbd764aca	-0.06012992
125	0x3e8b075c	0.27154052
126	0xbe41ed90	-0.18938279
127	0x3e0fd1fc	0.14044946
128	0xbe2ce619	-0.1688465
129	0x3e8d6448	0.2761557
130	0x3d4237b7	0.047416415
131	0x3e1de0d7	0.15417801
132	0xbdf889e7	-0.12135678
133	0x3cbbddf8	0.022932991
134	0x3e469032	0.19390944
135	0x3b85dfb4	0.0040855054
136	0xbd3bbb90	-0.04583317
137	0x3abbad82	0.0014318677
138	0xbdd32324	-0.10309437
139	0x3d055ba4	0.0325581
140	0xbd021ca7	-0.031765606
141	0x3de106c9	0.10987622
142	0x3dae64ea	0.085153416
143	0x3e61cdd4	0.22051173
144	0x3e06381f	0.13107346
145	0x3a8f86f5	0.0010950255
146	0xbe941bbf	-0.2892742
147	0x3e5ec0b8	0.21753204
148	0x3cb092eb	0.021554431
149	0x3db8722a	0.0900615
150	0x3e1bab88	0.15202153
151	0xbe872945	-0.26398674
152	0x3e45c8a0	0.19314814
153	0xbc8b112b	-0.01697596
154	0xbe51a61c	-0.20473522
155	0xbe380105	-0.17969139
156	0x3d90eadb	0.07076045
157	0x3e8edd5a	0.27903253
158	0x3e1c4afa	0.15262976
159	0x3d7efce9	0.062252913
160	0x3dbece4b	0.09316691
161	0xbcef631c	-0.029222064
162	0xbe0e89c7	-0.13919745
163	0xbdc817c6	-0.097701594
164	0xbe71d483	-0.23616223
165	0xbdde66f8	-0.108594835
166	0x3e0a338d	0.13496228
167	0xbe5082f9	-0.20362462
168	0x3e26c3bc	0.16285604
169	0x3e0e85d3	0.13918237
170	0x3df3dae3	0.11906984
171	0x3cf6b413	0.030115163
172	0x3e32f5b2	0.17476538
173	0x3e49acd7	0.1969484
174	0xbe85cc3c	-0.2613238
175	0x3e1dde25	0.15416773
176	0xbd7ee9d6	-0.062234722
177	0x3e0338b4	0.128146
178	0x3e0e351b	0.13887446
179	0xbe14998a	-0.14511696
180	0xbd07deb7	-0.03317138
181	0xbd547629	-0.0518705
182	0x3dc86862	0.097855344
183	0xbde5372c	-0.11192164
184	0x3db63e9c	0.088986605
185	0x3e85a48e	0.26102108
186	0xbe818662	-0.25297838
187	0x3d5c68dd	0.053810943
188	0xbe827c36	-0.2548539
189	0x3cb54eba	0.022132266
190	0x3e688d38	0.2271012
191	0x3e7d5f43	0.2474337
192	0xbe1c729e	-0.15278098
193	0xbe0c6316	-0.13709673
194	0xbc0e4a56	-0.008684715
195	0xbe1cf43e	-0.15327546
196	0xbe43b71b	-0.19112818
197	0x3e8de5e4	0.27714455
198	0x3e8cc011	0.27490285
199	0x3e084320	0.13306856
200	0x3dd584d8	0.104257286
201	0xbd17ad6e	-0.03703063
202	0xbe7ef6f0	-0.24898887
203	0x3d01772c	0.03160779
204	0x3e6775f3	0.22603588
205	0xbe8e1c3d	-0.2775592
206	0x3e10f5e9	0.14156307
207	0x3de4ec18	0.11177844
208	0x3e4255d9	0.18978061
209	0xbd1c073f	-0.038092848
210	0x3e3842e6	0.1799427
211	0x3cdc0d01	0.02686167
212	0x3e85cf2e	0.26134628
213	0xbbf5abcc	-0.0074972864
214	0x3e8ef9d7	0.27924988
215	0x3e44011a	0.19141045
216	0xbc8461a6	-0.016159844
217	0xbe322ef1	-0.17400719
218	0x3d2e92e5	0.04262056
219	0x3ce1888e	0.027530935
220	0x3e3a0ada	0.18168202
221	0xbc71f332	-0.014767455
222	0x3e36b89e	0.17843863
223	0xbe024da1	-0.12724926
224	0xbdd2fd31	-0.10302199
225	0xbe5ab64b	-0.21358602
226	0x3e0db41f	0.13838242
227	0x3db09ea8	0.08624011
228	0x3e463649	0.19356646
229	0x3e3b34ae	0.18281814
230	0xbd538c81	-0.051647667
231	0x3c109ee8	0.008826949
232	0xbde60070	-0.11230552
233	0x3db818cc	0.08989105
234	0x3c19597e	0.0093597155
235	0xbe60334a	-0.21894565
236	0x3e7609b2	0.24027136
237	0x3b70f0e0	0.0036764666
238	0x3e564930	0.20926356
239	0x3dc8f0e5	0.09811572
240	0xbe92067d	-0.28520575
241	0x3e033a31	0.12815167
242	0x3e883f6a	0.2661088
243	0xbc4c8a9f	-0.012484222
244	0x3d91aec0	0.07113409
245	0xbe86349b	-0.2621201
246	0xbe86dcce	-0.26340336
247	0x3c5c6293	0.013451236
248	0x3df2c8b9	0.11854691
249	0x3df3c997	0.119036846
250	0xbd4a2a28	-0.04935661
251	0xbd28e045	-0.041229505
252	0x3e52cdee	0.20586368
253	0x3e332a61	0.17496635
254	0x3dbc60b1	0.0919813
255	0xbe8491c1	-0.2589245

fc.0.bias f4 [156]
0	0xbbf068d4	-0.0073367152
1	0xbe034cd8	-0.12822282
2	0xbe6d5f4a	-0.23180881
3	0x3e47378b	0.19454782
4	0x3e59a652	0.21254852
5	0x3e77299d	0.24136968
6	0xbe7e6d08	-0.2484628
7	0x3e86bdb3	0.26316604
8	0x3e53bda2	0.20677808
9	0x3e87109e	0.26379865
10	0xbe9035a1	-0.28165916
11	0xbe0875e9	-0.13326229
12	0x3d12170a	0.035666503
13	0xbd800271	-0.06250466
14	0xbd92f1a0	-0.071749926
15	0xbe81bc01	-0.25338748
16	0x3bebee7e	0.0072000613
17	0x3e2355ad	0.15950651
18	0x3d6c2aed	0.057658125
19	0xbc00bdc5	-0.007857745
20	0x3cce48d8	0.025181219
21	0x3e8c7e71	0.27440217
22	0x3d97da6f	0.0741471
23	0x3ce6d54c	0.02817788
24	0x3dbc899a	0.09205933
25	0x3dc1bbcd	0.09459648
26	0x3de106a2	0.10987593
27	0xbe895a9d	-0.26826945
28	0xbcb579a8	-0.022152737
29	0x3e4dde03	0.20104222
30	0xbe0b9ac3	-0.13633256
31	0x3d1e6589	0.03867105
32	0x3e65e416	0.22450289
33	0xbb755856	-0.0037436686
34	0xbbb315c0	-0.0054652393
35	0xbc9fe5d5	-0.019518772
36	0xbe3b2a0d	-0.1827776
37	0xbdf8736a	-0.121313885
38	0xbdda0bb4	-0.106467634
39	0xbc7e145d	-0.015507785
40	0x3d7290b8	0.059220046
41	0x3d2c0f75	0.04200693
42	0x3d37828b	0.04480223
43	0x3e8c2499	0.27371672
44	0x3e65db20	0.22446871
45	0xbe49d662	-0.19710687
46	0x3d3be763	0.045874964
47	0x3d6c9969	0.05776349
48	0x3e48ebe2	0.19621232
49	0xbc75e0eb	-0.015007238
50	0x3e1a5fe1	0.15075637
51	0x3c87f179	0.016594635
52	0xbe645868	-0.2229935
53	0xbcb58c64	-0.02216167
54	0x3e741aef	0.238384
55	0xbe82349b	-0.2543076
56	0x3dbed831	0.09318579
57	0xbe8abc4a	-0.27096778
58	0xbc33e131	-0.010978983
59	0xbd956143	-0.07293942
60	0xba7321ad	-0.00092747324
61	0x3e8c61f3	0.2741848
62	0x3d928b69	0.071554966
63	0xbe610402	-0.21974185
64	0xbb9f06dc	-0.0048531126
65	0xbe333e2f	-0.1750419
66	0xbde3da1b	-0.11125585
67	0x3e63ae1c	0.22234386
68	0x3cc7b790	0.024379522
69	0x3d338a6d	0.043833185
70	0xbd340820	-0.04395306
71	0xbe84e396	-0.25954884
72	0xbe87df0d	-0.26537362
73	0x3d41b527	0.0472919
74	0xbe2e3821	-0.17013599
75	0xbe669469	-0.22517551
76	0xbde3880c	-0.11109933
77	0xbe24191a	-0.160252
78	0x3e5b98a0	0.2144494
79	0x3e8a7210	0.27040148
80	0x3e36e710	0.17861581
81	0xbe0c6e1e	-0.13713881
82	0x3e3cbc37	0.18431173
83	0xbe4f5dd3	-0.20250635
84	0xbcf6402c	-0.030059896
85	0xbe3c77d1	-0.18405081
86	0x3e8341c3	0.2563611
87	0x3e6dc4cf	0.23219608
88	0xbe8da58d	-0.27665368
89	0x3e7a4404	0.24440008
90	0x3d9ed705	0.077558555
91	0xbe24a13c	-0.16077131
92	0x3e603f4f	0.2189915
93	0x3e854287	0.2602732
94	0x3e84df3e	0.2595157
95	0x3ddd6d7a	0.108118966
96	0x3e8b295c	0.27179992
97	0x3e59217a	0.21204177
98	0x3e791912	0.2432597
99	0x3da48216	0.080326244
100	0x3e647d63	0.22313456
101	0x3e5cecd1	0.21574713
102	0x3e59803f	0.21240328
103	0xbddba73b	-0.10725256
104	0x3e039f50	0.12853742
105	0xbe8cc464	-0.27493584
106	0xbd2b14f9	-0.041768048
107	0x3e562ad6	0.20914778
108	0xbe065753	-0.13119249
109	0xbc9521f8	-0.018204674
110	0xbe3d7eaf	-0.18505357
111	0x3e1cc31b	0.15308802
112	0x3e42b79f	0.19015358
113	0x3e91ebee	0.28500313
114	0xbda84245	-0.08215765
115	0x3e5da5fe	0.21645352
116	0xbe83feca	-0.25780326
117	0x3e5d895f	0.21634434
118	0xbe450692	-0.19240788
119	0xbd270da2	-0.040784486
120	0xbdaea592	-0.08527674
121	0xbdaa7d73	-0.08324709
122	0x3e7fe980	0.24991417
123	0x3e895e93	0.26829967
124	0x3e381d2f	0.17979883
125	0x3e90a064	0.28247368
126	0x3e92a346	0.28640193
127	0x3e34a5f3	0.1764143
128	0xbe8ff3c2	-0.2811566
129	0x3d0c2972	0.034219213
130	0x3e8fc889	0.28082684
131	0x3e1be0ea	0.15222517
132	0xbe4839ee	-0.19553348
133	0xbd586d69	-0.052838717
134	0x3e937214	0.28797972
135	0x3d8ed684	0.06974509
136	0x3d982e86	0.07430749
137	0x3db1e459	0.08686132
138	0xbdbd7dd5	-0.09252516
139	0x3e6a8f44	0.22906214
140	0x3e42fdff	0.19042204
141	0x3b89ff36	0.0042113317
142	0xbdb139d4	-0.08653608
143	0xbe51d4ee	-0.20491382
144	0x3e187506	0.14888391
145	0x3e6a10a1	0.22857906
146	0x3ce8d987	0.028424038
147	0xbda89c0c	-0.082328886
148	0x3e2bfbbc	0.16795248
149	0x3d18c77c	0.037299618
150	0x3e8bc768	0.27300572
151	0x3e704540	0.23463917
152	0x3e1e4ac9	0.15458216
153	0x3e1af0c8	0.15130913
154	0xbe794bca	-0.24345317
155	0x3d18e95c	0.037331924

fc.2.weight f4 [4, 156]
0	0x3ca6d16c	0.020363532
1	0xbd908d47	-0.070581965
2	0x3d538248	0.051637918
3	0xbd99d60b	-0.075115286
4	0xbc8054c1	-0.015665414
5	0x3d085c6e	0.033291273
6	0xbc26eb23	-0.010187897
7	0x3da41a07	0.08012777
8	0xbcab2b3e	-0.020894643
9	0x3d435e55	0.047697384
10	0x3d413373	0.047168206
11	0x3d8f090b	0.06984147
12	0xbd471027	-0.04859939
13	0x3cef570b	0.02921631
14	0xbccc1938	-0.024914369
15	0xbd03e813	-0.032203745
16	0x3d88a8e7	0.066728406
17	0x3c1b0e65	0.009463881
18	0x3da169d0	0.0788151
19	0xbd470ca6	-0.048596047
20	0x3c17ff34	0.009277154
21	0xbc2ac9b9	-0.010424071
22	0x3cbae957	0.022816343
23	0xbd0bc703	-0.03412534
24	0xbd98915f	-0.07449602
25	0xbd89ea3a	-0.06734128
26	0x3d4c2686	0.049841426
27	0x3d06021d	0.03271686
28	0x3d04cd7b	0.032422524
29	0xbd5d98ae	-0.054100685
30	0x3d470a88	0.048594028
31	0x3d9e3af9	0.07726092
32	0xbcec3ce0	-0.028837621
33	0x3d9342b7	0.07190459
34	0x3d609f21	0.054839257
35	0xbda279d7	-0.07933395
36	0x3c843b05	0.016141424
37	0x3cbb1cc4	0.022840865
38	0xbc9930ac	-0.018699966
39	0xbd1bafcf	-0.03800946
40	0x3d096d81	0.033551697
41	0x3cc509f1	0.024052592
42	0x3cfce254	0.03086964
43	0x3da23cce	0.07921754
44	0x3ce475d8	0.027888224
45	0x3d2496eb	0.04018299
46	0x3bebe182	0.0071985135
47	0xbc90031b	-0.017579606
48	0x3c87c920	0.016575396
49	0xbd1630ad	-0.036667515
50	0xbd5f4803	-0.054512035
51	0xbda2621c	-0.07928869
52	0xbd88ce1d	-0.06679938
53	0x3c32a3c4	0.010903303
54	0x3d816766	0.0631855
55	0x3d5acf12	0.053420134
56	0x3b110845	0.0022130173
57	0xbd806a06	-0.06270222
58	0xbd9ebfee	-0.077514514
59	0x3d8f02a6	0.06982927
60	0xbc8476a2	-0.01616985
61	0x3d57f188	0.052720577
62	0x3cd742e8	0.02627702
63	0xbce86eac	-0.028373085
64	0x3ba77f6b	0.005111625
65	0x3d2ecb16	0.042674147
66	0xbd05f4d3	-0.032704186
67	0xbc8f043c	-0.017458074
68	0xbd211054	-0.039322212
69	0x3d382716	0.04495915
70	0xbd46d2bc	-0.048540816
71	0xbd8b2122	-0.06793429
72	0xbbd9da19	-0.0066483137
73	0x3c88d362	0.016702358
74	0xbd8276bd	-0.06370304
75	0xbd5b4422	-0.053531773
76	0xbc72163c	-0.014775809
77	0x3c7cc833	0.015428591
78	0x3d85ddc0	0.06536436
79	0xbd9a5f25	-0.07537679
80	0x3d932d8b	0.07186421
81	0x3d6c1084	0.057632938
82	0xbd1ee960	-0.038796782
83	0xbd9e1d09	-0.07720382
84	0x3cdc736b	0.026910504
85	0x3d66553c	0.05623363
86	0x3b276503	0.0025542385
87	0x3b2993a6	0.002587536
88	0x3cf994e2	0.0304665
89	0x3cb8a919	0.02254157
90	0x3d1fafbd	0.038985956
91	0xba560116	-0.0008163614
92	0x3d788877	0.060677018
93	0x3b803fe0	0.0039138645
94	0xbce7ce3c	-0.028296582
95	0xbd9d2ba2	-0.07674338
96	0x3d5f1c69	0.054470453
97	0x3cf2fccb	0.029661557
98	0xbd13469c	-0.03595601
99	0x3d468573	0.04846711
100	0xbd8a47b7	-0.0675196
101	0xbd0fb6ad	-0.035086323
102	0x3bcd544f	0.006266154
103	0xbd9614d8	-0.073281944
104	0x3c5eb63d	0.013593254
105	0x3c44d9b1	0.012014792
106	0x3c8f6fb1	0.017509313
107	0x3bbb22e0	0.0057109445
108	0xbd2b3ac4	-0.04180409
109	0xbd4f8e61	-0.050672892
110	0xbd8cf870	-0.06883323
111	0x3bc1f987	0.0059196386
112	0x3ccbb35a	0.024865795
113	0xbcbb7f3b	-0.022887817
114	0xbd65db66	-0.056117438
115	0xbd9f9eb8	-0.07793945
116	0x3b4802ec	0.003051932
117	0x3d4dbd63	0.05022944
118	0xbd8a748a	-0.06760509
119	0x3d211c31	0.039333526
120	0xbd0b730c	-0.034045264
121	0x3d10f087	0.035385635
122	0x3d52c46e	0.05145686
123	0xbd264995	-0.040597517
124	0xbae198e4	-0.0017211703
125	0xbd96e4e2	-0.07367875
126	0xbc2a6f73	-0.010402548
127	0xbd9cab7e	-0.07649897
128	0x3cdd73c4	0.02703274
129	0xbd8a2c2f	-0.067467086
130	0x3d3bcc2d	0.045849014
131	0xbcd97b5a	-0.026548076
132	0x3d8b8f1c	0.06814405
133	0x3d7c9b6b	0.061671656
134	0x3d9eb317	0.077490024
135	0xbd8a68bf	-0.0675826
136	0x3d9b4bfa	0.07582851
137	0xb930fe16	-0.00016879322
138	0xbce49dc9	-0.02790727
139	0xbd48d893	-0.049034666
140	0x3d85b319	0.06528301
141	0xbcf79155	-0.030220667
142	0x3d9576a4	0.072980195
143	0x3d83e158	0.06439465
144	0xbd360645	-0.044439573
145	0xbd64a514	-0.055821493
146	0xbc9bd3b3	-0.019021844
147	0xbd55f65c	-0.0522369
148	0x3c59e8ad	0.013300103
149	0x3cff43b7	0.031160219
150	0x3cc10fab	0.023567041
151	0xbc976d43	-0.018484717
152	0x3ad8325e	0.0016494503
153	0x3d0ca425	0.034336228
154	0x3bad5a54	0.005290309
155	0x3c9e87cd	0.019351864
156	0xbd9d49ad	-0.07680068
157	0x3d37d16c	0.044877455
158	0x3c92ff48	0.017943993
159	0x3bfa8775	0.0076455423
160	0xbce1afc6	-0.027549636
161	0x3cf436fa	0.029811371
162	0xbce06e92	-0.027396474
163	0x3ae192c4	0.0017209877
164	0xbd9bebd1	-0.07613338
165	0xbc10696a	-0.008814195
166	0xbd06e837	-0.0329363
167	0xbc03bfd2	-0.008041339
168	0x3d50204a	0.050812043
169	0xbd690d10	-0.056897223
170	0x3d1c090f	0.038094576
171	0x3d9ff105	0.07809643
172	0x3ba301cf	0.004974581
173	0xbc065aa8	-0.008200325
174	0xbcf755ec	-0.030192338
175	0x3bface75	0.007654006
176	0x3d37d0d1	0.044876877
177	0x3bd845b4	0.006600106
178	0x3d9588aa	0.07301457
179	0xbcf4e968	-0.029896453
180	0xbd1a0c2a	-0.037609257
181	0xbc86a9c7	-0.016438378
182	0x3d7c4cc1	0.061596636
183	0x3cef3bba	0.029203285
184	0x3d5dbaf7	0.05413338
185	0x3c48bf0e	0.012252582
186	0x3cb44471	0.022005292
187	0x3ce88c2f	0.028387157
188	0x3d03e941	0.03220487
189	0x3a41e815	0.00073969486
190	0xbd4ca893	-0.049965452
191	0x3c7a60f4	0.0152819045
192	0xbda15a3c	-0.07878539
193	0xbd61aec0	-0.055098295
194	0x3b7b877f	0.0038380323
195	0xbb4444db	-0.0029948268
196	0xbd47e75c	-0.048804626
197	0xbcc93188	-0.024559751
198	0xbcd0739b	-0.02544575
199	0xbd39009a	-0.04516659
200	0x3c111059	0.008853995
201	0xbc8cb523	-0.017176216
202	0x3bfe6260	0.007763192
203	0x3c2828be	0.01026362
204	0x3c9e691e	0.019337233
205	0x3b093edd	0.002094201
206	0xbd92b0df	-0.07162642
207	0xbc740545	-0.0148938345
208	0xbd31cb05	-0.043406505
209	0x3da177aa	0.07884152
210	0x3da1d9c2	0.07902862
211	0xbbd4b72c	-0.0064915624
212	0x3d491479	0.04909179
213	0x3d7fbfe5	0.062438864
214	0xbb800fdd	-0.003908141
215	0x3c928e66	0.017890166
216	0x37e884f0	2.7718459e-05
217	0x3d2a2f84	0.04154922
218	0x3c87ca90	0.016576082
219	0x3d863b13	0.06554236
220	0x3d036a22	0.032083638
221	0x3cef4d64	0.029211707
222	0x3ce54ee7	0.027991725
223	0x3d240af3	0.040049504
224	0xbcf4bf0d	-0.029876256
225	0xbd896325	-0.067083634
226	0xbd268c30	-0.040661037
227	0xbd8c3518	-0.06846064
228	0xbcfb0c66	-0.03064556
229	0xbd74822f	-0.059694465
230	0xbd0253c6	-0.031818174
231	0x3d2b4969	0.041818056
232	0xbcdabe5f	-0.026702104
233	0x3d285855	0.041099865
234	0x3ba2ce37	0.0049684304
235	0xbd92c06f	-0.0716561
236	0xbc856989	-0.016285675
237	0x3c42d326	0.011891162
238	0x3c67104c	0.014103007
239	0x3c8eda17	0.017437978
240	0xbd9fadaa	-0.07796796
241	0x3d589827	0.05287948
242	0x3c8bb4f5	0.01705406
243	0xbd2123b8	-0.039340705
244	0xbd8121e1	-0.0630529
245	0xbd96eacf	-0.07369005
246	0xbd4cca87	-0.049997833
247	0xbc88452b	-0.016634544
248	0xbd5fd4fd	-0.05464648
249	0x3d63cc49	0.055614743
250	0x3d25e0c0	0.04049754
251	0xbc90caa1	-0.017674746
252	0xbd65e8aa	-0.05613009
253	0x3d0122d9	0.031527374
254	0xbd65ccb9	-0.056103442
255	0x3d685c6b	0.05672876

fc.2.bias f4 [4]
0	0xbc1ed04f	-0.009693219
1	0xbc9b1fb8	-0.018936023
2	0x3d69b4b2	0.05705709
3	0x3d54a1d0	0.05191213
