Models/score_59_model_460318.pt (torch, 12127 bytes, 4 tensors)

fc.0.weight f4 [156, 12]
0	0xbc6b431c	-0.014359262
1	0xbc67e078	-0.014152639
2	0x3e77c307	0.24195491
3	0x3dc06c47	0.09395652
4	0x3e117a86	0.14206895
5	0xbe495ca6	-0.19664249
6	0x3cc081b1	0.023499342
7	0x3e669150	0.2251637
8	0xbcdd4b97	-0.027013583
9	0xbd0a32db	-0.033739906
10	0xbd9741eb	-0.0738562
11	0x3e676303	0.22596364
12	0xbe32c3f0	-0.17457557
13	0x3b5c13cf	0.0033581143
14	0xbe748f17	-0.2388271
15	0x3e75ab9c	0.23991245
16	0xbe8a645d	-0.27029696
17	0xbdf6c038	-0.120483816
18	0xbe80d348	-0.25161195
19	0xbe839dfe	-0.25706476
20	0xbe7f9915	-0.2496074
21	0x3d4de874	0.050270513
22	0x3c2f94be	0.010716615
23	0xbe440f7b	-0.1914653
24	0xbe738ba9	-0.23783745
25	0x3e6f0e0b	0.233452
26	0xbbf379cd	-0.0074302913
27	0x3e4e5082	0.20147899
28	0x3a4f6884	0.00079119974
29	0xbe6c5994	-0.23081046
30	0x3e019150	0.12653089
31	0x3e42bff9	0.19018544
32	0xbbebce53	-0.0071962266
33	0xbcea1ddd	-0.028578693
34	0xbe88f6fe	-0.2675094
35	0x3d001940	0.03127408
36	0xbdc6ecc8	-0.09713131
37	0x3e1f5155	0.1555837
38	0xbe8dc463	-0.27688894
39	0xbe0d31c8	-0.13788521
40	0x3e38ab36	0.18034062
41	0x3e851014	0.2598883
42	0xbe445908	-0.19174588
43	0x3dcba37d	0.09943292
44	0x3d8431e7	0.064548306
45	0x3e89f246	0.26942652
46	0xbe56b7b5	-0.20968516
47	0xbe72067c	-0.23635286
48	0x3e337a2e	0.17527077
49	0xbe7e1d06	-0.24815759
50	0xbd854ceb	-0.065088116
51	0x3dc2b542	0.095072284
52	0xbb324f2f	-0.0027207842
53	0xbe8f53ed	-0.27993718
54	0xbca69624	-0.020335265
55	0x3d71c585	0.05902626
56	0x3e09648d	0.13417263
57	0xbd7d7e6a	-0.061888136
58	0x3e387826	0.18014583
59	0xbcc3db87	-0.02390839
60	0x3e7f7814	0.2494815
61	0x3e63bb78	0.22239482
62	0xbe2ed2b0	-0.17072558
63	0xbe51cc7a	-0.20488158
64	0x3e083844	0.13302714
65	0xbcc484eb	-0.023989161
66	0x3dcb3f58	0.09924191
67	0x3e2f519e	0.17120978
68	0xbe423370	-0.18964934
69	0xbe849cd3	-0.25900897
70	0xbda80ae4	-0.08205202
71	0x3da74bec	0.08168778
72	0x3e89154a	0.26774055
73	0x3c4fd6bc	0.012685474
74	0x3dfe3f9f	0.124144785
75	0x3cba8a6c	0.022771083
76	0x3d09dff7	0.033660855
77	0xbe8e957e	-0.27848428
78	0x3e6a856e	0.22902462
79	0xbe5bca71	-0.21463944
80	0xbe6d5c3c	-0.23179716
81	0x3db39fc0	0.08770704
82	0xbd8e6cfa	-0.069543794
83	0x3cac229a	0.021012593
84	0x3e6ea3d1	0.23304678
85	0x3e1b777c	0.15182298
86	0x3e8136c2	0.2523709
87	0x3e2b539e	0.16731116
88	0xbe157cbe	-0.14598367
89	0x3bb9b362	0.005667136
90	0xbdd1fbaf	-0.10253083
91	0x3d0ef50a	0.034901656
92	0x3e379f5f	0.17931889
93	0x3e806e4c	0.2508415
94	0xbd23726a	-0.039904036
95	0xbd823e22	-0.06359507
96	0x3e7745bb	0.24147694
97	0x3e87cb03	0.26522073
98	0x3e7d3eef	0.24731039
99	0xbd833117	-0.064058475
100	0xbe8613c0	-0.26186943
101	0x3cf31b7c	0.029676192
102	0xbd5af880	-0.053459644
103	0x3e7cfe15	0.247063
104	0x3e5731be	0.21015069
105	0x3e07f96b	0.13278739
106	0x3c8e6989	0.017384307
107	0xbe86416f	-0.26221797
108	0x3b876ded	0.004132977
109	0x3db52a27	0.088459305
110	0x3d007df9	0.031370137
111	0x3d834eff	0.06411552
112	0x3dc4292d	0.09578166
113	0x3df0de79	0.11761183
114	0x3e4ea895	0.20181496
115	0x3d702901	0.058632854
116	0xbe34bf93	-0.17651205
117	0x3e2d7553	0.16939287
118	0xbc6e7192	-0.014553444
119	0xbe349d06	-0.17638025
120	0xbcc4940e	-0.02399638
121	0x3e58c4d2	0.21168831
122	0x3dfb816b	0.12280544
123	0x3e7ccfbb	0.24688618
124	0xbd72ec1a	-0.059307195
125	0x3e8ae7b2	0.27129894
126	0xbe40b5a4	-0.1881929
127	0x3e109b73	0.14121799
128	0xbe2ba814	-0.16763335
129	0x3e8e33ad	0.277738
130	0x3d411c58	0.04714617
131	0x3e1ec81d	0.15506025
132	0xbdf7a31e	-0.12091659
133	0x3cc02547	0.023455275
134	0x3e46716e	0.19379207
135	0x3b77a618	0.0037788209
136	0xbd3ace18	-0.045606703
137	0x3a94fc24	0.0011366648
138	0xbdd20d55	-0.10256449
139	0x3d0901ce	0.033448987
140	0xbcfdb6e6	-0.030971002
141	0x3de20cbc	0.11037585
142	0x3db05e4c	0.08611736
143	0x3e61b1b3	0.22040443
144	0x3e06b5b7	0.13155256
145	0x3af2c51e	0.001852188
146	0xbe948302	-0.290062
147	0x3e5e8b21	0.21732761
148	0x3cb6d416	0.022317927
149	0x3dba1df2	0.09087743
150	0x3e1aac28	0.15104735
151	0xbe87cd3c	-0.2652377
152	0x3e45e14d	0.19324227
153	0xbc92d91c	-0.017925791
154	0xbe52876e	-0.20559475
155	0xbe362bb4	-0.17790109
156	0x3d8f6570	0.070017695
157	0x3e8f0ebf	0.27940938
158	0x3e1cf3f4	0.15327436
159	0x3d7e4926	0.06208148
160	0x3dbf5372	0.09342088
161	0xbce8ce8a	-0.028418798
162	0xbe0deec4	-0.13860613
163	0xbdc7984e	-0.09745847
164	0xbe71f53f	-0.2362871
165	0xbdddfc62	-0.10839154
166	0x3e09acb7	0.13444792
167	0xbe509d16	-0.20372424
168	0x3e280cd8	0.1641115
169	0x3e0cd4e7	0.13753091
170	0x3df4de11	0.11956418
171	0x3cf2cbd4	0.029638208
172	0x3e341512	0.17586163
173	0x3e49b74d	0.1969883
174	0xbe85ad93	-0.2610899
175	0x3e1e6c0f	0.15470909
176	0xbd7e3c47	-0.062069204
177	0x3e035129	0.12823929
178	0x3e0d78bc	0.13815588
179	0xbe132a0a	-0.14371505
180	0xbd07e98d	-0.033181716
181	0xbd538762	-0.051642783
182	0x3dc626ef	0.09675395
183	0xbde5df13	-0.11224189
184	0x3db657d0	0.08903468
185	0x3e862edb	0.26207623
186	0xbe80ed48	-0.2518103
187	0x3d5edfa9	0.054412518
188	0xbe81fd37	-0.253885
189	0x3cb2b0e1	0.021812858
190	0x3e6852ce	0.22687837
191	0x3e7dab4d	0.24772377
192	0xbe1b7ac6	-0.15183553
193	0xbe0b292b	-0.13589923
194	0xbc027bbe	-0.007964073
195	0xbe1d7682	-0.15377238
196	0xbe4450a8	-0.19171393
197	0x3e8d339c	0.27578437
198	0x3e8cafff	0.27478024
199	0x3e08fcfc	0.13377756
200	0x3dd519f9	0.104053445
201	0xbd17423a	-0.036928393
202	0xbe7fa20e	-0.24964163
203	0x3d05e158	0.032685608
204	0x3e680590	0.22658372
205	0xbe8e3f3b	-0.27782616
206	0x3e1127e3	0.14175372
207	0x3de4da0a	0.111744
208	0x3e3fc411	0.18727137
209	0xbd1b3d25	-0.03790011
210	0x3e388679	0.18020047
211	0x3cdfcd6f	0.027319638
212	0x3e857f24	0.26073563
213	0xbbd4360f	-0.006476171
214	0x3e8e5c29	0.27804688
215	0x3e44cd89	0.1921903
216	0xbc8d54e9	-0.017252402
217	0xbe32a327	-0.1744505
218	0x3d325784	0.043540493
219	0x3cde69f0	0.027150124
220	0x3e3ac32e	0.18238518
221	0xbc728ae3	-0.014803621
222	0x3e366a86	0.17814073
223	0xbe01694e	-0.12637827
224	0xbdd55792	-0.10417093
225	0xbe5be575	-0.2147425
226	0x3e0d7c95	0.13817056
227	0x3db2141d	0.086952426
228	0x3e48123d	0.19538207
229	0x3e3b0159	0.18262233
230	0xbd5a92c4	-0.053362623
231	0x3c0433f3	0.008069026
232	0xbde54bd4	-0.11196104
233	0x3db8b990	0.09019768
234	0x3c230569	0.00995002
235	0xbe600e23	-0.21880393
236	0x3e751100	0.23932266
237	0x3b93bc21	0.0045085107
238	0x3e56d71b	0.20980494
239	0x3dc8962f	0.0979427
240	0xbe916669	-0.28398445
241	0x3e035b48	0.1282779
242	0x3e886561	0.26639846
243	0xbc4fd794	-0.012685675
244	0x3d9070bf	0.070527546
245	0xbe85bd2c	-0.2612089
246	0xbe86dc8d	-0.26340142
247	0x3c4f8e61	0.012668223
248	0x3df366b2	0.11884822
249	0x3df5d8d1	0.12004245
250	0xbd4f581b	-0.050621133
251	0xbd25ea0c	-0.040506408
252	0x3e52ac8b	0.20573632
253	0x3e3237b7	0.17404066
254	0x3dbc0b72	0.091818705
255	0xbe849687	-0.25896093

fc.0.bias f4 [156]
0	0xbbbd6d98	-0.005780887
1	0xbe0335ed	-0.1281354
2	0xbe6cd242	-0.23127082
3	0x3e48ff78	0.19628704
4	0x3e5abd5b	0.21361296
5	0x3e771dd4	0.24132472
6	0xbe7f6554	-0.24940997
7	0x3e865d65	0.2624313
8	0x3e538112	0.20654705
9	0x3e86af62	0.2630568
10	0xbe903fd3	-0.28173694
11	0xbe08b489	-0.13350119
12	0x3d1486bc	0.036261305
13	0xbd820172	-0.06347932
14	0xbd93d786	-0.07218842
15	0xbe81db36	-0.25362557
16	0x3c0211ea	0.007938841
17	0x3e22f7d7	0.15914856
18	0x3d6ae155	0.0573438
19	0xbbff4244	-0.007789882
20	0x3ccd5588	0.025065199
21	0x3e8c5525	0.2740871
22	0x3d988ea5	0.07449082
23	0x3ce5083b	0.027958026
24	0x3dbad2e6	0.09122257
25	0x3dc39fb8	0.09551948
26	0x3de3b3ac	0.11118254
27	0xbe89b0d6	-0.26892728
28	0xbcb03d7a	-0.02151369
29	0x3e4d2189	0.20032324
30	0xbe097a6e	-0.1342561
31	0x3d1c1436	0.038105212
32	0x3e64fdb8	0.22362411
33	0xbb73c051	-0.0037193487
34	0xbbad0a95	-0.0052808025
35	0xbc9f9028	-0.019477919
36	0xbe3b0699	-0.18264236
37	0xbdf76531	-0.120798476
38	0xbdd6aa10	-0.104816556
39	0xbc7dbb13	-0.0154864965
40	0x3d73a5e0	0.059484363
41	0x3d2d21a3	0.042268407
42	0x3d38db82	0.045131214
43	0x3e8d01a8	0.27540326
44	0x3e65e250	0.22449613
45	0xbe4a2a64	-0.19742733
46	0x3d3912aa	0.045183815
47	0x3d6ef266	0.058336638
48	0x3e48682b	0.19570987
49	0xbc7a67d0	-0.01528354
50	0x3e1a3c7f	0.1506214
51	0x3c7bf737	0.015378765
52	0xbe65c997	-0.22440182
53	0xbcb57fde	-0.022155698
54	0x3e7434d2	0.23848274
55	0xbe825688	-0.25456643
56	0x3dc0aa31	0.094074614
57	0xbe8acb4c	-0.27108228
58	0xbc3eb9be	-0.011640964
59	0xbd8fa0f3	-0.070131205
60	0xb9ab357b	-0.00032655508
61	0x3e8c8127	0.27442285
62	0x3d8fa0a6	0.07013063
63	0xbe6020fd	-0.21887584
64	0xbbc1b87c	-0.005911885
65	0xbe33319f	-0.17499398
66	0xbde64c99	-0.112450786
67	0x3e656ce3	0.22404818
68	0x3cc3a8be	0.023884173
69	0x3d31a769	0.043372545
70	0xbd324cec	-0.04353039
71	0xbe847fb2	-0.25878674
72	0xbe889dd0	-0.266829
73	0x3d406144	0.04696776
74	0xbe2e0e3f	-0.16997622
75	0xbe660e0c	-0.22466296
76	0xbde247d8	-0.11048859
77	0xbe259a25	-0.16172083
78	0x3e5b8f3a	0.21441355
79	0x3e8ac1bd	0.27100936
80	0x3e36c31d	0.17847867
81	0xbe0b3b9a	-0.13596955
82	0x3e3cc310	0.18433785
83	0xbe4f7549	-0.20259584
84	0xbcf32c78	-0.02968429
85	0xbe3d6255	-0.18494542
86	0x3e835c54	0.25656378
87	0x3e6dda6c	0.23227853
88	0xbe8e1e03	-0.27757272
89	0x3e788d52	0.2427266
90	0x3d9c244e	0.07624112
91	0xbe25857b	-0.161642
92	0x3e5fd979	0.21860303
93	0x3e85b400	0.26113892
94	0x3e84519c	0.25843513
95	0x3ddc7f49	0.10766465
96	0x3e8b217d	0.27173987
97	0x3e5993d0	0.21247792
98	0x3e786259	0.24256267
99	0x3da4d0ff	0.08047675
100	0x3e64b784	0.2233563
101	0x3e5cca5d	0.2156157
102	0x3e5866c7	0.21132956
103	0xbddd1945	-0.107958354
104	0x3e03190e	0.12802526
105	0xbe8ce744	-0.27520192
106	0xbd28e2f2	-0.041232057
107	0x3e56465f	0.20925282
108	0xbe06ff2e	-0.13183281
109	0xbc993ac2	-0.018704776
110	0xbe3ddfc6	-0.18542394
111	0x3e1cbb41	0.15305807
112	0x3e4380a9	0.19092049
113	0x3e9255b2	0.28581005
114	0xbda905e9	-0.082530804
115	0x3e5e2343	0.21693139
116	0xbe846c60	-0.25863934
117	0x3e5cc3ab	0.21559016
118	0xbe4419ea	-0.1915051
119	0xbd236c4c	-0.0398982
120	0xbda8ff04	-0.08251765
121	0xbda83245	-0.08212713
122	0x3e7ff44a	0.24995533
123	0x3e89491a	0.26813585
124	0x3e3968a6	0.18106326
125	0x3e90c704	0.28276837
126	0x3e927601	0.28605655
127	0x3e34ef5d	0.17669435
128	0xbe9006dd	-0.28130236
129	0x3d0ed6a5	0.03487267
130	0x3e8feec9	0.28111866
131	0x3e1b8abd	0.15189643
132	0xbe47a997	-0.19498287
133	0xbd574db5	-0.05256434
134	0x3e938b86	0.28817385
135	0x3d8c8f7e	0.068633065
136	0x3d998372	0.07495774
137	0x3db08dd2	0.086208
138	0xbdbdccae	-0.09267555
139	0x3e6a667c	0.22890657
140	0x3e42bbf1	0.19017006
141	0x3b931bc8	0.004489396
142	0xbdb2f317	-0.08737772
143	0xbe50fa16	-0.204079
144	0x3e1836b2	0.14864615
145	0x3e6a7f2a	0.22900072
146	0x3cea0a0a	0.02856924
147	0xbda85e87	-0.08221155
148	0x3e2b4ad1	0.16727759
149	0x3d192bbe	0.03739523
150	0x3e8c26ab	0.2737325
151	0x3e6f6918	0.23379934
152	0x3e1d2cf5	0.15349181
153	0x3e1c2c6c	0.1525132
154	0xbe798eb7	-0.24370848
155	0x3d124f8a	0.035720386

fc.2.weight f4 [4, 156]
0	0x3ca2ac12	0.01985744
1	0xbd90adea	-0.070644215
2	0x3d4f97cd	0.050681878
3	0xbd9bbef5	-0.076047815
4	0xbc841dfc	-0.016127579
5	0x3d0be95c	0.034158096
6	0xbc1e93b8	-0.009678774
7	0x3da6095d	0.08107255
8	0xbca34df9	-0.019934641
9	0x3d415f55	0.047210056
10	0x3d43f265	0.047838587
11	0x3d8a13d1	0.06742061
12	0xbd4a44cc	-0.049382016
13	0x3ce900cc	0.028442763
14	0xbccf27f3	-0.025287604
15	0xbcfc02d5	-0.03076307
16	0x3d8ae200	0.06781387
17	0x3c0d7ec3	0.008636179
18	0x3da150e4	0.07876757
19	0xbd43d1ab	-0.047807377
20	0x3c26c6bf	0.010179221
21	0xbc2b34c1	-0.010449589
22	0x3cc40bb6	0.023931365
23	0xbd0be777	-0.03415629
24	0xbd96d357	-0.073645286
25	0xbd89761a	-0.06711979
26	0x3d4a5dbf	0.04940581
27	0x3d034f1a	0.03205786
28	0x3d01d8af	0.031700786
29	0xbd5ee0b8	-0.054413527
30	0x3d4a1da8	0.04934469
31	0x3d9ff456	0.07810275
32	0xbcf8d0e6	-0.030373048
33	0x3d928d99	0.07155914
34	0x3d64e1f6	0.055879556
35	0xbda57696	-0.08079259
36	0x3c8265f3	0.015917754
37	0x3cba3802	0.022731785
38	0xbc90b1ed	-0.017662967
39	0xbd1ca0ab	-0.038239162
40	0x3d085e35	0.033292968
41	0x3cb7961a	0.022410441
42	0x3cf0c86a	0.02939244
43	0x3da4c682	0.08045675
44	0x3cd73b9d	0.026273543
45	0x3d24e166	0.04025402
46	0x3c00ea78	0.007868402
47	0xbc95268b	-0.018206855
48	0x3c8e18c2	0.01734579
49	0xbd13fc87	-0.0361295
50	0xbd60a187	-0.054841544
51	0xbda231c2	-0.07919647
52	0xbd85e11e	-0.06537078
53	0x3c22c7d6	0.00993534
54	0x3d827d51	0.063715585
55	0x3d5e82e7	0.054324057
56	0x3aec6547	0.0018035554
57	0xbd8007bb	-0.062514745
58	0xbd9a9677	-0.0754823
59	0x3d8c70f0	0.068574786
60	0xbc814929	-0.015781956
61	0x3d549838	0.05190298
62	0x3cd46e92	0.02593163
63	0xbcf44ed5	-0.029822746
64	0x3ba4d719	0.0050305245
65	0x3d341102	0.043961532
66	0xbd071121	-0.03297532
67	0xbc95115d	-0.018196756
68	0xbd248b65	-0.040172
69	0x3d327203	0.04356576
70	0xbd45d36c	-0.04829733
71	0xbd8947e1	-0.06703163
72	0xbbccabd0	-0.0062460676
73	0x3c87ef7c	0.016593687
74	0xbd8150bf	-0.06314229
75	0xbd62c9a0	-0.055368066
76	0xbc69bc99	-0.014266157
77	0x3c731067	0.014835454
78	0x3d880346	0.06641249
79	0xbd9b1f5b	-0.0757434
80	0x3d90d95c	0.07072708
81	0x3d6b54c5	0.05745389
82	0xbd1dd6d1	-0.038534943
83	0xbd9bc82e	-0.076065406
84	0x3cd7a6c5	0.02632464
85	0x3d649e5e	0.055815093
86	0x3b152712	0.0022758883
87	0x3b82d526	0.0039926944
88	0x3cf6dbf8	0.030134186
89	0x3cb2dab7	0.021832807
90	0x3d1ede45	0.03878619
91	0xbace7912	-0.0015752634
92	0x3d777661	0.06041563
93	0x3ae12d42	0.0017179626
94	0xbce6f4f1	-0.028192969
95	0xbd9cc34d	-0.07654438
96	0x3d62f55c	0.055409774
97	0x3cee6ad1	0.029103668
98	0xbd0cd560	-0.034383178
99	0x3d414712	0.04718692
100	0xbd8a2c4c	-0.0674673
101	0xbd0bb94a	-0.034112252
102	0x3bbb544f	0.0057168375
103	0xbd93b4b3	-0.072122
104	0x3c5a2d55	0.013316472
105	0x3c5360fa	0.012901539
106	0x3c8e6c30	0.017385572
107	0x3bc6cb34	0.006066704
108	0xbd31cb9d	-0.04340707
109	0xbd55ed38	-0.052228183
110	0xbd8c94bf	-0.068643086
111	0x3be5e837	0.0070162076
112	0x3cceff8c	0.025268339
113	0xbcb082b7	-0.021546705
114	0xbd675e76	-0.05648657
115	0xbda16cdd	-0.07882092
116	0x3b5c362b	0.0033601623
117	0x3d491a4b	0.04909734
118	0xbd8c2e8f	-0.06844818
119	0x3d21963f	0.039449926
120	0xbd0ab586	-0.03386452
121	0x3d0d0224	0.03442587
122	0x3d533ef8	0.051573724
123	0xbd232aae	-0.039835624
124	0xbaad427d	-0.0013218668
125	0xbd96e846	-0.073685214
126	0xbc30dedf	-0.010795324
127	0xbd9c4b9c	-0.07631609
128	0x3cd84fb5	0.026405195
129	0xbd892573	-0.06696596
130	0x3d3bb4a2	0.04582656
131	0xbcd89a02	-0.026440624
132	0x3d8bdaf1	0.06828869
133	0x3d7e4aab	0.062082928
134	0x3da282bf	0.07935094
135	0xbd8b6141	-0.06805659
136	0x3d9c9541	0.076456554
137	0xbb4aedc2	-0.0030964469
138	0xbce5c24a	-0.028046746
139	0xbd4c5f68	-0.049895674
140	0x3d8716f1	0.065961726
141	0xbcf95bf5	-0.030439356
142	0x3d921466	0.07132797
143	0x3d82d413	0.06388106
144	0xbd36ac6d	-0.04459803
145	0xbd66acb9	-0.056317065
146	0xbca1a3f6	-0.019731503
147	0xbd50fc69	-0.051021967
148	0x3c5670ce	0.013088418
149	0x3cf8a59f	0.030352412
150	0x3cc4d47c	0.024027102
151	0xbc9b371a	-0.018947173
152	0x3ac95109	0.0015359233
153	0x3d0986a7	0.03357568
154	0x3b9b2e95	0.0047357776
155	0x3c9a5102	0.018837456
156	0xbd9ce384	-0.07660583
157	0x3d33c4c2	0.043888815
158	0x3c8756c9	0.016520875
159	0x3bfa0a58	0.0076306276
160	0xbcd5d5df	-0.026102958
161	0x3cf4e0d6	0.029892366
162	0xbcdc4965	-0.026890466
163	0x3af7827a	0.001888349
164	0xbd999660	-0.07499385
165	0xbc14cb53	-0.009081679
166	0xbd0316a8	-0.03200403
167	0xbc0d52ea	-0.008625725
168	0x3d53936d	0.051654268
169	0xbd6bd37a	-0.057574727
170	0x3d194c72	0.03742642
171	0x3da12789	0.07868869
172	0x3b959f68	0.004566122
173	0xbbfe7364	-0.0077652205
174	0xbcf865d0	-0.030321985
175	0x3bcecedf	0.006311282
176	0x3d3a9555	0.04555257
177	0x3bdb6bbc	0.0066961925
178	0x3d948669	0.07252199
179	0xbcf579c1	-0.029965283
180	0xbd17c977	-0.037057366
181	0xbc800cd6	-0.01563112
182	0x3d7b60b9	0.06137154
183	0x3cf1264b	0.029437205
184	0x3d60920b	0.054826777
185	0x3c55a332	0.013039397
186	0x3cb690e2	0.022285882
187	0x3cf41d31	0.029799076
188	0x3d059df9	0.032621358
189	0x3a2ed905	0.00066699117
190	0xbd51c99b	-0.051217657
191	0x3c83efea	0.01610561
192	0xbda32e01	-0.07967759
193	0xbd63c214	-0.05560501
194	0x3b288341	0.0025713
195	0xbb932b81	-0.00449127
196	0xbd43d03b	-0.047806006
197	0xbccd97dc	-0.025096826
198	0xbcce4da5	-0.025183508
199	0xbd3a3eb3	-0.04546995
200	0x3c0dc72b	0.008653442
201	0xbc8bafb4	-0.017051555
202	0x3bf53aa0	0.0074837953
203	0x3c20db4d	0.00981791
204	0x3c968a7c	0.018376581
205	0x3b1f297e	0.0024286206
206	0xbd901dca	-0.07036932
207	0xbc8398e4	-0.016064115
208	0xbd33d3e4	-0.043903247
209	0x3d9e8997	0.07741087
210	0x3da1025f	0.078617804
211	0xbbc63170	-0.006048374
212	0x3d4a4848	0.04938534
213	0x3d804389	0.06262881
214	0xbb32b434	-0.0027268054
215	0x3c8d8efc	0.017280094
216	0xba39facc	-0.00070945616
217	0x3d27dd50	0.040982544
218	0x3c7f9289	0.015598902
219	0x3d87b360	0.0662601
220	0x3d058343	0.032595884
221	0x3ced1f00	0.028945446
222	0x3ce3390c	0.027737163
223	0x3d268dde	0.04066264
224	0xbcfc8c36	-0.030828577
225	0xbd87c962	-0.066302076
226	0xbd28c4d6	-0.041203342
227	0xbd8cb010	-0.06869519
228	0xbd024de7	-0.031812575
229	0xbd75612b	-0.05990712
230	0xbd069325	-0.03285517
231	0x3d276d40	0.040875673
232	0xbce448a9	-0.027866678
233	0x3d2b3ac2	0.041804083
234	0x3bab1296	0.0052207215
235	0xbd92f66b	-0.07175907
236	0xbc754433	-0.014969873
237	0x3c47d12b	0.012195866
238	0x3c6c7f6e	0.0144346785
239	0x3c88de2c	0.016707502
240	0xbda12121	-0.07867647
241	0x3d578e91	0.052626196
242	0x3c93a3af	0.018022386
243	0xbd1e947d	-0.03871583
244	0xbd8171ae	-0.06320511
245	0xbd97c307	-0.074102454
246	0xbd4d7810	-0.05016333
247	0xbc8d6490	-0.017259866
248	0xbd6461a2	-0.055757172
249	0x3d5b5b05	0.0535536
250	0x3d2a6675	0.041601617
251	0xbc9e11ee	-0.019295659
252	0xbd63de82	-0.05563212
253	0x3d051bec	0.03249733
254	0xbd65fb47	-0.05614784
255	0x3d64f480	0.055897236

fc.2.bias f4 [4]
0	0xbc0fcbc5	-0.00877661
1	0xbc998e4b	-0.018744608
2	0x3d6beb62	0.057597525
3	0x3d581f21	0.05276406
