Models/score_55_model_seed_4374.pt (torch, 12127 bytes, 4 tensors)

fc.0.weight f4 [156, 12]
0	0xbc63fb93	-0.01391496
1	0xbc6cb149	-0.014446565
2	0x3e76f987	0.24118625
3	0x3dc2782b	0.094955765
4	0x3e10d387	0.14143191
5	0xbe4a1c0c	-0.19737262
6	0x3cbda94c	0.023152016
7	0x3e6703bf	0.22560023
8	0xbcd030cc	-0.025413893
9	0xbd0fd357	-0.03511366
10	0xbd972ae1	-0.073812254
11	0x3e6819d2	0.226661
12	0xbe32938b	-0.17439096
13	0x3b5727cf	0.0032830124
14	0xbe742b0a	-0.23844543
15	0x3e75509b	0.2395653
16	0xbe8aaeef	-0.2708659
17	0xbdf4a10b	-0.11944779
18	0xbe810d40	-0.2520542
19	0xbe8340e3	-0.25635442
20	0xbe7ecdd4	-0.24883205
21	0x3d49f511	0.04930598
22	0x3c3bf386	0.011471635
23	0xbe435164	-0.19074017
24	0xbe73baaa	-0.23801675
25	0x3e702af7	0.2345389
26	0xbc02526d	-0.007954222
27	0x3e4ee379	0.20203961
28	0xb9da5fc4	-0.0004165155
29	0xbe6d07a3	-0.23147444
30	0x3e029a4c	0.12754172
31	0x3e43ce5a	0.19121686
32	0xbbf8cb74	-0.007592613
33	0xbcf4928c	-0.029855035
34	0xbe898df0	-0.26866102
35	0x3d01efbf	0.03172278
36	0xbdc53308	-0.09628874
37	0x3e1f7be9	0.15574612
38	0xbe8e664e	-0.27812427
39	0xbe0dcecc	-0.13848418
40	0x3e371440	0.17878819
41	0x3e84a950	0.25910425
42	0xbe441b1c	-0.19150966
43	0x3dc9c125	0.098512925
44	0x3d8214e0	0.06351638
45	0x3e89899f	0.2686281
46	0xbe575639	-0.21028985
47	0xbe732d77	-0.23747812
48	0x3e33b995	0.17551263
49	0xbe7f6d4d	-0.24944039
50	0xbd852f0d	-0.06503115
51	0x3dc16601	0.09443284
52	0xbb40ee70	-0.0029438995
53	0xbe8f481d	-0.27984706
54	0xbc989bab	-0.018628916
55	0x3d6dcc05	0.058055896
56	0x3e093f74	0.13403112
57	0xbd80ca2a	-0.0628856
58	0x3e385abe	0.18003365
59	0xbcc90621	-0.024539055
60	0x3e7f3b2c	0.24924916
61	0x3e63509c	0.22198719
62	0xbe2da67d	-0.16958041
63	0xbe50c242	-0.20386603
64	0x3e08a4cb	0.13344114
65	0xbcd05598	-0.02543144
66	0x3dcb528b	0.09927853
67	0x3e2e987d	0.17050357
68	0xbe42b5ed	-0.19014712
69	0xbe84b788	-0.25921273
70	0xbda7df8e	-0.081969365
71	0x3da6a79d	0.081374384
72	0x3e895abd	0.2682704
73	0x3c3fca45	0.01170594
74	0x3dfecf71	0.1244191
75	0x3cb8c511	0.022554906
76	0x3d088bae	0.033336334
77	0xbe8e410e	-0.27784008
78	0x3e6af8e4	0.22946507
79	0xbe5ca357	-0.21546684
80	0xbe6d59d4	-0.23178798
81	0x3db403e3	0.08789804
82	0xbd90d66b	-0.07072147
83	0x3cb6339d	0.022241408
84	0x3e6f224d	0.23352928
85	0x3e1bd38c	0.15217417
86	0x3e810c41	0.2520466
87	0x3e2b4d34	0.1672867
88	0xbe151122	-0.14557317
89	0x3bc17d5e	0.0059048375
90	0xbdd0f3dc	-0.102027625
91	0x3d07fe9b	0.033201795
92	0x3e37ea59	0.1796049
93	0x3e801d86	0.25022525
94	0xbd22a149	-0.039704595
95	0xbd7dfe3a	-0.062010027
96	0x3e772ae7	0.2413746
97	0x3e873a18	0.2641151
98	0x3e7d1082	0.24713328
99	0xbd840e4a	-0.06448038
100	0xbe860641	-0.26176646
101	0x3cef9ad7	0.029248638
102	0xbd54f22e	-0.051988773
103	0x3e7e0659	0.24807109
104	0x3e56e89e	0.20987174
105	0x3e0816dd	0.13289972
106	0x3c8c373c	0.017116182
107	0xbe863700	-0.26213837
108	0x3b6cf7c8	0.0036158431
109	0x3db7265b	0.089428626
110	0x3cfd5072	0.030922148
111	0x3d81b8b1	0.06334055
112	0x3dc67dc1	0.096919544
113	0x3df14323	0.117803834
114	0x3e4d8303	0.20069508
115	0x3d6ee6e1	0.058325652
116	0xbe33e2ca	-0.17566982
117	0x3e2e774d	0.17037697
118	0xbc6e9a15	-0.014563103
119	0xbe348b7e	-0.17631337
120	0xbcca4b24	-0.024694033
121	0x3e59c8d4	0.21268016
122	0x3df9bc81	0.121941574
123	0x3e7df097	0.24798809
124	0xbd764970	-0.06012863
125	0x3e8b0b2d	0.27156964
126	0xbe41c0ea	-0.18921247
127	0x3e1034d3	0.14082651
128	0xbe2cb1f0	-0.16864753
129	0x3e8d5bac	0.27609003
130	0x3d41c07b	0.047302704
131	0x3e1e0a06	0.15433511
132	0xbdf897ff	-0.12138366
133	0x3cbd1683	0.023082023
134	0x3e4649df	0.19364117
135	0x3b8e3b07	0.0043405327
136	0xbd3b4367	-0.045718577
137	0x3ab8516b	0.001406235
138	0xbdd2cf94	-0.10293499
139	0x3d050d6c	0.032483503
140	0xbd01aa59	-0.031656597
141	0x3de0def0	0.10980022
142	0x3dae23ac	0.085028976
143	0x3e620fab	0.2207629
144	0x3e061e01	0.13097383
145	0x3a70806a	0.00091744086
146	0xbe940971	-0.28913453
147	0x3e5ef75b	0.21774046
148	0x3cb33265	0.021874616
149	0x3db7f1ef	0.08981692
150	0x3e1bcfed	0.15216036
151	0xbe87236a	-0.26394206
152	0x3e45d8dd	0.19321008
153	0xbc8db62f	-0.017298786
154	0xbe51bdbf	-0.20482539
155	0xbe37c582	-0.17946437
156	0x3d9135bb	0.070903264
157	0x3e8eef8f	0.27917144
158	0x3e1c8dca	0.15288463
159	0x3d7ea8e1	0.062172774
160	0x3dbf2d6d	0.09334836
161	0xbcecb624	-0.028895445
162	0xbe0ebb6f	-0.13938688
163	0xbdc88192	-0.097903386
164	0xbe720bcb	-0.23637311
165	0xbdde7985	-0.10863022
166	0x3e0a5d2f	0.13512109
167	0xbe50644d	-0.20350762
168	0x3e26b946	0.16281614
169	0x3e0eaa5b	0.13932173
170	0x3df3faa1	0.11913038
171	0x3cf67ebf	0.030089734
172	0x3e3366ae	0.17519638
173	0x3e49ccb1	0.1970699
174	0xbe85f13c	-0.2616061
175	0x3e1ddb1c	0.15415615
176	0xbd7f5992	-0.06234128
177	0x3e030870	0.12796187
178	0x3e0e5ff4	0.1390379
179	0xbe14932f	-0.14509271
180	0xbd0822f8	-0.033236474
181	0xbd53a2bf	-0.05166888
182	0x3dc7e7a6	0.0976098
183	0xbde52256	-0.1118819
184	0x3db61de3	0.08892419
185	0x3e85b6aa	0.26115924
186	0xbe816121	-0.25269416
187	0x3d5c4bc1	0.053783182
188	0xbe827b37	-0.2548463
189	0x3cb343ed	0.021882975
190	0x3e685117	0.22687183
191	0x3e7d942c	0.24763554
192	0xbe1c41c7	-0.15259467
193	0xbe0c7291	-0.13715579
194	0xbc0f7886	-0.008756762
195	0xbe1cd218	-0.1531452
196	0xbe435b74	-0.19077855
197	0x3e8decab	0.27719626
198	0x3e8cdecf	0.2751374
199	0x3e07e9e6	0.13272819
200	0x3dd578f8	0.104234636
201	0xbd175368	-0.036944777
202	0xbe7ed472	-0.24885729
203	0x3d00f5ac	0.03148429
204	0x3e6763a6	0.22596607
205	0xbe8e1b01	-0.27754977
206	0x3e111770	0.14169097
207	0x3de574fc	0.112039536
208	0x3e425f60	0.18981695
209	0xbd1bb631	-0.03801555
210	0x3e385175	0.17999823
211	0x3cd93c34	0.026517965
212	0x3e85ac5c	0.26108062
213	0xbbf5853e	-0.0074926903
214	0x3e8ee3e7	0.2790825
215	0x3e440d7b	0.19145767
216	0xbc8550a6	-0.016273808
217	0xbe323810	-0.17404199
218	0x3d2e4d4a	0.042554177
219	0x3ce06b5b	0.027394941
220	0x3e3a1b5d	0.18174501
221	0xbc7173c1	-0.014737071
222	0x3e366a76	0.17814049
223	0xbe01e6a9	-0.12685646
224	0xbdd2f2ac	-0.10300192
225	0xbe5acbec	-0.21366853
226	0x3e0d9386	0.13825807
227	0x3db03779	0.086043306
228	0x3e46115e	0.19342563
229	0x3e3b42a4	0.1828714
230	0xbd5437f3	-0.05181117
231	0x3c14755a	0.009061182
232	0xbde6581d	-0.11247275
233	0x3db842ad	0.089970924
234	0x3c1bcd5a	0.009509409
235	0xbe6021a3	-0.21887831
236	0x3e76318d	0.2404234
237	0x3b62d2ae	0.0034610438
238	0x3e569ec3	0.20959
239	0x3dc8f47c	0.09812257
240	0xbe92195c	-0.28534973
241	0x3e031f41	0.12804891
242	0x3e886936	0.2664277
243	0xbc4d2e83	-0.012523296
244	0x3d91e666	0.07124023
245	0xbe86539b	-0.2623566
246	0xbe86dc2e	-0.2633986
247	0x3c5b0057	0.01336678
248	0x3df2f3b8	0.11862892
249	0x3df441be	0.11926602
250	0xbd4abb3a	-0.04949496
251	0xbd295904	-0.041344658
252	0x3e52e965	0.20596845
253	0x3e330593	0.17482595
254	0x3dbcc924	0.09218052
255	0xbe84a6c8	-0.25908494

fc.0.bias f4 [156]
0	0xbbe9fc85	-0.0071406984
1	0xbe03aa7e	-0.12858006
2	0xbe6d8957	-0.23196922
3	0x3e475562	0.19466165
4	0x3e59ca8f	0.21268676
5	0x3e76f7db	0.24117987
6	0xbe7e8275	-0.24854453
7	0x3e86cdda	0.26328927
8	0x3e539215	0.20661195
9	0x3e86e033	0.26342925
10	0xbe901f2d	-0.28148785
11	0xbe08c034	-0.1335457
12	0x3d125c83	0.035732757
13	0xbd80103e	-0.06253098
14	0xbd92ebc4	-0.07173875
15	0xbe81b550	-0.25333643
16	0x3bdacf63	0.0066775545
17	0x3e236fec	0.15960664
18	0x3d6c64e3	0.0577134
19	0xbbfd9f61	-0.0077399467
20	0x3ccebcbd	0.025236482
21	0x3e8c808a	0.27441818
22	0x3d97dc51	0.07415069
23	0x3ce52ad7	0.02797453
24	0x3dbc481b	0.091934405
25	0x3dc12371	0.09430588
26	0x3de10ab3	0.10988369
27	0xbe895e7d	-0.268299
28	0xbcb5c632	-0.022189233
29	0x3e4e063b	0.20119564
30	0xbe0b6565	-0.13612898
31	0x3d1e9f9e	0.03872644
32	0x3e65c5f4	0.22438794
33	0xbb81702c	-0.0039501395
34	0xbbbd9ea2	-0.005786733
35	0xbc9fc820	-0.019504607
36	0xbe3afd52	-0.18260697
37	0xbdf88a95	-0.121358074
38	0xbdda27ac	-0.10652098
39	0xbc7be9b2	-0.0153755415
40	0x3d7235d5	0.05913337
41	0x3d2c6eb7	0.042097773
42	0x3d37704b	0.044784825
43	0x3e8c4344	0.2739507
44	0x3e657c14	0.22410613
45	0xbe4a02ee	-0.1972768
46	0x3d3b3d95	0.045713026
47	0x3d6b2e8e	0.057417445
48	0x3e48e6b7	0.1961926
49	0xbc72b6ac	-0.01481406
50	0x3e1a4ac9	0.15067591
51	0x3c886199	0.0166481
52	0xbe643e61	-0.2228942
53	0xbcb5bfa5	-0.02218611
54	0x3e740183	0.23828702
55	0xbe8230d7	-0.25427887
56	0x3dbf2953	0.09334054
57	0xbe8ac0f4	-0.27100337
58	0xbc367822	-0.01113704
59	0xbd954bfb	-0.07289883
60	0xba0ffdde	-0.0005492846
61	0x3e8c6c75	0.27426496
62	0x3d928714	0.0715467
63	0xbe60fc24	-0.21971184
64	0xbb964c1a	-0.0045867087
65	0xbe332b60	-0.17497015
66	0xbde3ef50	-0.111296296
67	0x3e63a7a0	0.22231913
68	0x3cc6f404	0.024286278
69	0x3d32b370	0.043628156
70	0xbd34e0e8	-0.0441598
71	0xbe84cb5f	-0.2593641
72	0xbe87b369	-0.26504067
73	0x3d415c18	0.047206968
74	0xbe2e2b7b	-0.17008774
75	0xbe6642c1	-0.22486402
76	0xbde33fcb	-0.11096152
77	0xbe2402d4	-0.16016704
78	0x3e5b4807	0.21414195
79	0x3e8a7ad3	0.27046832
80	0x3e3706a3	0.17873625
81	0xbe0c8807	-0.13723765
82	0x3e3caebd	0.18426032
83	0xbe4f332c	-0.20234364
84	0xbcf426c7	-0.029803647
85	0xbe3c8769	-0.1841103
86	0x3e833b91	0.25631383
87	0x3e6de390	0.2323134
88	0xbe8d86f9	-0.27642038
89	0x3e7a411a	0.24438897
90	0x3d9eed0d	0.077600576
91	0xbe24b9ad	-0.16086455
92	0x3e60454b	0.21901433
93	0x3e853939	0.2602022
94	0x3e84c027	0.2592785
95	0x3ddd2b24	0.10799244
96	0x3e8b202e	0.2717299
97	0x3e59244f	0.21205257
98	0x3e78fa43	0.24314217
99	0x3da3ec5f	0.080040686
100	0x3e649530	0.22322536
101	0x3e5d74ea	0.2162663
102	0x3e598c32	0.21244887
103	0xbddb7d94	-0.107173115
104	0x3e036d1f	0.12834595
105	0xbe8cc3f3	-0.27493247
106	0xbd2ad88f	-0.041710433
107	0x3e55f6b4	0.20894891
108	0xbe06689e	-0.13125846
109	0xbc96e3dc	-0.018419199
110	0xbe3d398e	-0.18478987
111	0x3e1cd621	0.15316059
112	0x3e42f063	0.19037013
113	0x3e91aa69	0.28450325
114	0xbda89c81	-0.08232976
115	0x3e5dee3c	0.2167291
116	0xbe83ef7e	-0.25768656
117	0x3e5dc4f8	0.21657169
118	0xbe451831	-0.1924751
119	0xbd274103	-0.040833484
120	0xbdad50d6	-0.08462684
121	0xbdaa187c	-0.08305451
122	0x3e7fefe3	0.24993853
123	0x3e895c86	0.26828402
124	0x3e37e9e4	0.17960316
125	0x3e90c0a3	0.2827197
126	0x3e92a31b	0.28640065
127	0x3e34c78e	0.17654249
128	0xbe8ff390	-0.2811551
129	0x3d0be8de	0.034157626
130	0x3e8fe5a8	0.281049
131	0x3e1bd137	0.15216528
132	0xbe480e96	-0.19536814
133	0xbd584f89	-0.052810226
134	0x3e936c67	0.28793642
135	0x3d8f552c	0.06998667
136	0x3d981c60	0.07427287
137	0x3db1dd8e	0.08684836
138	0xbdbd6474	-0.092476755
139	0x3e6aafeb	0.2291867
140	0x3e42da26	0.1902853
141	0x3b89d99a	0.0042068483
142	0xbdb18994	-0.08668819
143	0xbe51acdb	-0.20476095
144	0x3e1874b4	0.14888269
145	0x3e6a2c40	0.22868443
146	0x3ce9f802	0.028560642
147	0xbda8fe32	-0.08251609
148	0x3e2be8e3	0.16788058
149	0x3d190759	0.037360523
150	0x3e8bcf54	0.27306616
151	0x3e703af3	0.23459987
152	0x3e1e7406	0.15473947
153	0x3e1ac245	0.1511317
154	0xbe7955e0	-0.24349165
155	0x3d1898cb	0.03725509

fc.2.weight f4 [4, 156]
0	0x3ca5d7d1	0.02024451
1	0xbd90ae49	-0.07064492
2	0x3d533418	0.051563352
3	0xbd9a1895	-0.0752422
4	0xbc83d9ed	-0.016095126
5	0x3d076029	0.03305069
6	0xbc243b8f	-0.0100239655
7	0x3da387d0	0.079848886
8	0xbca83109	-0.020531194
9	0x3d442d79	0.04789493
10	0x3d3fe2a4	0.046847
11	0x3d8ed3ac	0.06973967
12	0xbd464747	-0.04840782
13	0x3cf0173b	0.029307952
14	0xbcce8b8d	-0.025213027
15	0xbd041906	-0.032250427
16	0x3d891be2	0.06694771
17	0x3c18fb28	0.009337224
18	0x3da1367a	0.07871719
19	0xbd47189e	-0.04860746
20	0x3c163e3e	0.009170113
21	0xbc2c7523	-0.010525974
22	0x3cbcfe99	0.02307062
23	0xbd0b6afc	-0.034037575
24	0xbd989b8d	-0.07451544
25	0xbd8ae42c	-0.067818016
26	0x3d4c72e5	0.04991426
27	0x3d05a758	0.032630295
28	0x3d051fbc	0.032500967
29	0xbd5d96d6	-0.054098926
30	0x3d47bb2d	0.04876249
31	0x3d9ea9fa	0.07747264
32	0xbcec9f01	-0.028884413
33	0x3d92ee77	0.0717439
34	0x3d608413	0.054813456
35	0xbda2d05f	-0.079499
36	0x3c84ac1c	0.01619535
37	0x3cb8f94a	0.022579808
38	0xbc98e282	-0.018662695
39	0xbd1ac6c8	-0.03778723
40	0x3d0a2c72	0.033733793
41	0x3cc4ec9f	0.024038611
42	0x3cfcf0c6	0.030876528
43	0x3da1edbd	0.07906673
44	0x3ce4f8e3	0.02795071
45	0x3d25396c	0.040337965
46	0x3be0892a	0.0068522887
47	0xbc8d500e	-0.017250087
48	0x3c880116	0.01660208
49	0xbd158255	-0.036501247
50	0xbd5e8660	-0.05432737
51	0xbda2baff	-0.07945823
52	0xbd88e5f1	-0.06684483
53	0x3c3270ef	0.010891183
54	0x3d816310	0.06317723
55	0x3d5abfac	0.05340545
56	0x3b1b21fc	0.002367138
57	0xbd7f0f51	-0.062270466
58	0xbd9ebb80	-0.077506065
59	0x3d8edaa3	0.069752954
60	0xbc83ac08	-0.016073242
61	0x3d5724d5	0.05252536
62	0x3cd7daf9	0.026349531
63	0xbce72cd6	-0.028219622
64	0x3b9c979e	0.0047788164
65	0x3d301ffe	0.04299926
66	0xbd049023	-0.032364022
67	0xbc9109c0	-0.017704844
68	0xbd21fc4f	-0.03954726
69	0x3d384284	0.04498531
70	0xbd4559c7	-0.04818132
71	0xbd8b01aa	-0.06787427
72	0xbbdc5bec	-0.006724825
73	0x3c8804bb	0.016603818
74	0xbd82f4a3	-0.06394317
75	0xbd5a2855	-0.05326112
76	0xbc771fe2	-0.015083285
77	0x3c7b8e9c	0.015353825
78	0x3d85fec3	0.065427326
79	0xbd99d4ff	-0.07511329
80	0x3d92cd44	0.071680576
81	0x3d6ba29e	0.05752813
82	0xbd1f7c70	-0.038937032
83	0xbd9e0ebc	-0.07717654
84	0x3cd92b6f	0.026509969
85	0x3d672986	0.056436084
86	0x3b2db7a0	0.0026507154
87	0x3b19dca4	0.002347746
88	0x3cf8aab6	0.030354839
89	0x3cb9326b	0.022607049
90	0x3d205904	0.039147392
91	0xba312235	-0.00067571114
92	0x3d78c5f9	0.060735676
93	0x3b7dfb68	0.0038754586
94	0xbce6b637	-0.028163059
95	0xbd9c8184	-0.07641891
96	0x3d5ea548	0.054356843
97	0x3cf44df3	0.029822325
98	0xbd134f71	-0.035964433
99	0x3d45a5e5	0.048253912
100	0xbd8a3e30	-0.067501426
101	0xbd0f3051	-0.034958187
102	0x3bcdbb61	0.006278441
103	0xbd965cae	-0.07341896
104	0x3c5ec65a	0.013597095
105	0x3c48194c	0.0122130625
106	0x3c8ff130	0.017571062
107	0x3bc34176	0.0059587313
108	0xbd2b4c1f	-0.04182064
109	0xbd4f2e71	-0.0505814
110	0xbd8d281d	-0.068924166
111	0x3bc3dc54	0.005977193
112	0x3cccff47	0.02502407
113	0xbcba61cf	-0.022751717
114	0xbd664975	-0.056222398
115	0xbd9fae47	-0.07796913
116	0x3b3ec7fe	0.0029110904
117	0x3d4de77b	0.050269585
118	0xbd8a9e6d	-0.067684986
119	0x3d224235	0.03961392
120	0xbd0c076c	-0.034186766
121	0x3d10068a	0.035162486
122	0x3d52fc07	0.051509883
123	0xbd262101	-0.04055882
124	0xbadae670	-0.0016700756
125	0xbd9668fc	-0.07344243
126	0xbc2a8e0e	-0.010409845
127	0xbd9c5f22	-0.07635333
128	0x3cddfd84	0.027098425
129	0xbd8a325a	-0.06747885
130	0x3d3b747f	0.045765396
131	0xbcd90831	-0.026493164
132	0x3d8c3f60	0.06848025
133	0x3d7d97aa	0.061912216
134	0x3d9e7b46	0.07738356
135	0xbd8a8968	-0.067644894
136	0x3d9b43f1	0.07581318
137	0xb9b685fe	-0.00034813577
138	0xbce2ecfb	-0.027700892
139	0xbd48158a	-0.048848666
140	0x3d859e8b	0.0652438
141	0xbcf8b994	-0.030361928
142	0x3d95a8b8	0.07307571
143	0x3d838687	0.064221434
144	0xbd3547a4	-0.044257775
145	0xbd63ab28	-0.05558315
146	0xbc9b1267	-0.018929673
147	0xbd563096	-0.05229243
148	0x3c58e12b	0.013237278
149	0x3cfdcb54	0.030980743
150	0x3cc07885	0.023494968
151	0xbc96863c	-0.018374555
152	0x3ad622d3	0.0016337283
153	0x3d0dd03e	0.034622423
154	0x3bb16c98	0.0054145567
155	0x3c9c892b	0.019108376
156	0xbd9d9180	-0.076937675
157	0x3d37263b	0.044714194
158	0x3c93e7cb	0.018054863
159	0x3bf9b634	0.0076205973
160	0xbce03721	-0.027370038
161	0x3cf5a559	0.02998607
162	0xbcdf07c2	-0.027225379
163	0x3aee6bd6	0.0018190097
164	0xbd9c35e5	-0.07627467
165	0xbc163561	-0.009168
166	0xbd06966b	-0.032858294
167	0xbc07943e	-0.00827509
168	0x3d5063ea	0.050876535
169	0xbd6880e3	-0.05676354
170	0x3d1cfe52	0.038328476
171	0x3da0208e	0.07818709
172	0x3b9ab2fd	0.004721044
173	0xbc08fd9b	-0.0083612455
174	0xbcf78f73	-0.03021977
175	0x3bf49187	0.0074636373
176	0x3d389117	0.045060243
177	0x3bd6d71c	0.0065564048
178	0x3d952d7a	0.072840646
179	0xbcf79b22	-0.03022534
180	0xbd1ad184	-0.037797466
181	0xbc848471	-0.016176434
182	0x3d7ca3d1	0.061679665
183	0x3cef269f	0.02919322
184	0x3d5e51e4	0.054277316
185	0x3c482ebb	0.012218173
186	0x3cb44800	0.022006989
187	0x3ce5f6e2	0.028071824
188	0x3d033bc3	0.032039415
189	0x3a7fd105	0.00097586244
190	0xbd4c6ee6	-0.04991045
191	0x3c7e2261	0.015511126
192	0xbda14245	-0.07873968
193	0xbd61403c	-0.0549929
194	0x3b7ef5f7	0.003890393
195	0xbb40b4e5	-0.0029404697
196	0xbd466103	-0.04843236
197	0xbcc88051	-0.024475249
198	0xbcce9784	-0.025218733
199	0xbd38133d	-0.044940222
200	0x3c10dbf5	0.008841504
201	0xbc89c724	-0.01681859
202	0x3bfda846	0.007741007
203	0x3c285d62	0.01027617
204	0x3c9e14f6	0.019297104
205	0x3b0607e4	0.002045148
206	0xbd92a970	-0.07161224
207	0xbc73ab99	-0.014872455
208	0xbd31e098	-0.04342708
209	0x3da1e2f7	0.07904618
210	0x3da1fffd	0.07910154
211	0xbbdc1a88	-0.00671703
212	0x3d49c5ea	0.04926101
213	0x3d804609	0.06263358
214	0xbb771e30	-0.0037707202
215	0x3c92e523	0.017931527
216	0x39048214	0.00012636959
217	0x3d299fb3	0.041412067
218	0x3c899b87	0.016797794
219	0x3d8696c0	0.06571722
220	0x3d037626	0.032095097
221	0x3cee28a1	0.029072108
222	0x3ce4ade2	0.027914945
223	0x3d24172a	0.040061153
224	0xbcf4afff	-0.029869078
225	0xbd8946e7	-0.06702977
226	0xbd26ede6	-0.04075422
227	0xbd8b95a4	-0.06815651
228	0xbcf952c4	-0.030434974
229	0xbd73efca	-0.059554853
230	0xbd020f31	-0.03175277
231	0x3d29ae26	0.041425847
232	0xbcdbcb03	-0.026830202
233	0x3d290ead	0.04127376
234	0x3ba49347	0.0050224396
235	0xbd92dcd2	-0.071710244
236	0xbc8558f9	-0.016277777
237	0x3c43af63	0.011943671
238	0x3c6c849a	0.014435912
239	0x3c905b5e	0.017621692
240	0xbd9ff189	-0.07809741
241	0x3d59ca10	0.053171217
242	0x3c897145	0.016777644
243	0xbd20465f	-0.03912961
244	0xbd814343	-0.06311657
245	0xbd978c4b	-0.07399806
246	0xbd4c5cbd	-0.04989313
247	0xbc89b3fd	-0.016809458
248	0xbd5f4a98	-0.054514498
249	0x3d62348f	0.055225905
250	0x3d26508e	0.040604167
251	0xbc92b104	-0.017906673
252	0xbd6655cb	-0.056234162
253	0x3d01cf3c	0.031691775
254	0xbd658a7c	-0.056040272
255	0x3d687a36	0.056757174

fc.2.bias f4 [4]
0	0xbc1c60d7	-0.009544573
1	0xbc9979f5	-0.018734911
2	0x3d6a5ccb	0.0572174
3	0x3d543c97	0.051815595
