Models/score_42_model_442278.pt (torch, 9695 bytes, 4 tensors)

fc.0.weight f4 [120, 12]
0.27001807 0.10676572 0.047342166 -0.15096761 0.018093927 -0.15147527 0.06847675 0.041733474
0.0761368 -0.1815157 0.112654686 -0.13184822 -0.008675247 -0.20967962 0.22542022 0.07081711
-0.24272387 -0.10115881 0.12393038 0.2323359 -0.012596816 -0.18624803 -0.0027570724 -0.10290347
-0.13811289 -0.08655727 -0.059370264 -0.064363316 -0.2697696 -0.15155645 0.16517128 -0.052762598
0.2777896 0.10376589 0.26349965 -0.23438902 -0.13141182 -0.23400852 -0.1653753 -0.04520881
0.15459232 -0.15962045 0.065100044 0.1455864 -0.0737322 -0.1407915 0.2606161 -0.0067059565
-0.17489569 -0.07740438 0.10460965 -0.19378881 -0.21275093 0.08434552 0.015323682 -0.11974418
-0.24596371 0.041969016 -0.22752422 -0.18998647 0.2663286 0.19227049 0.27494907 -0.026546048
0.26466602 -0.12243688 0.14947346 -0.2421472 -0.05609706 0.07880098 -0.14162448 0.05366063
0.012638658 -0.097026944 0.072225586 0.18767661 0.22547805 0.13636154 0.2760616 0.23947904
-0.12683573 0.28562263 -0.23439439 0.19204405 -0.09538759 0.1678583 0.27531707 -0.029956758
0.2525781 -0.19212599 0.022289306 -0.1995846 -0.0037742124 0.22716609 -0.087957054 0.072456956
-0.09064077 -0.015906781 -0.049817875 0.26339355 0.084645495 0.018809881 -0.23230602 -0.20965324
-0.24822505 -0.1743935 0.11034186 -0.13191724 0.2627061 -0.21284556 0.2354705 0.25457507
0.23794492 0.19488229 0.062010884 0.090678155 0.12782398 -0.0039402843 0.12396389 -0.07070181
-0.2324606 0.002032131 0.23304398 -0.035510004 0.03929937 0.020921886 -0.0150461495 -0.18886338
0.16536543 -0.13851586 -0.10645491 0.27022904 0.12492141 -0.26777032 -0.2526977 0.117266715
-0.27395752 -0.28034303 0.11329904 -0.13936298 0.1847982 -0.1640843 -0.14546463 -0.05713412
0.17261341 0.26068968 0.26574868 0.115768954 0.05562754 0.18232845 -0.02811228 0.20189695
-0.24398704 0.26039672 0.008635789 0.09126687 0.111288756 0.18927224 -0.1672927 -0.23726079
-0.04274866 -0.21117572 -0.072658926 0.12524569 -0.08664943 0.016368061 0.13919972 0.08820067
-0.030305833 0.17186186 -0.0468743 0.12922604 -0.28043765 -0.021994531 -0.11904065 0.13404243
-0.014727116 0.17752889 0.2284422 -0.24416898 0.01080009 0.1539094 0.0683811 0.16008349
0.1849077 0.21917325 -0.14397538 0.13481243 0.24731472 0.025235862 0.15392338 -0.13154249
-0.062636584 0.012709469 -0.18988988 0.18687215 -0.025944024 -0.12603524 -0.050420508 0.026372403
-0.024565475 -0.06672582 -0.14808236 0.01420675 0.20676869 0.06698063 0.25170732 -0.06374478
-0.15525365 -0.12979238 -0.06119311 -0.09697382 0.22978888 -0.14257774 -0.11909042 -0.14460565
0.112697884 -0.24743772 0.15032497 -0.22711888 -0.17866234 0.051580086 0.19913302 0.2493095
0.24678855 -0.15342645 -0.07338311 0.109364465 0.18212922 -0.22842704 -0.07901861 -0.21752189
0.053293183 -0.1717777 0.23688015 0.19818935 0.02284987 -0.15439023 0.15078121 -0.07044236
-0.09074293 -0.15741074 0.108344704 -0.09673175 0.24134307 0.09878592 -0.08752799 -0.22899984
-0.029257447 0.14013554 -0.25221395 -0.25927198 0.15940143 0.048305452 0.026397496 -0.20945378
00000000: cf3f 8a3e fca7 da3d dce9 413d 4197 1abe
00000010: b739 943c 551c 1bbe 8a3d 8c3d b8f0 2a3d
00000020: 9ced 9b3d 40df 39be 80b7 e63d 3803 07be
00000030: a022 0ebc 41b6 56be 8fd4 663e 9008 913d
00000040: 9b8c 78be 5a2c cfbd 36cf fd3d 76e9 6d3e
00000050: e062 4ebc ceb7 3ebe 00b0 34bb 0ebf d2bd
00000060: 776d 0dbe f044 b1bd 3c2e 73bd ead0 83bd
00000070: 3e1f 8abe 9d31 1bbe a922 293e 981d 58bd
00000080: 703a 8e3e 3683 d43d 6de9 863e ad03 70be
00000090: d290 06be ee9f 6fbe 2558 29be e02c 39bd
000000a0: 734d 1e3e 8b73 23be 2c53 853d 9a14 153e
000000b0: e800 97bd a62b 10be 796f 853e a4bd dbbb
000000c0: db17 33be 3086 9ebd 963d d63d 9370 46be
000000d0: 61db 59be 58bd ac3d 2e10 7b3c 703c f5bd
000000e0: e9dd 7bbe b4e7 2b3d 1cfc 68be d08b 42be
000000f0: 395c 883e 8ee2 443e 20c6 8c3e 1977 d9bc
00000100: 4e82 873e 30c0 fabd 920f 193e 70f5 77be
00000110: 08c6 65bd 6862 a13d 0206 11be 40cb 5b3d
00000120: 6012 4f3c 10b6 c6bd 02eb 933d 4c2e 403e
00000130: b8e3 663e 5ca2 0b3e f257 8d3e fe39 753e
00000140: 3ae1 01be 213d 923e 1505 70be 32a7 443e
00000150: 925a c3bd 0ce3 2b3e 5cf6 8c3e e067 f5bc
00000160: eb51 813e adbc 44be 1098 b63c e85f 4cbe
00000170: c758 77bb 3a9e 683e d422 b4bd 5064 943d
00000180: dea1 b9bd f04e 82bc d40d 4cbd 85db 863e
00000190: 9e5a ad3d 2e17 9a3c a1e1 6dbe 57af 56be
000001a0: b52e 7ebe 3694 32be eafa e13d 5015 07be
000001b0: 6a81 863e 30f4 59be 2e1f 713e aa57 823e
000001c0: d5a7 733e 398f 473e 20ff 7d3d 78b5 b93d
000001d0: 4ae4 023e 801d 81bb c8e0 fd3d 1ccc 90bd
000001e0: 270a 6ebe 802d 053b 15a3 6e3e f072 11bd
000001f0: 60f8 203d 6064 ab3c 2084 76bc 6765 41be
00000200: 8e55 293e 1ad7 0dbe 0805 dabd 765b 8a3e
00000210: ccd6 ff3d 3119 89be 9861 81be 8829 f03d
00000220: 2944 8cbe 1f89 8fbe 5409 e83d 2bb5 0ebe
00000230: bd3b 3d3e b705 28be aef4 14be 7805 6abd
00000240: 92c1 303e 1e79 853e 3610 883e 4618 ed3d
00000250: b4d9 633d 4fb4 3a3e b94b e6bc 13be 4e3e
00000260: bdd7 79be b852 853e 207d 0d3c 20ea ba3d
00000270: 5ceb e33d 95d0 413e c74e 2bbe 7ef4 72be
00000280: 3819 2fbd 733e 58be 34ce 94bd 6840 003e
00000290: 4275 b1bd 5016 863c 5f8a 0e3e 8ea2 b43d
000002a0: f043 f8bc 8efc 2f3e 44ff 3fbd d553 043e
000002b0: 8695 8fbe e02d b4bc 96cb f3bd 6b42 093e
000002c0: 004a 71bc 22ca 353e c1ec 693e 6f07 7abe
000002d0: dcf2 303c 6d9a 1d3e 640b 8c3d edec 233e
000002e0: 7258 3d3e f46e 603e 486e 13be 450c 0a3e
000002f0: 1240 7d3e 70bb ce3c 179e 1d3e 13b3 06be
00000300: 9c47 80bd 603b 503c 7e72 42be 6a5b 3f3e
00000310: 9088 d4bc 620f 01be bc85 4ebd f00a d83c
00000320: 893d c9bc 8ca7 88bd e7a2 17be 6ec3 683c
00000330: 2cbb 533e 242d 893d c8df 803e a08c 82bd
00000340: d0fa 1ebe 4be8 04be a0a5 7abd 369a c6bd
00000350: c74d 6b3e e6ff 11be aee5 f3bd 8113 14be
00000360: 26ce e63d 5060 7dbe caee 193e da91 68be
00000370: 43f3 36be a445 533d 87e9 4b3e fd4a 7f3e
00000380: 23b6 7c3e d31b 1dbe e249 96bd 7afa df3d
00000390: 1580 3a3e c7e8 69be 82d4 a1bd 0fbe 5ebe
000003a0: f449 5a3d 7ee6 2fbe b690 723e 26f2 4a3e
000003b0: a72f bb3c 7918 1ebe 6466 1a3e 1644 90bd
000003c0: 6ed7 b9bd 4830 21be d4e3 dd3d 4c1b c6bd
000003d0: a322 773e 4650 ca3d e041 b3bd ef7e 6abe
000003e0: 50ad efbc b17f 0f3e 3022 81be 4cbf 84be
000003f0: 213a 233e f0db 453d 903f d83c 0d7b 56be

fc.0.bias f4 [120]
0.11724645 0.19020596 -0.21210474 0.13539064 -0.04724957 0.08112414 -0.106284216 0.18705714
0.15674263 -0.22830364 -0.08769378 -0.2021198 -0.28213102 -0.25015092 -0.08618438 -0.18591252
-0.2263184 -0.2546806 -0.025247276 0.1317868 -0.07629904 -0.22592627 0.00018912554 0.032760292
0.009010404 0.18800974 -0.023290634 -0.25184765 0.04765494 -0.21625756 0.017126573 -0.21760103
0.011082977 -0.24379933 -0.26753715 0.18946064 -0.25661927 0.07153782 0.2891294 -0.04982923
0.04364182 0.12006058 -0.11411223 -0.15070236 0.08160588 0.035486385 -0.11233054 -0.049292073
0.055163935 -0.2757816 -0.23291026 -0.24678831 0.040458634 0.17863256 -0.2652782 0.12624727
-0.13686433 -0.20093104 0.024469193 -0.109714314 -0.1448721 -0.10644156 -0.099905536 0.19075565
-0.09273499 0.1978894 -0.028859543 -0.07294014 0.050174266 0.030865606 -0.2343306 0.2330654
0.056300864 0.06561799 0.22005148 -0.28728068 0.17457686 -0.13265151 0.22271858 0.12064785
0.09260248 -0.11266968 0.2208799 0.20693076 0.011538714 -0.075263664 -0.20346221 0.08054453
0.10832958 0.1334348 0.15983665 0.065988496 0.10878539 -0.22278015 0.2503864 0.14834972
-0.2867662 0.06575918 0.09869751 0.20566395 -0.13277271 -0.19436212 -0.1626348 0.088466555
-0.24849595 -0.13091312 -0.09872532 0.2452537 0.24625853 0.09287459 0.0487051 -0.025839478
-0.06938183 -0.09147376 0.12750117 -0.28308797 0.20639667 -0.13208985 -0.22814777 -0.088422865
00000000: e81e f03d 5ac5 423e fc31 59be d8a3 0a3e
00000010: c488 41bd 6a24 a63d 8aab d9bd e88b 3f3e
00000020: 2481 203e 6ec8 69be cc98 b3bd 7ef8 4ebe
00000030: 7a73 90be c813 80be 7081 b0bd da5f 3ebe
00000040: 03c0 67be 7f65 82be 60d3 cebc 1ef3 063e
00000050: ac42 9cbd 3759 67be 0050 4639 a82f 063d
00000060: 60a0 133c a085 403e 00cc bebc 2df2 80be
00000070: d431 433d 9f72 5dbe 074d 8c3c ced2 5ebe
00000080: 6095 353c 88a6 79be a1fa 88be f801 423e
00000090: 9a63 83be 6c82 923d c508 943e bc19 4cbd
000000a0: c4c1 323d 52e2 f53d acb3 e9bd b851 1abe
000000b0: fc20 a73d 2c5a 113d 8e0d e6bd 7ce6 49bd
000000c0: 94f3 613d 3f33 8dbe 0780 6ebe 13b6 7cbe
000000d0: f4b7 253d 74eb 363e 8bd2 87be f746 013e
000000e0: 2a26 0cbe dec0 4dbe 9e73 c83c e6b1 e0bd
000000f0: 5a59 14be 08fe d9bd 469b ccbd 7355 433e
00000100: d8eb bdbd 85a3 4a3e d96a ecbc a461 95bd
00000110: 8883 4d3d ded9 fc3c 5cf4 6fbe b2a8 6e3e
00000120: bc9b 663d ba62 863d 2d55 613e 7416 93be
00000130: 47c4 323e ccd5 07be 5710 643e 3816 f73d
00000140: 5ea6 bd3d 5cbf e6bd 572e 623e a8e5 533e
00000150: e00c 3d3c d623 9abd 6658 50be 88f4 a43d
00000160: e6db dd3d 22a3 083e 38ac 233e fa24 873d
00000170: e0ca de3d 7b20 64be a532 803e fde8 173e
00000180: 05d3 92be c0ac 863d ec21 ca3d 9299 523e
00000190: 92f5 07be dd06 47be bd89 26be f42d b53d
000001a0: b975 7ebe 170e 06be 8030 cabd c923 7b3e
000001b0: 322b 7c3e 0835 be3d 007f 473d 50ad d3bc
000001c0: 1018 8ebd 9856 bbbd ab8f 023e e8f0 90be
000001d0: a659 533e 9042 07be 929f 69be 0c17 b5bd

fc.2.weight f4 [4, 120]
0.07250464 -0.06303202 0.014488436 0.021469612 0.008935608 0.026157668 -0.035731193 0.0027826652
0.04906425 -0.08970056 -0.012553938 0.08618428 -0.0358094 0.087940976 0.014739782 0.041625842
-0.059726685 0.083831 0.025683142 0.012435079 -0.072853684 -0.07046082 -0.082646064 -0.020756245
-0.007487625 -0.01303889 -0.07428185 -0.068355165 -0.08616482 -0.046639718 -0.06364057 -0.08342603
0.073467314 0.050381735 -0.017421111 0.070496574 0.08939305 0.01772677 0.03651017 0.020981882
0.038340226 0.0130776465 -0.051808786 0.083986 -0.01204695 -0.020233557 -0.077910915 0.0068297535
-0.0172614 -0.0152466595 0.071242005 0.0850932 0.002849251 -0.07601447 -0.055702668 0.011871949
0.05922164 -0.08072307 -0.0068114176 -0.07494108 -0.046943106 0.0017587468 -0.06523363 0.075428486
0.015146293 -0.043303125 0.057026327 0.05268705 0.0649599 -0.07255538 -0.08241494 0.057141617
0.038659364 0.030029625 -0.050772727 0.059379548 0.087212294 -0.079332344 0.06146072 -0.00031246245
-0.05882708 0.025249302 0.011085123 0.03112737 0.07654253 -0.040998574 -7.033348e-05 -0.05288835
0.022360377 0.053324282 0.027317628 0.07565637 0.07469548 0.0043227747 0.005547181 -0.047640335
-0.03695692 -0.046308547 0.076974526 -0.020323189 -0.01871217 0.06577204 -0.034137618 0.002700448
0.014669493 -0.08707814 0.052215338 -0.081039935 -0.07399953 -0.026515149 -0.0034025237 -0.063505664
-0.07951616 0.062839136 -0.07068972 0.07092649 0.004976332 -0.06558592 -0.037936 0.010941438
-0.049390614 0.0741653 -0.08039289 0.0040614903 0.0148295 -0.09057164 -0.05360637 -0.050866812
0.030964158 0.03247855 0.017511696 -0.06598127 -0.00159394 0.076555476 -0.013171397 0.013281137
0.037447408 -0.049454868 -0.045623146 0.08713442 -0.003990233 0.021544572 0.061648324 0.031298965
-0.011868522 -0.051015273 0.0072902963 0.062605605 -0.07230382 -0.058694277 0.007569885 -0.058877267
-0.0498639 -0.011621043 0.05596143 -0.028494494 -0.014993653 -0.07366647 -0.013888963 0.045994863
0.08819419 -0.048021927 -0.06896047 0.06315793 0.085995704 -0.058981553 -0.08601638 0.057657525
0.00054086 -0.06354185 0.030072603 0.047992572 -0.070147716 -0.020278305 0.0540749 0.07133415
0.043478698 -0.02844612 0.0051502064 -0.023507565 -0.027874526 -0.05346907 0.02812013 -0.08117542
0.042780668 0.044615716 -0.05040193 -0.03850224 -0.033448175 -0.046828695 0.077381656 0.030750308
-0.027927244 0.03549221 0.082561076 -0.06433475 0.006055534 -0.02939279 -0.07790363 0.065411344
0.05562949 0.044722676 -0.0087819025 0.0026901066 0.07975449 0.06832793 0.060450032 -0.03163445
-0.02386141 0.0022470802 0.04180546 -0.073292166 0.08283961 0.041106075 -0.05690379 0.00047738105
0.051563427 0.0125706345 -0.06845606 -0.03382858 -0.067378975 -0.0060110483 0.08150926 0.011405146
-0.085932225 0.07085246 -0.028492065 -0.012657689 -0.07447943 0.027882561 -0.086863086 0.007035626
-0.048513196 0.01666972 -0.0011854619 0.08060734 0.022008045 0.02926784 -0.0042514503 0.047257334
-0.06532887 0.07777125 -0.057732277 -0.00912226 -0.008380204 0.012144268 -0.0035695657 0.05147925
0.090179384 0.028549422 0.027878162 -0.051780228 0.026193824 0.071495235 -0.084196135 -0.07491296
00000000: 507d 943d ef16 81bd e860 6d3c 0ae1 af3c
00000010: a866 123c 9b48 d63c df5a 12bd 605d 363b
00000020: 98f7 483d edb4 b7bd 08af 4dbc 6281 b03d
00000030: e1ac 12bd 661a b43d 207f 713c dc7f 2a3d
00000040: f8a3 74bd 96af ab3d 7465 d23c 80bc 4b3c
00000050: 5034 95bd c34d 90bd 5742 a9bd 0009 aabc
00000060: c05a f5bb 12a1 55bc 1521 98bd cbfd 8bbd
00000070: 2e77 b0bd 4a09 3fbd fd55 82bd 44db aabd
00000080: 0876 963d 145d 4e3d b8b6 8ebc 8260 903d
00000090: b413 b73d bb37 913c b08b 153d 32e2 ab3c
000000a0: a40a 1d3d a043 563c 7335 54bd da00 ac3d
000000b0: 9260 45bc d8c0 a5bc c28f 9fbd 20cc df3b
000000c0: c867 8dbc 20cd 79bc 54e7 913d 5845 ae3d
000000d0: 80ba 3a3b 79ad 9bbd 7b28 64bd 9082 423c
000000e0: 6492 723d 2352 a5bd 5032 dfbb b57a 99bd
000000f0: 6a47 40bd c085 e63a 3699 85bd 407a 9a3d
00000100: 2828 783c 9e5e 31bd 7094 693d 60ce 573d
00000110: b209 853d ea97 94bd 2ac9 a8bd 540d 6a3d
00000120: 4859 1e3d b000 f63c 10f7 4fbd f837 733d
00000130: 5c9c b23d ff78 a2bd 3cbe 7b3d 00d2 a3b9
00000140: aaf4 70bd a0d7 ce3c 609e 353c d4fe fe3c
00000150: 54c2 9c3d 1fee 27bd 0080 93b8 74a1 58bd
00000160: 1c2d b73c 906a 5a3d 38c9 df3c baf1 9a3d
00000170: f2f9 983d 10a6 8d3b 20c5 b53b 8322 43bd
00000180: 2460 17bd 08ae 3dbd d2a4 9d3d d17c a6bc
00000190: 444a 99bc 7eb3 863d e3d3 0bbd 00fa 303b
000001a0: 5058 703c 0656 b2bd c0df 553d 44f8 a5bd
000001b0: 118d 97bd 4c36 d9bc e0fc 5ebb 420f 82bd
000001c0: 5ed9 a2bd ceb1 803d c6c5 90bd e841 913d
000001d0: 8010 a33b e951 86bd c762 1bbd b843 333c
000001e0: d04d 4abd fae3 973d 07a5 a4bd 4016 853b
000001f0: 6ef7 723c a07d b9bd 5a92 5bbd b859 50bd
00000200: 8ca8 fd3c 3a08 053d b074 8f3c 3021 87bd
00000210: c0eb d0ba 1ec9 9c3d d8cc 57bc 2099 593c
00000220: 7462 193d 3091 4abd 56df 3abd 8873 b23d
00000230: 80c0 82bb 3e7e b03c f482 7c3d 5833 003d
00000240: 3074 42bc 64f5 50bd 70e3 ee3b 5e37 803d
00000250: 0614 94bd 6969 70bd cc0c f83b 4a29 71bd
00000260: 173e 4cbd 3066 3ebc d037 653d 496d e9bc
00000270: f0a7 75bc 72de 96bd 888e 63bc 1c65 3c3d
00000280: 289f b43d a4b2 44bd 263b 8dbd f258 813d
00000290: 841e b03d a496 71bd 5b29 b0bd 4c2a 6c3d
000002a0: 80c8 0d3a 3b22 82bd d25a f63c dc93 443d
000002b0: 9ba9 8fbd b01e a6bc a47d 5d3d a417 923d
000002c0: b816 323d d607 e9bc 10c3 a83b f092 c0bc
000002d0: 1e59 e4bc 6202 5bbd 305c e63c 4c3f a6bd
000002e0: c83a 2f3d f8be 363d 4172 4ebd 86b4 1dbd
000002f0: f400 09bd 72cf 3fbd 467a 9e3d 12e8 fb3c
00000300: adc7 e4bc 4860 113d c815 a93d f0c1 83bd
00000310: 806d c63b 26c9 f0bc f08b 9fbd 62f6 853d
00000320: c0db 633d 202f 373d f8e1 0fbc 804c 303b
00000330: 5256 a33d 84ef 8b3d 749a 773d 2093 01bd
00000340: 0179 c3bc c043 133b 343c 2b3d 341a 96bd
00000350: d0a7 a93d d85e 283d f313 69bd 0049 fa39
00000360: 2c34 533d 10f5 4d3c b132 8cbd d68f 0abd
00000370: fdfd 89bd 54f8 c4bb 54ee a63d a6dc 3a3c
00000380: 3cfd afbd 181b 913d 3168 e9bc 3262 4fbc
00000390: ac88 98bd f869 e43c 46e5 b1bd 1c8b e63b
000003a0: c6b5 46bd f08e 883c 8061 9bba 7615 a53d
000003b0: 374a b43c 1cc3 ef3c c04f 8bbb e890 413d
000003c0: 25cb 85bd 8846 9f3d ae78 6cbd 8875 15bc
000003d0: 204d 09bc c0f8 463c 60ef 69bb e8db 523d
000003e0: f8af b83d 7ae0 e93c be60 e43c 8117 54bd
000003f0: 6e94 d63c 186c 923d 066f acbd f76b 99bd

fc.2.bias f4 [4]
0.0071182996 0.038550958 -0.04601264 -0.06922391
00000000: a040 e93b 9ce7 1d3d c077 3cbd 44c5 8dbd
