Models/score_56_model_912718.pt (torch, 12127 bytes, 4 tensors)

fc.0.weight f4 [156, 12]
00000000: a51d 79bc 45d1 60bc 1dcc 773e 20f8 c03d
00000010: a0b8 123e 40c4 48be c022 c33c 15db 663e
00000020: 15ad e1bc 06bb 09bd 7351 98bd 220f 673e
00000030: 2748 32be af12 853b 5801 74be df54 753e
00000040: 94c1 8abe 34c8 f8bd fc17 81be 1a77 83be
00000050: 8881 7fbe de99 4c3d 260f 253c 463f 44be
00000060: 16dc 72be d3d9 6e3e bbaf f1bb 7a3d 4e3e
00000070: 50eb a7b9 0488 6cbe a013 013e ed88 413e
00000080: 8beb f7bb 9d7d e8bc 508e 88be 5c9d 033d
00000090: 4a23 c7bd 9e75 1f3e 89a4 8dbe 3227 0cbe
000000a0: bb28 383e 501d 853e 8529 45be a424 c93d
000000b0: a92f 853d 67ce 893e 4497 57be 7489 71be
000000c0: 0093 343e 0f88 7cbe 0548 85bd c0dc c13d
000000d0: 1227 3fbb 63e5 8fbe a163 a8bc f66d 6f3d
000000e0: 22c5 093e 84e4 7cbd 7134 383e cb45 bdbc
000000f0: 66c9 7f3e cf77 633e fd08 2fbe b715 52be
00000100: 6334 083e 507a bfbc 447a cb3d 0f88 2e3e
00000110: 7c79 41be 5983 84be 1e3e aabd 24bc a73d
00000120: 89f4 883e aebd 4b3c 9fae fc3d ba19 bb3c
00000130: ca9c 0b3d 3586 8ebe 8626 6b3e 2408 5dbe
00000140: 33bf 6dbe be18 b13d c0d9 8ebd 81bf b13c
00000150: 78ff 6e3e 0229 1c3e 142e 813e 1818 2a3e
00000160: 5a94 15be 3225 b53b 66ef d3bd aadc 0c3d
00000170: e78b 373e e123 803e 8819 22bd bd0a 84bd
00000180: dc00 773e 62c4 873e 540e 7e3e 7037 82bd
00000190: 23e1 85be df8d f43c 35ad 59bd 212e 7e3e
000001a0: 96e1 553e 7e8e 073e 1dde 873c 1b29 86be
000001b0: a2c3 943b acaa b73d 438c fe3c 183a 833d
000001c0: 0da8 c23d 2682 ef3d 4eff 4f3e db89 6f3d
000001d0: 09aa 34be 1276 2c3e 06f8 70bc 5321 35be
000001e0: ba7c c5bc b8ae 583e a290 fb3d 26f6 7b3e
000001f0: 8528 79bd 9f03 8a3e 5283 40be 87dc 0f3e
00000200: 6d54 2cbe 8279 8e3e ae2e 3a3d 45ad 1d3e
00000210: d096 f8bd 4064 c53c ad95 463e 9522 623b
00000220: aec1 39bd aa80 063a 5796 d0bd cd87 073d
00000230: 71c4 febc e525 e23d 58f3 ae3d c906 603e
00000240: 30b7 063e 8d55 943a e360 94be 3bfb 5e3e
00000250: d458 b93c 21db bb3d 89ea 1a3e e0d4 87be
00000260: 18ff 443e 229f 8abc d5e7 51be 2d8b 36be
00000270: 7779 8c3d 241f 8f3e fb31 1c3e a7db 7d3d
00000280: 269f bf3d aa70 ecbc cc04 0dbe fe2b cbbd
00000290: e0e5 71be 8898 debd a746 093e c872 4fbe
000002a0: f900 283e a030 0e3e e03d f63d 045f ed3c
000002b0: bcab 353e a915 493e f0a4 85be bd3a 1f3e
000002c0: b8f7 7ebd 8ed9 023e d5b9 0d3e 17f5 12be
000002d0: 1649 09bd 575f 52bd 7241 c53d 51d3 e4bd
000002e0: df32 b53d 55ab 863e f156 81be 057c 5e3d
000002f0: 3e62 82be 334d b83c 5c7c 683e db8e 7c3e
00000300: ffa0 1abe 1ac3 0abe a851 d9bb 57a2 1dbe
00000310: a714 43be 53d8 8c3e 4c87 8c3e e0f7 083e
00000320: dff2 d53d 2325 16bd a334 80be 65d7 0c3d
00000330: 6154 683e 8344 8ebe 6a3e 113e a316 e23d
00000340: 5c73 3f3e caff 1dbd 65cf 383e 79c3 e13c
00000350: 4478 853e 4149 a1bb 8671 8e3e 00e1 433e
00000360: d1eb 8bbc cd42 31be a80e 303d 4bf1 e13c
00000370: 3d91 3a3e 0f7d 6bbc 7f8c 363e 7e47 01be
00000380: ba1b d4bd cfcc 5cbe 4a3a 0d3e aa58 b23d
00000390: 8ec0 463e 50a7 3a3e 4b99 59bd 1bfc 083c
000003a0: aa11 e4bd 84fd b83d aa6c 2d3c bd79 60be
000003b0: 14fa 743e a38d c93b 18c1 573e 0eb1 c73d
000003c0: 94e7 90be f9f8 033e 4d1c 883e 4341 57bc
000003d0: 3dd7 903d 21fd 85be bcf7 86be a655 493c
000003e0: a3d8 f43d 5ec6 f63d e9f5 51bd 2071 22bd
000003f0: 6980 523e 93ef 323e ee9a bb3d 6fde 84be
-0.015204822 -0.013721769 0.24198957 0.09422326 0.14328241 -0.19606113 0.023820281 0.2254451
-0.027548352 -0.033625625 -0.0743741 0.22564366 -0.17410336 0.004061065 -0.23828638 0.23958157
-0.27100813 -0.12147561 -0.2521361 -0.25676805 -0.24951756 0.049951427 0.010074412 -0.19164762
-0.23716769 0.23325281 -0.007375685 0.20140639 -0.00032028044 -0.23098761 0.12605143 0.1889989
-0.0075659207 -0.02838021 -0.26671076 0.03213249 -0.09723528 0.15572211 -0.27664593 -0.13686827
0.17984287 0.25998926 -0.1925412 0.09821442 0.06503231 0.26915285 -0.21053797 -0.2358759
0.17634201 -0.24661277 -0.06507877 0.09465933 -0.0029167575 -0.28104696 -0.02055532 0.058454476
0.13454106 -0.061741367 0.17988755 -0.023104569 0.24979171 0.22213672 -0.17093273 -0.20516096
0.13301234 -0.023373753 0.0993543 0.1704409 -0.18893999 -0.2588146 -0.08312629 0.08190182
0.26749066 0.01243536 0.12337994 0.022839416 0.034085073 -0.27836767 0.22963914 -0.21585137
-0.23217468 0.08647297 -0.06975126 0.021697761 0.23339641 0.15250018 0.25230467 0.16610754
-0.14607373 0.0055281157 -0.10348396 0.03439013 0.17924462 0.25027373 -0.03957513 -0.06447361
0.24121422 0.26517016 0.24810153 -0.0635823 -0.26148328 0.029852806 -0.0531437 0.24822284
0.20886835 0.1323795 0.016585404 -0.26203236 0.004539923 0.089681 0.031072741 0.06407565
0.095047094 0.11694746 0.20312235 0.05848108 -0.17642988 0.16841915 -0.014707571 -0.17688493
-0.024107326 0.211604 0.12283446 0.24605617 -0.060829658 0.26955888 -0.18800095 0.14048968
-0.16829081 0.27827078 0.045454673 0.15398128 -0.1213814 0.024095654 0.19393034 0.0034505476
-0.045350723 0.0005130867 -0.10184925 0.033088494 -0.03109953 0.11042384 0.08542508 0.21877588
0.13155818 0.0011317 -0.2898017 0.21775524 0.022625364 0.09172655 0.1512853 -0.26529598
0.19237936 -0.016921584 -0.20498593 -0.17826529 0.06859105 0.27953446 0.15253441 0.061977055
0.09356527 -0.028862316 -0.13771361 -0.099205 -0.23622847 -0.10868937 0.13405858 -0.2025863
0.16406621 0.13885736 0.120235205 0.028975971 0.17741293 0.19637169 -0.261024 0.1554975
-0.06224796 0.12778303 0.1384042 -0.14351307 -0.033516966 -0.051360454 0.09631623 -0.11173118
0.088475935 0.2630259 -0.25261644 0.054317493 -0.25465578 0.022497749 0.2270369 0.2466387
-0.15100478 -0.13550988 -0.0066320486 -0.15393959 -0.19050847 0.27508792 0.27446973 0.13375807
0.104467146 -0.03665651 -0.2504016 0.034385104 0.22688438 -0.27786645 0.14183965 0.11039474
0.1869635 -0.038574018 0.18047865 0.027559029 0.26068318 -0.0049220626 0.27820987 0.191288
-0.01708022 -0.17310639 0.042982727 0.027580878 0.18219467 -0.014373078 0.17827033 -0.12624928
-0.10356851 -0.21562503 0.13791767 0.087083176 0.19409391 0.18227887 -0.053124707 0.008360888
-0.11136182 0.09032729 0.01058499 -0.2192144 0.23923522 0.0061509176 0.21069753 0.097505674
-0.2830168 0.12887944 0.26584092 -0.013138118 0.070723034 -0.26169685 -0.2636088 0.012288487
0.11955383 0.12049554 -0.05125991 -0.039658666 0.20556797 0.17474203 0.0916041 -0.25950953

fc.0.bias f4 [156]
00000000: 0059 cbbb bc48 04be 5c73 6dbe 36e0 493e
00000010: 1319 5b3e 780c 773e 5497 7fbe 5e87 863e
00000020: 0d71 533e 3ec3 863e 1ffd 90be acde 07be
00000030: 4b12 133d 5f56 83bd 92f2 95bd 24e8 81be
00000040: 4448 003c abef 223e 15e9 643d 5155 f2bb
00000050: 9185 d13c 2b3d 8c3e 6cca 973d ae8a ea3c
00000060: e55f ba3d 5bcf bf3d 31d2 e43d f7c5 89be
00000070: 0759 b4bc 1bad 4c3e 786a 08be c9bd 1b3d
00000080: 5795 643e 72d7 5ebb d5d8 9cbb 1d0b a8bc
00000090: 5fa5 3abe 18b0 f6bd cba9 d6bd 9a0c 6fbc
000000a0: 49a8 743d 2f1c 303d cc01 3d3d 2d23 8d3e
000000b0: 213c 663e 63ad 4abe a2e6 363d eb2a 703d
000000c0: 74ed 473e 17a8 86bc 27c1 193e e257 883c
000000d0: e891 65be 85aa b1bc 8385 743e 02c6 82be
000000e0: ba74 c13d 6eb9 8abe 4d71 36bc 85cc 8bbd
000000f0: 5c97 feb8 86c3 8c3e 74ed 8e3d 907b 5fbe
00000100: 71ae aebb 0286 33be 356b e6bd b42a 663e
00000110: 5f25 b93c 0fab 2f3d 936d 30bd b58b 84be
00000120: 65b2 88be d23e 453d 8bf5 2dbe 88d0 65be
00000130: 2c41 e1bd 002c 25be 2d0a 5c3e 3b5b 8b3e
00000140: da02 373e f288 0bbe 76b2 3c3e 87b5 4fbe
00000150: 6f13 e3bc 3aa0 3dbe ee04 833e d35b 6f3e
00000160: 9d47 8ebe 3832 783e 723e 993d 75c8 24be
00000170: d49d 5f3e 4b58 853e 1fb1 833e 2640 dd3d
00000180: 5160 8b3e 6c3e 583e 3415 783e e817 a63d
00000190: 6c1c 643e 26d9 5c3e b2bd 583e 0caf debd
000001a0: cd2f 043e e453 8dbe 27e1 29bd 7f6a 563e
000001b0: 5874 06be f2ad 9bbc d486 3ebe db1a 1e3e
000001c0: d5ab 433e 8634 923e f98e a6bd d4b7 5e3e
000001d0: d9a3 84be cf68 5c3e e97c 44be e292 24bd
000001e0: 27d8 a9bd e7c3 a8bd e328 803e d89c 893e
000001f0: c1b3 383e 923f 913e 3181 923e 0691 343e
00000200: 2651 90be 7b21 133d 117e 8f3e a892 1b3e
00000210: a8fe 47be 3dc9 56bd 8204 943e a0e4 893d
00000220: 28de 9a3d bbd6 b03d ea82 bdbd af68 6b3e
00000230: 5504 423e 5213 713b 6243 b4bd 29e4 50be
00000240: 5584 183e b41e 6b3e 7afc ee3c a313 a7bd
00000250: 5911 2c3e 1734 153d 32f3 8b3e 5847 6f3e
00000260: fa46 1d3e 5b9f 1b3e 297a 7abe ace4 123d
-0.006205678 -0.12918371 -0.23188537 0.19714436 0.21396284 0.2412585 -0.24960071 0.26275152
0.20648594 0.26320833 -0.28318116 -0.13268536 0.035906117 -0.06412958 -0.07321657 -0.25372422
0.0078297295 0.15911739 0.055886347 -0.0073954244 0.025576385 0.27390417 0.07411656 0.02863058
0.09100322 0.09365722 0.11172903 -0.26908848 -0.022015108 0.1998791 -0.13321865 0.03802279
0.22322594 -0.0034002927 -0.0047865906 -0.020513112 -0.18227147 -0.12045306 -0.10481604 -0.014590407
0.0597308 0.042995628 0.04614429 0.275659 0.22483875 -0.19792704 0.044653542 0.05863468
0.19524175 -0.016437573 0.15015088 0.016643468 -0.2241894 -0.021687755 0.23879056 -0.25541693
0.09446092 -0.27094597 -0.011135411 -0.068261184 -0.00012139857 0.27492923 0.06978884 -0.21824479
-0.0053308536 -0.17531589 -0.11250917 0.22477227 0.022600828 0.042887744 -0.043073248 -0.25887838
-0.26698604 0.048155613 -0.16988198 -0.2244283 -0.10998759 -0.16130066 0.21488257 0.2721804
0.17872182 -0.13626459 0.18427452 -0.20284091 -0.027719228 -0.18518153 0.255897 0.23374872
-0.27789012 0.24237907 0.074826136 -0.16092093 0.2183755 0.26043925 0.2572107 0.10803251
0.2722192 0.21117562 0.24226838 0.081100285 0.22276467 0.2156721 0.21166113 -0.10873231
0.1290886 -0.27603066 -0.041474488 0.20939063 -0.13130319 -0.019003842 -0.1860612 0.15439932
0.19108517 0.28555697 -0.081327386 0.21749812 -0.25906256 0.21524356 -0.19188274 -0.04017914
-0.08293181 -0.082404904 0.25031194 0.26877475 0.1803732 0.28368813 0.2861419 0.17633447
-0.2818691 0.0359206 0.2802587 0.15192664 -0.19530737 -0.05243801 0.2890969 0.0673306
0.07561904 0.086347066 -0.092534855 0.22989152 0.18946965 0.0036785197 -0.08801915 -0.20399536
0.1489423 0.22960931 0.029173125 -0.08158042 0.16803493 0.03642663 0.2733398 0.23367059
0.15359107 0.15197508 -0.24460663 0.03586261

fc.2.weight f4 [4, 156]
00000000: bdbf 9f3c 0f39 8ebd db31 4e3d c136 9bbd
00000010: 4601 89bc a7dc 0b3d 5919 21bc c6dc a33d
00000020: 3e05 9fbc b474 433d eba6 463d 1644 8b3d
00000030: 5854 4cbd db2e e53c 3777 d7bc a481 f6bc
00000040: d16f 893d 3730 003c a131 a03d 5af5 44bd
00000050: 13df 1b3c 3711 2cbc 4639 c83c 2bd6 0ebd
00000060: 6216 98bd ee9f 89bd de14 4a3d 1934 023d
00000070: 2fff 013d 9d8d 5ebd ece2 483d 75de 9e3d
00000080: fad5 f7bc a408 933d 6096 673d 00c8 a5bd
00000090: 9290 7a3c 1700 c23c 23e3 88bc a0c8 1dbd
000000a0: fecd 033d 8599 bc3c 55b3 f83c f14b a53d
000000b0: 869c d63c 1334 233d 5de7 0b3c 93c5 96bc
000000c0: a859 823c 51d3 11bd a9cb 64bd c933 a5bd
000000d0: 8aca 84bd e3bc 1e3c a4bf 833d 3d99 603d
000000e0: 4ace 153b 1801 80bd 458a 9abd 5e69 8c3d
000000f0: f839 73bc 208d 4e3d 653d d93c 938c fbbc
00000100: 44ec 6e3b 72a0 333d db8f 07bd b05c 90bc
00000110: 0b56 28bd d18e 303d 0a73 49bd 7a98 8abd
00000120: d288 a1bb dd33 813c 6bc7 7dbd 51c2 60bd
00000130: 4b8e 73bc 029b 6b3c 5934 863d cd0e 9cbd
00000140: 76f9 913d 46ba 633d 55d2 1ebd 98b4 99bd
00000150: 33d1 d53c d52c 643d f4e6 063b 1866 813b
00000160: 71c9 f53c 6cfc af3c 4d26 233d 4ef4 85ba
00000170: 7347 783d 3285 ca3a 44b8 efbc 0b2b 9bbd
00000180: 9a25 683d 41b0 f43c 8262 0dbd 6fe7 423d
00000190: bbe9 8bbd 5d90 0cbd 14c6 ac3b adab 92bd
000001a0: 82e2 483c d223 6c3c ceb7 8c3c b895 cf3b
000001b0: fa2a 33bd 11e1 53bd d58a 8abd ca71 e23b
000001c0: 659d ce3c 6a61 b5bc 14e8 66bd 9eb8 9fbd
000001d0: f0ad 803b b891 453d 9b24 8cbd 1d9b 213d
000001e0: 2c69 12bd 155f 0b3d 8206 543d 82ec 21bd
000001f0: f428 0ebb 745c 95bd b7e2 30bc 8d04 9ebd
00000200: b45d d23c fd2f 89bd 0b7b 3f3d 93ee d2bc
00000210: d2d4 8a3d 260f 773d 7e9b a23d 1ffd 89bd
00000220: 963b 9c3d c026 91bb 91cb e8bc c061 4ebd
00000230: 9032 873d 0fee f9bc 5633 913d e9e0 813d
00000240: 54d9 37bd a231 66bd bfec 9fbc 3cc5 4ebd
00000250: 3bb2 4e3c 90ed ef3c f225 c23c ed70 98bc
00000260: 30da 993a 4251 093d af82 833b d439 9f3c
00000270: 1535 9bbd ffe9 313d 2eed 863c 4954 093c
00000280: 74a0 d8bc 505f fa3c aa12 d7bc a33d fb3a
00000290: bcec 99bd 41dc 18bc 4dd3 febc 845c 03bc
000002a0: 8c2f 523d 4140 6abd d094 193d 479b a13d
000002b0: 0382 903b a8f8 14bc de1b fdbc 31f8 cf3b
000002c0: 2464 3c3d 45e8 b13b fa60 953d 7c53 f8bc
000002d0: d2db 16bd 80c1 7ebc 94a0 7b3d dcb3 f43c
000002e0: ee41 603d e09c 4f3c b693 bc3c 3ee8 e93c
000002f0: 532e 093d be0c 7039 ced9 52bd 4a20 833c
00000300: cada a1bd 9c95 5fbd 85f2 0d3b 4c94 a3bb
00000310: 8429 41bd 4d9b c5bc 2c95 cebc 1d13 3dbd
00000320: f6be 0e3c c8b9 83bc 6e2f e33b e412 0e3c
00000330: 6861 903c b57d 473b 9a60 92bd b4f5 87bc
00000340: 8c8e 34bd cddf 9f3d 5d8e a23d 82fe b4bb
00000350: f7dd 493d 8943 803d e3e8 33bb e558 8b3c
00000360: 625c 75ba 1381 223d 6528 853c 3fe5 863d
00000370: 0fec 023d 81c1 e43c 8e4e e13c 6797 213d
00000380: 8daf f8bc e353 87bd 201f 2cbd 7319 8dbd
00000390: 5b89 02bd 61dd 77bd 3592 04bd 3580 283d
000003a0: ce63 e5bc 3a37 2a3d 8b9f a63b 308a 94bd
000003b0: daeb 67bc 67e4 453c 95ff 6b3c b0a0 863c
000003c0: 135a a2bd a93c 5b3d 24f6 9f3c 0651 1dbd
000003d0: d7e5 81bd 4953 96bd f8f2 4ebd 70c6 92bc
000003e0: 826c 63bd 1855 573d 0fda 2b3d 9de6 9bbc
000003f0: c19d 60bd 3771 023d baf2 68bd 2f4b 643d
0.019500608 -0.06944477 0.050340515 -0.07578803 -0.01672424 0.034145977 -0.0098327035 0.080010936
-0.01941168 0.04771872 0.04849903 0.06800096 -0.049885124 0.027976444 -0.026301963 -0.030091114
0.067107804 0.007823995 0.07821966 -0.048085548 0.009513634 -0.010502151 0.024441373 -0.034872215
-0.07426144 -0.06719957 0.049336307 0.031787965 0.031737503 -0.05433427 0.049044535 0.07757274
-0.0302534 0.071793824 0.056539893 -0.080947876 0.015293257 0.023681683 -0.01670987 -0.03852141
0.03217887 0.023022423 0.03035895 0.08071125 0.026197683 0.039844584 0.008539048 -0.018404758
0.015911892 -0.035601918 -0.055858288 -0.08066518 -0.06483944 0.009688589 0.06433037 0.05483364
0.0022858554 -0.062502086 -0.07545904 0.06856035 -0.014845364 0.050427556 0.026518533 -0.03070668
0.0036456743 0.043854184 -0.033096176 -0.017622322 -0.041097682 0.04310495 -0.049181975 -0.06767364
-0.0049296403 0.0157718 -0.061957758 -0.054872815 -0.014865468 0.014380218 0.06552953 -0.076200105
0.07127659 0.055597566 -0.038774807 -0.07505149 0.02610073 0.055706818 0.0020584436 0.003948938
0.030003281 0.021482669 0.03983145 -0.0010219903 0.060615014 0.0015451072 -0.02926267 -0.07576569
0.056676485 0.0298692 -0.034517772 0.047583994 -0.0683169 -0.034317363 0.005272636 -0.07161651
0.012261035 0.014412837 0.017177489 0.0063349865 -0.043742158 -0.051728312 -0.06764761 0.0069105374
0.025221536 -0.022141177 -0.05637367 -0.07798885 0.003926985 0.04823467 -0.068429194 0.03945457
-0.03574483 0.034026224 0.05176402 -0.039532192 -0.002169189 -0.07293025 -0.0107962405 -0.07715712
0.025679447 -0.06698606 0.046748202 -0.025748527 0.067788735 0.06031718 0.07939814 -0.06737732
0.076285526 -0.004429668 -0.02841738 -0.05038619 0.06601441 -0.030509023 0.0708987 0.06341726
-0.044884995 -0.056199677 -0.019522069 -0.050481066 0.012615736 0.029288083 0.023699734 -0.018608535
0.0011737999 0.03352476 0.0040133814 0.019436754 -0.07578484 0.043436047 0.016470518 0.008381912
-0.026443698 0.030563027 -0.026254017 0.001916815 -0.075158566 -0.009329856 -0.031106615 -0.008017663
0.051314875 -0.057190184 0.037495434 0.07890945 0.00441003 -0.009092487 -0.030897077 0.0063467254
0.04599394 0.0054293 0.072938874 -0.030313246 -0.03683073 -0.015549064 0.061432436 0.02987092
0.054750375 0.012671679 0.023019653 0.028553125 0.033491444 0.0002289293 -0.051477246 0.016006608
-0.07903059 -0.054586038 0.0021659445 -0.0049920436 -0.047158733 -0.024121905 -0.025217615 -0.046160806
0.008712521 -0.016079798 0.0069331443 0.008671496 0.017624572 0.0030439917 -0.071473315 -0.016596653
-0.044081256 0.078063585 0.0793731 -0.0055235038 0.049283948 0.06262881 -0.0027452044 0.017010162
-0.00093597744 0.039673876 0.016254613 0.06586694 0.031963404 0.027924301 0.027503278 0.03945103
-0.030357147 -0.06607797 -0.04202187 -0.0688962 -0.031869274 -0.060513858 -0.032365996 0.041137893
-0.028001692 0.041556574 0.005084937 -0.0725292 -0.0141553525 0.012078381 0.014404197 0.016434044
-0.079273365 0.053524647 0.019526549 -0.038407348 -0.063426666 -0.07340104 -0.05052468 -0.017916888
-0.055523403 0.052571386 0.041956004 -0.019030863 -0.054837946 0.03184625 -0.056872107 0.055735763

fc.2.bias f4 [4]
00000000: a65a ffbb 6aa3 96bc 75e2 6f3d 0b40 593d
-0.0077927886 -0.018388469 0.058565576 0.05303959
