Models/score_60_model_492901.pt (torch, 12127 bytes, 4 tensors)

fc.0.weight f4 [156, 12]
-0.014661957 -0.014198573 0.24185176 0.09543256 0.14452079 -0.19493607 0.023297777 0.22527541
-0.026722979 -0.03506707 -0.07390992 0.22432154 -0.17719415 0.002591342 -0.23981942 0.24172682
-0.27041218 -0.11955705 -0.25280917 -0.25647599 -0.25086978 0.048259117 0.011707784 -0.19211993
-0.23637676 0.23284338 -0.0064163604 0.20150118 0.0006277227 -0.23125608 0.12449696 0.1880076
-0.007451793 -0.02798066 -0.2674708 0.03013506 -0.0986283 0.15442455 -0.27789208 -0.1373983
0.1802958 0.26072732 -0.19217072 0.09822238 0.06478887 0.2701086 -0.21021837 -0.23467916
0.17665704 -0.24628784 -0.0666388 0.09295125 -0.0014023746 -0.28126967 -0.019878866 0.058077984
0.13484126 -0.062086012 0.18018645 -0.022527354 0.25011295 0.22180289 -0.17147242 -0.2033011
0.13317388 -0.025149986 0.09870617 0.17150657 -0.18914603 -0.2597034 -0.08117441 0.08207144
0.26664072 0.012096802 0.122982636 0.023611937 0.034406118 -0.27887228 0.22802374 -0.21750607
-0.23146099 0.087290935 -0.07110348 0.021861663 0.23424461 0.15106869 0.25181916 0.16754235
-0.14487085 0.0036475258 -0.10342582 0.032938145 0.18138476 0.25115272 -0.038459335 -0.06440416
0.23903835 0.26604912 0.24808668 -0.06342732 -0.2600975 0.028659137 -0.052780986 0.24779673
0.20716864 0.13229543 0.0167856 -0.2612657 0.0036975539 0.09030528 0.030603 0.06290628
0.09439272 0.11851823 0.1998325 0.059595466 -0.17528504 0.16609514 -0.015920676 -0.17587721
-0.024706442 0.2113385 0.12165 0.24508187 -0.06015339 0.26796255 -0.18690324 0.14090015
-0.17043705 0.27842847 0.045469083 0.15270235 -0.12118844 0.024690632 0.19364688 0.0051561194
-0.046241213 -0.002632246 -0.10338573 0.03289201 -0.03107439 0.10986111 0.0842873 0.21737991
0.12987512 0.000475263 -0.2896684 0.21764545 0.02080536 0.09220904 0.15027216 -0.2659091
0.1927312 -0.016969722 -0.20704544 -0.17746077 0.07051586 0.28044036 0.15191169 0.063652605
0.09342624 -0.02791863 -0.13624528 -0.100070976 -0.23705655 -0.10880341 0.13336495 -0.20120636
0.16279781 0.13581233 0.12029949 0.029198987 0.17880046 0.1966085 -0.2603399 0.15416491
-0.060921412 0.13107671 0.14004768 -0.14372969 -0.034292903 -0.051717784 0.09559391 -0.1100828
0.08802803 0.2623203 -0.2534083 0.05464047 -0.2551275 0.022876794 0.22552638 0.24389704
-0.15030506 -0.13525331 -0.006744817 -0.1554681 -0.19066574 0.2746022 0.273962 0.13585879
0.10397982 -0.036498748 -0.25162286 0.034296796 0.22691116 -0.27708876 0.14088988 0.109505065
0.18679823 -0.037766933 0.17930302 0.028272454 0.26289266 -0.005500607 0.27856147 0.19250508
-0.018815976 -0.17373742 0.043950804 0.027117621 0.18092543 -0.014517475 0.17850618 -0.12614645
-0.10394596 -0.21404088 0.1392565 0.08842677 0.19616467 0.18229036 -0.052708242 0.0076887235
-0.111003146 0.09083226 0.010346903 -0.21770573 0.23845449 0.006995339 0.21174528 0.09787009
-0.2834644 0.12794425 0.26486063 -0.012720456 0.07059656 -0.26090223 -0.26428837 0.012187064
0.11767757 0.12063828 -0.05139483 -0.040519442 0.20382312 0.17523843 0.09251526 -0.25942817
00000000: b438 70bc 22a1 68bc fda7 773e 2572 c33d
00000010: 42fd 133e 529d 47be fbda be3c 99ae 663e
00000020: 26ea dabc 7da2 0fbd 165e 97bd 8cb4 653e
00000030: 6272 35be 81d3 293b 3993 75be 3c87 773e
00000040: 7773 8abe 54da f4bd 3470 81be d250 83be
00000050: 0172 80be 5aab 453d 01d2 3f3c 16bb 44be
00000060: c00c 72be 7f6e 6e3e 5540 d2bb 5356 4e3e
00000070: c28d 243a 65ce 6cbe 43f8 fe3d 1085 403e
00000080: 2c2e f4bb b237 e5bc eff1 88be cddd f63c
00000090: a2fd c9bd 7821 1e3e df47 8ebe 24b2 0cbe
000000a0: 769f 383e 0d7e 853e 67c8 44be d128 c93d
000000b0: 07b0 843d ad4b 8a3e 7c43 57be bc4f 70be
000000c0: 95e5 343e e132 7cbe ec79 88bd 3a5d be3d
000000d0: e2cf b7ba 9402 90be 01d9 a2bc 2ee3 6d3d
000000e0: d413 0a3e e74d 7ebd cc82 383e 498b b8bc
000000f0: ce0e 803e 4c20 633e 7796 2fbe 2a2e 50be
00000100: bc5e 083e 5807 cebc 7626 ca3d 6b9f 2f3e
00000110: 7faf 41be d8f7 84be c53e a6bd 1215 a83d
00000120: 2285 883e aa31 463c 52de fb3d d26d c13c
00000130: 6eed 0c3d 59c8 8ebe 0e7f 693e e9b9 5ebe
00000140: 1c04 6dbe 97c5 b23d b49e 91bd 3b17 b33c
00000150: d2dd 6f3e c0b1 1a3e 71ee 803e 3990 2b3e
00000160: 0659 14be 540b 6f3b ebd0 d3bd 26ea 063d
00000170: edbc 393e 1797 803e 8987 1dbd 54e6 83bd
00000180: 78c6 743e 9737 883e 6f0a 7e3e 2fe6 81bd
00000190: 802b 85be 91c6 ea3c e030 58bd 6dbe 7d3e
000001a0: 0424 543e 7478 073e f481 893c 9ec4 85be
000001b0: a952 723b faf1 b83d 25b3 fa3c 02d5 803d
000001c0: f850 c13d b0b9 f23d e4a0 4c3e 601a 743d
000001d0: ec7d 33be d814 2a3e 146c 82bc 2819 34be
000001e0: 2a65 cabc 1f69 583e a323 f93d bef6 7a3e
000001f0: 6763 76bd 6332 893e 9063 3fbe 2148 103e
00000200: 0d87 2ebe 2d8e 8e3e ca3d 3a3d 015e 1c3e
00000210: a531 f8bd 0244 ca3c 5e4b 463e aaf4 a83b
00000220: 6d67 3dbd c281 2cbb e6bb d3bd c6b9 063d
00000230: b88f febc ddfe e03d d29e ac3d d798 5e3e
00000240: fcfd 043e b82c f939 6b4f 94be 73de 5e3e
00000250: 0170 aa3c 18d8 bc3d f2e0 193e 3d25 88be
00000260: 545b 453e 1604 8bbc b803 54be 47b8 35be
00000270: 9f6a 903d e195 8f3e bd8e 1b3e 4c5c 823d
00000280: 4256 bf3d 9cb5 e4bc e283 0bbe 03f2 ccbd
00000290: f4be 72be 52d4 debd d290 083e 0a09 4ebe
000002a0: 78b4 263e 6312 0b3e 945f f63d b732 ef3c
000002b0: 7817 373e bd53 493e 454b 85be 68dd 1d3e
000002c0: bb88 79bd f938 063e a968 0f3e e02d 13be
000002d0: b776 0cbd 07d6 53bd bdc6 c33d 1773 e1bd
000002e0: 0a48 b43d d94e 863e bcbe 81be afce 5f3d
000002f0: 12a0 82be 1d68 bb3c 63f0 663e 25c0 793e
00000300: 92e9 19be d87f 0abe a003 ddbb 0833 1fbe
00000310: e13d 43be a998 8c3e bf44 8c3e 911e 0b3e
00000320: 5ff3 d43d b67f 15bd b6d4 80be cc7a 0c3d
00000330: 665b 683e 94de 8dbe 7045 103e 3144 e03d
00000340: 0948 3f3e 80b1 1abd 369b 373e a29b e73c
00000350: de99 863e 703e b4bb 9c9f 8e3e 0d20 453e
00000360: f623 9abc 39e8 31be c205 343d c625 de3c
00000370: 8444 393e b4da 6dbc 53ca 363e 892c 01be
00000380: 9fe1 d4bd 882d 5bbe 4299 0e3e 1819 b53d
00000390: 64df 483e 53aa 3a3e 99e4 57bd b0f1 fb3b
000003a0: 9e55 e3bd 4406 ba3d 0e86 293c 40ee 5ebe
000003b0: 6a2d 743e 2839 e53b c1d3 583e 1d70 c83d
000003c0: 3f22 91be d103 033e d09b 873e 7669 50bc
000003d0: ee94 903d fa94 85be ce50 87be 40ac 473c
000003e0: f000 f13d 3411 f73d 6383 52bd b7f7 25bd
000003f0: 02b7 503e b471 333e a478 bd3d c5d3 84be

fc.0.bias f4 [156]
-0.0053922674 -0.12937017 -0.23376898 0.19687383 0.21499899 0.24067317 -0.24927735 0.26347083
0.2069275 0.2630382 -0.2835799 -0.13222238 0.03633175 -0.06449457 -0.07294012 -0.2558334
0.0062944987 0.16072008 0.054895174 -0.009540118 0.025718637 0.27162316 0.07469826 0.030909924
0.09080978 0.09489911 0.108726904 -0.268428 -0.0225214 0.19983418 -0.13318427 0.03965153
0.22675602 -0.0023292021 -0.0042918 -0.020456156 -0.18222131 -0.1193647 -0.10524826 -0.014835553
0.061401922 0.0431321 0.045042504 0.27525398 0.22301197 -0.19672433 0.04624139 0.058851205
0.19536588 -0.016539201 0.1496139 0.017801618 -0.22272184 -0.022218501 0.23906524 -0.25463855
0.09352627 -0.26853862 -0.01049051 -0.06839688 0.0018116714 0.27561173 0.07019199 -0.21849833
-0.005064727 -0.17654586 -0.1140853 0.22308911 0.022994127 0.043602254 -0.042396534 -0.2589327
-0.26831958 0.047438674 -0.17005774 -0.22438611 -0.1100699 -0.1609415 0.21411392 0.27141994
0.17873542 -0.13575684 0.18624318 -0.20161302 -0.02737007 -0.18481778 0.25651398 0.23300834
-0.27981427 0.24146739 0.0743932 -0.16214782 0.2184 0.25975442 0.2577093 0.107041605
0.2728624 0.21155424 0.24329185 0.081313334 0.2246835 0.21601772 0.21079792 -0.10901418
0.12864792 -0.27735332 -0.043267913 0.2105023 -0.13187182 -0.017167 -0.18483834 0.1541267
0.19049414 0.28669086 -0.08206439 0.21539156 -0.25820887 0.21467961 -0.19171634 -0.04058707
-0.08384393 -0.08238469 0.25002852 0.26836398 0.18094732 0.28379562 0.283646 0.17482823
-0.27995947 0.03842085 0.28068945 0.15353177 -0.19572248 -0.054586556 0.28815854 0.06928822
0.07342066 0.08522492 -0.092043914 0.23251745 0.19154061 0.0026998778 -0.0882715 -0.20307358
0.14865278 0.2293181 0.031008359 -0.083016925 0.16863656 0.03827957 0.27294376 0.23416373
0.1543362 0.15225115 -0.24294189 0.03455155
00000000: 9eb1 b0bb 9d79 04be 2361 6fbe 4b99 493e
00000010: b228 5c3e 0773 763e 9042 7fbe a6e5 863e
00000020: cde4 533e f1ac 863e 6231 91be 4e65 07be
00000030: 9ad0 143d bb15 84bd a161 95bd 98fc 82be
00000040: 1542 ce3b ce93 243e c3d9 603d 284e 1cbc
00000050: e4af d23c 3112 8b3e 67fb 983d cf36 fd3c
00000060: 7afa b93d 775a c23d 36ac de3d 656f 89be
00000070: cd7e b8bc 55a1 4c3e 7561 08be a569 223d
00000080: bb32 683e 87a5 18bb 3aa2 8cbb ab93 a7bc
00000090: 3998 3abe 7b75 f4bd 668c d7bd d210 73bc
000000a0: 9580 7b3d 49ab 303d 7d7e 383d 17ee 8c3e
000000b0: 405d 643e 1a72 49be 9d67 3d3d f60d 713d
000000c0: fe0d 483e 387d 87bc 6334 193e b3d4 913c
000000d0: 3211 64be 9303 b6bc 85cd 743e fc5f 82be
000000e0: b38a bf3d e57d 89be 63e0 2bbc aa13 8cbd
000000f0: 9b75 ed3a fb1c 8d3e d1c0 8f3d 07be 5fbe
00000100: 02f6 a5bb 70c8 34be 8ea5 e9bd 7971 643e
00000110: 2e5e bc3c 4798 323d fda7 2dbd d492 84be
00000120: 2f61 89be 0e4f 423d 9e23 2ebe 79c5 65be
00000130: 546c e1bd d9cd 24be ae40 5b3e 8ef7 8a3e
00000140: 6b06 373e d703 0bbe 88b6 3e3e a573 4ebe
00000150: 3237 e0bc df40 3dbe cd55 833e bd99 6e3e
00000160: d143 8fbe 3a43 773e 765b 983d 140a 26be
00000170: 40a4 5f3e 88fe 843e 79f2 833e a138 db3d
00000180: 9fb4 8b3e ada1 583e 8021 793e 9b87 a63d
00000190: 6e13 663e c033 5d3e 69db 573e d442 dfbd
000001a0: 48bc 033e 4101 8ebe b239 31bd ea8d 573e
000001b0: 6809 07be cfa1 8cbc 4346 3dbe 64d3 1d3e
000001c0: e510 433e 25c9 923e 6011 a8bd 9b8f 5c3e
000001d0: f433 84be f9d4 5b3e 4a51 44be a13e 26bd
000001e0: 5eb6 abbd 4eb9 a8bd bd03 803e 0167 893e
000001f0: 414a 393e a94d 913e 0c3a 913e 2c06 333e
00000200: d956 8fbe 2e5f 1d3d 87b6 8f3e 6f37 1d3e
00000210: 796b 48be 2796 5fbd 8489 933e fbe6 8d3d
00000220: 925d 963d 678a ae3d 8581 bcbd 0e19 6e3e
00000230: 3923 443e 6ff0 303b b0c7 b4bd 85f2 4fbe
00000240: 6f38 183e 5dd2 6a3e 3e05 fe3c c704 aabd
00000250: 10af 2c3e 0acb 1c3d 49bf 8b3e 9ec8 6f3e
00000260: 4f0a 1e3e bae7 1b3e c2c5 78be ed85 0d3d

fc.2.weight f4 [4, 156]
0.018159628 -0.070305996 0.05101079 -0.07618032 -0.018186893 0.033381198 -0.010007718 0.07973475
-0.01899746 0.046964068 0.049707193 0.06768384 -0.051163733 0.026446046 -0.025903272 -0.03047539
0.06661625 0.008441847 0.076867096 -0.049337614 0.0109114405 -0.010327485 0.021893525 -0.03610179
-0.074033454 -0.06530237 0.049998473 0.031753264 0.032874368 -0.054839887 0.049332947 0.07802304
-0.032277606 0.07146221 0.05547782 -0.08274648 0.015909983 0.023394419 -0.017595325 -0.0397709
0.031609163 0.022361893 0.02964457 0.07948922 0.029247774 0.039244894 0.010130337 -0.01716358
0.015620524 -0.035021592 -0.056631684 -0.07876343 -0.06326464 0.0100115035 0.064032935 0.05501684
0.0013620105 -0.06476906 -0.07554349 0.06895495 -0.016544774 0.0495879 0.026089797 -0.031889133
0.003462426 0.044150546 -0.03334972 -0.017798407 -0.039667483 0.042816892 -0.046558768 -0.06448268
-0.0029439046 0.016236179 -0.060583208 -0.055109546 -0.015301477 0.015473489 0.066403724 -0.07576092
0.071990386 0.055575393 -0.039870154 -0.07661989 0.027564326 0.05749863 0.0024353422 0.006112669
0.029004015 0.02085856 0.040052492 -0.00078806956 0.059569977 0.00066120754 -0.027837137 -0.07636474
0.05567495 0.029880455 -0.03537984 0.04648728 -0.06925195 -0.03420821 0.0058155917 -0.071924135
0.013384677 0.015654566 0.01687213 0.006885912 -0.043248985 -0.05072828 -0.06689835 0.0045827087
0.023672862 -0.022239357 -0.05658603 -0.08103333 0.0033552253 0.04693909 -0.067241415 0.03954629
-0.035086725 0.032374505 0.05200873 -0.03842874 -0.0021853049 -0.07333305 -0.010822041 -0.07833237
0.025133545 -0.06458688 0.044883568 -0.02561675 0.06720119 0.05957873 0.079762675 -0.069523424
0.078207895 -0.0057870974 -0.029007223 -0.04979982 0.06559271 -0.03161481 0.06969985 0.062427573
-0.045426816 -0.0539911 -0.018196592 -0.050063867 0.013300639 0.028691422 0.02430982 -0.02076603
0.00011936596 0.033930484 0.004289421 0.018346919 -0.07560728 0.04477087 0.01724224 0.009236589
-0.02789684 0.0285677 -0.026955774 0.0012887082 -0.075749554 -0.009936363 -0.028830675 -0.0073569925
0.052217185 -0.055716064 0.037771057 0.07873238 0.0039036535 -0.010436757 -0.029338663 0.005172854
0.04569926 0.0052524116 0.071902975 -0.031156456 -0.036312573 -0.015166457 0.06258837 0.02886561
0.05443977 0.012088064 0.022334509 0.03049404 0.03396247 0.0025700817 -0.04875509 0.017851328
-0.07943408 -0.05382956 0.0015381508 -0.005983646 -0.04703672 -0.0229824 -0.024721984 -0.045909952
0.00872055 -0.017715521 0.008467375 0.008207801 0.017721582 0.0023041016 -0.06977564 -0.016220404
-0.04355793 0.0768742 0.0790785 -0.0034873455 0.049220093 0.061582364 -0.0034412923 0.014686273
0.0002330541 0.039535604 0.016585195 0.0648483 0.032073405 0.026392939 0.02601113 0.03855943
-0.030605854 -0.06564313 -0.041545972 -0.066151276 -0.033510547 -0.06172838 -0.032258555 0.040541798
-0.02799676 0.042257607 0.005131869 -0.07315063 -0.01245501 0.0111813275 0.012688134 0.016542912
-0.07727787 0.0543063 0.018718155 -0.039101474 -0.063085094 -0.07299255 -0.0501585 -0.018218866
-0.052836224 0.05196667 0.041932117 -0.018703213 -0.05345247 0.03312554 -0.057303093 0.055924803
00000000: 80c3 943c 97fc 8fbd b1f0 503d 6d04 9cbd
00000010: aefc 94bc b9ba 083d 69f7 23bc f94b a33d
00000020: 90a0 9bbc 655d 403d c599 4b3d d39d 8a3d
00000030: 1091 51bd 61a5 d83c 1933 d4bc 86a7 f9bc
00000040: 1a6e 883d ac4f 0a3c 7f6c 9d3d 3d16 4abd
00000050: e6c5 323c 9d34 29bc 0d5a b33c 78df 13bd
00000060: da9e 97bd 40bd 85bd 33cb 4c3d b60f 023d
00000070: 46a7 063d ca9f 60bd 5811 4a3d 8bca 9f3d
00000080: 8635 04bd c75a 923d b63c 633d fd76 a9bd
00000090: a755 823c a7a5 bf3c 1224 90bc d0e6 22bd
000000a0: 9c78 013d 4a30 b73c 2bd9 f23c 3fcb a23d
000000b0: 0799 ef3c 41bf 203d b7f9 253c a39a 8cbc
000000c0: 3aed 7f3c cd72 0fbd a0f6 67bd b94e a1bd
000000d0: e490 81bd 4a07 243c b323 833d 5759 613d
000000e0: 7d85 b23a a4a5 84bd 8cb6 9abd 4138 8d3d
000000f0: e888 87bc af1c 4b3d 45ba d53c 2e9e 02bd
00000100: dee9 623b 34d7 343d b799 08bd f7cd 91bc
00000110: 5f7a 22bd c460 2f3d 68b4 3ebd 7f0f 84bd
00000120: 86ee 40bb bc01 853c 1926 78bd 8cba 61bd
00000130: 0cb3 7abc 8484 7d3c adfe 873d 8b28 9bbd
00000140: b26f 933d 06a3 633d e34e 23bd e4ea 9cbd
00000150: 95ce e13c af83 6b3d 439a 1f3b c94c c83b
00000160: d499 ed3c 92df aa3c 150e 243d 7496 4eba
00000170: a6ff 733d e354 2d3a b50a e4bc 1e65 9cbd
00000180: 6b0b 643d dbc7 f43c 73ea 10bd 7269 3e3d
00000190: f7d3 8dbd e81d 0cbd b890 be3b f64c 93bd
000001a0: 674b 5b3c 013e 803c 6c37 8a3c 37a3 e13b
000001b0: d925 31bd 75c8 4fbd 0102 89bd 8c2a 963b
000001c0: 97ed c13c 502f b6bc c1c6 67bd cdf4 a5bd
000001d0: 57e3 5b3b 3443 403d deb5 89bd 4afb 213d
000001e0: 19b7 0fbd 219b 043d 1b07 553d 7467 1dbd
000001f0: 5537 0fbb a32f 96bd ee4e 31bc b96c a0bd
00000200: dde4 cd3c 2046 84bd d5d7 373d 38da d1bc
00000210: c7a0 893d d408 743d 9d5a a33d 4c62 8ebd
00000220: 762b a03d b1a1 bdbb 8ea0 edbc e5fa 4bbd
00000230: 7955 863d 887e 01bd ccbe 8e3d 0eb4 7f3d
00000240: 7811 3abd c625 5dbd 0511 95bc c50f 4dbd
00000250: ecea 593c 460a eb3c 6325 c73c 851d aabc
00000260: 1d54 fa38 b1fa 0a3d 458e 8c3b 474c 963c
00000270: fdd7 9abd a961 373d 993f 8d3c 1055 173c
00000280: ea87 e4bc cf06 ea3c 5bd2 dcbc dfe9 a83a
00000290: 9522 9bbd 21cc 22bc 4f2e ecbc ed12 f1bb
000002a0: b0e1 553d 8736 64bd d3b5 1a3d 713e a13d
000002b0: 70d4 7f3b eefe 2abc a357 f0bc 0b81 a93b
000002c0: 262f 3b3d 6c1c ac3b de41 933d d33b ffbc
000002d0: 7ebc 14bd bb7c 78bc 552e 803d 9277 ec3c
000002e0: 3cfc 5e3d 040d 463c dcf6 b63c a3ce f93c
000002f0: 3b1c 0b3d d16e 283b 6bb3 47bd f33c 923c
00000300: 56ae a2bd 627c 5cbd c79b c93a 7612 c4bb
00000310: 93a9 40bd 9645 bcbc c285 cabc 130c 3cbd
00000320: a3e0 0e3c 2420 91bc bfba 0a3c 037a 063c
00000330: da2c 913c 6900 173b 88e6 8ebd a7e0 84bc
00000340: cd69 32bd 3870 9d3d e9f3 a13d f38b 64bb
00000350: 029b 493d ca3d 7c3d 4e87 61bb b29e 703c
00000360: fc5f 7439 16f0 213d addd 873c 2fcf 843d
00000370: 675f 033d 0136 d83c 4b15 d53c 7ef0 1d3d
00000380: 21b9 fabc e86f 86bd 1c2c 2abd 527a 87bd
00000390: 5b42 09bd e6d6 7cbd 8c21 04bd 280f 263d
000003a0: 7659 e5bc 5016 2d3d 3d29 a83b ffcf 95bd
000003b0: 1910 4cbc e331 373c e4e1 4f3c 0085 873c
000003c0: dc43 9ebd 4870 5e3d d156 993c de28 20bd
000003d0: c232 81bd 1e7d 95bd 0073 4dbd bb3f 95bc
000003e0: cc6a 58bd 01db 543d 03c1 2b3d 7b37 99bc
000003f0: faf0 5abd a5ae 073d a6b6 6abd 6811 653d

fc.2.bias f4 [4]
-0.006711124 -0.018220302 0.060791574 0.053738166
00000000: fde8 dbbb be42 95bc 9600 793d 8d1c 5c3d
