Models/score_40_model_248196.pt (torch, 9695 bytes, 4 tensors)

fc.0.weight f4 [120, 12]
00000000: 12e4 893e 8e73 da3d 0081 413d 8b34 1bbe
00000010: b739 943c 689f 1bbe 8a3d 8c3d 001f 2a3d
00000020: 08b3 9a3d 77f9 39be a44e e63d 3803 07be
00000030: a022 0ebc e604 57be 0e1d 663e fe3c 913d
00000040: e529 79be c860 cfbd c89a fd3d d19a 6d3e
00000050: e062 4ebc 979d 3ebe 00b0 34bb 585c d3bd
00000060: e5a1 0dbe ccad b1bd d068 74bd c639 84bd
00000070: 1688 8abe 799a 1bbe cdb9 283e 981d 58bd
00000080: 7dc4 8d3e a4b7 d43d e6a7 863e 2ebb 70be
00000090: 09ab 06be 25ba 6fbe caa6 29be 2c39 3bbd
000000a0: e181 1e3e 67dc 23be 9a87 853d 8791 143e
000000b0: e800 97bd dd45 10be 5e62 853e 8004 dfbb
000000c0: 8066 33be 9eba 9ebd bad4 d53d a6f3 46be
000000d0: 062a 5abe 0e20 ac3d c06c 793c 280e f6bd
000000e0: 8e2c 7cbe d87e 2b3d c14a 69be d08b 42be
000000f0: 7c00 883e 31c2 433e b491 8c3e d048 dabc
00000100: e24d 873e 30c0 fabd edc0 183e a70f 78be
00000110: 08c6 65bd b090 a03d de6e 11be 40cb 5b3d
00000120: 6012 4f3c a281 c6bd 94b6 933d 5d42 3f3e
00000130: 6e46 663e ee6d 0b3e ffe1 8c3e 6aff 733e
00000140: 4d64 02be eb22 923e 4c1f 70be 8d58 443e
00000150: 6ec3 c3bd 0ce3 2b3e 848d 8c3e 2996 f4bc
00000160: 6410 813e 2e74 45be 1098 b63c c4c8 4cbe
00000170: 80e6 7dbb 271b 683e 4257 b4bd 5064 943d
00000180: 283f babd f04e 82bc b076 4cbd 19a7 863e
00000190: 3026 ad3d c073 983c 7d4a 6ebe 6a32 57be
000001a0: 5a7d 7ebe 4917 33be a05d e13d 5015 07be
000001b0: 770b 863e b1ab 5abe 89d0 703e 0809 823e
000001c0: 8b0a 733e 0275 473e fc67 7e3d 0a81 b93d
000001d0: 4ae4 023e 801d 81bb 5aac fd3d 6669 91bd
000001e0: 71a7 6ebe 39bb 0b3b 0220 6e3e a844 12bd
000001f0: 60f8 203d 6064 ab3c 2084 76bc 0cb4 41be
00000200: c56f 293e 880b 0ebe c0d6 dabd d40c 8a3e
00000210: f06d ff3d b85a 89be ce7b 81be f65d f03d
00000220: cb92 8cbe f7f1 8fbe c23d e83d 071e 0fbe
00000230: f455 3d3e ee1f 28be e50e 15be 7805 6abd
00000240: b658 303e e85e 853e 3610 883e 4618 ed3d
00000250: 209f 623d bde8 3a3e 701d e7bc 6e6f 4e3e
00000260: d05a 7abe 9d45 853e 207d 0d3c b2b5 ba3d
00000270: ca1f e43d f081 413e 3583 2bbe 5a5d 73be
00000280: 1482 2fbd 4fa7 58be 1037 95bd 86e3 ff3d
00000290: 687b b2bd 5016 863c ba3b 0e3e 8ea2 b43d
000002a0: f043 f8bc 8efc 2f3e 6896 3fbd 3005 043e
000002b0: 9418 90be e02d b4bc 7234 f4bd 58bf 083e
000002c0: 92a6 6fbc d82c 353e 774f 693e f0be 7abe
000002d0: 00ac 2d3c c84b 1d3e 4074 8c3d b6d2 233e
000002e0: 5fd5 3c3e bd54 603e 7f88 13be d7d7 093e
000002f0: ffbc 7c3e 70bb ce3c 3b35 1d3e 81e7 06be
00000300: 0a7c 80bd 603b 503c 91f5 42be 8ef2 3e3e
00000310: 9088 d4bc 9929 01be 98ee 4ebd f00a d83c
00000320: 893d c9bc 6810 89bd 55d7 17be 6ec3 683c
00000330: 876c 533e 48c4 883d 77b8 803e ea29 83bd
00000340: ac63 1fbe 9585 05be 5877 7bbd 8037 c7bd
00000350: 7db0 6a3e 1d1a 12be 4220 f5bd 5d7c 14be
00000360: 6efc e53d 877a 7dbe ee85 193e ed14 69be
00000370: 43f3 36be 100b 523d 0632 4b3e eac7 7e3e
00000380: d918 7c3e d31b 1dbe 7415 96bd 305d df3d
00000390: 3917 3a3e da6b 6abe f008 a2bd 595b 5fbe
000003a0: f449 5a3d 9169 30be 1142 723e dc54 4a3e
000003b0: f05d ba3c e74c 1ebe f631 1a3e 60e1 90bd
000003c0: 6ed7 b9bd 1116 21be 4218 de3d 4c1b c6bd
000003d0: 226b 763e 4650 ca3d bcaa b3bd 0202 6bbe
000003e0: 50ad efbc 434b 0f3e 8149 81be ee0d 85be
000003f0: ea1f 233e 1473 453d 903f d83c 3381 57be
0.26931816 0.106665716 0.047242165 -0.15156762 0.018093927 -0.15197527 0.06847675 0.04153347
0.07553679 -0.1816157 0.11245468 -0.13184822 -0.008675247 -0.20997962 0.22472021 0.070917115
-0.24332388 -0.101258814 0.12383038 0.23203589 -0.012596816 -0.18614803 -0.0027570724 -0.103203475
-0.13831289 -0.08675727 -0.05967027 -0.06456332 -0.2705695 -0.15195645 0.16477127 -0.052762598
0.2768897 0.10386589 0.2629997 -0.23508903 -0.13151182 -0.23410852 -0.16567531 -0.04570882
0.15479232 -0.16002046 0.065200046 0.1450864 -0.0737322 -0.1408915 0.2605161 -0.0068059564
-0.1751957 -0.07750438 0.10440965 -0.19428882 -0.21305093 0.084045514 0.015223682 -0.12014419
-0.24626371 0.041869015 -0.22782423 -0.18998647 0.2656287 0.19117047 0.27454913 -0.026646048
0.26426607 -0.12243688 0.14917345 -0.24224721 -0.05609706 0.07840097 -0.14202449 0.05366063
0.012638658 -0.09692694 0.072125584 0.1867766 0.22487804 0.13616154 0.2751617 0.23827901
-0.12733574 0.28542265 -0.23449439 0.19174404 -0.0955876 0.1678583 0.27451718 -0.029856758
0.25207818 -0.192826 0.022289306 -0.19998461 -0.0038742125 0.22666608 -0.088057056 0.072456956
-0.09094077 -0.015906781 -0.049917877 0.2629936 0.08454549 0.018609881 -0.23270603 -0.21015325
-0.24852505 -0.17489351 0.11004186 -0.13191724 0.26180622 -0.21354558 0.2351705 0.25397515
0.2373449 0.19478229 0.062110886 0.090578154 0.12782398 -0.0039402843 0.12386389 -0.07100181
-0.23306061 0.002132131 0.23254398 -0.035710007 0.03929937 0.020921886 -0.0150461495 -0.18916339
0.16546543 -0.13871586 -0.106854916 0.26962912 0.12472141 -0.26827025 -0.25289768 0.117366716
-0.27455744 -0.28114292 0.11339904 -0.13976298 0.1848982 -0.1641843 -0.14556463 -0.05713412
0.1722134 0.2604897 0.26574868 0.115768954 0.055327535 0.18252845 -0.02821228 0.20159695
-0.24448705 0.26029673 0.008635789 0.09116687 0.11138876 0.18897223 -0.1674927 -0.2376608
-0.04284866 -0.21157573 -0.07285893 0.124945685 -0.08714944 0.016368061 0.13889971 0.08820067
-0.030305833 0.17186186 -0.046774298 0.12892604 -0.28143752 -0.021994531 -0.11924066 0.13354242
-0.014627116 0.17692888 0.2278422 -0.244869 0.01060009 0.1536094 0.068581104 0.15998349
0.1844077 0.21907325 -0.14407538 0.13461243 0.24681471 0.025235862 0.15352337 -0.13174249
-0.062736586 0.012709469 -0.19038989 0.18647215 -0.025944024 -0.12613524 -0.05052051 0.026372403
-0.024565475 -0.06692582 -0.14828236 0.01420675 0.20646869 0.06678063 0.25140736 -0.06404479
-0.15565366 -0.13039239 -0.061393112 -0.09727383 0.22918887 -0.14267774 -0.11969043 -0.14500566
0.11229788 -0.24753772 0.14992496 -0.22761889 -0.17866234 0.05128008 0.19843301 0.24880949
0.24618854 -0.15342645 -0.073283106 0.10906446 0.18172921 -0.22892705 -0.07911861 -0.2181219
0.053293183 -0.1722777 0.23658015 0.19758934 0.022749871 -0.15459023 0.15058121 -0.07074237
-0.09074293 -0.15731074 0.108444706 -0.09673175 0.24064305 0.09878592 -0.087727994 -0.22949985
-0.029257447 0.13993554 -0.25251392 -0.2598719 0.15930143 0.04820545 0.026397496 -0.2104538

fc.0.bias f4 [120]
00000000: 54e4 ee3d 7e5c 423e 2238 5abe fc3a 0a3e
00000010: e81f 41bd fcef a53d 8aab d9bd 433d 3f3e
00000020: 7f32 203e 4a31 6abe f02f b3bd c895 4fbe
00000030: 37cf 90be fe2d 80be deb5 b0bd ede2 3ebe
00000040: 8477 68be 21b4 82be a901 cebc e7d8 063e
00000050: 6414 9dbd 4adc 67be 0050 4639 f05d 053d
00000060: 60a0 133c a085 403e 00cc bebc 055b 81be
00000070: d431 433d 0da7 5dbe 507b 8b3c 4f8a 5fbe
00000080: 6095 353c 095e 7abe 4349 89be e57e 413e
00000090: 72cc 83be fe4d 923d 74e1 933e 9882 4cbd
000000a0: e858 323d e4ad f53d acb3 e9bd cbd4 1abe
000000b0: 444f a63d 50f1 103d 46df e6bd 584f 4abd
000000c0: 94f3 613d 905a 8dbe acce 6ebe b804 7dbe
000000d0: 184f 253d cf9c 363e 1214 88be c02c 013e
000000e0: cf74 0cbe 830f 4ebe 30d0 c63c 54e6 e0bd
000000f0: 9173 14be 529b dabd b4cf ccbd 60d2 423e
00000100: fef1 bebd 04ec 493e 903c edbc 1296 95bd
00000110: d0b1 4c3d 7036 fb3c a691 70be d63f 6e3e
00000120: 9804 673d 0291 853d 8806 613e 3172 93be
00000130: d98f 323e 03f0 07be b2c1 633e 5cad f63d
00000140: 38a0 bc3d a65c e7bd 572e 623e cc7c 533e
00000150: e00c 3d3c b28c 9abd 1e2a 51be d022 a43d
00000160: 0a73 dd3d d805 083e 6fc6 233e 6859 873d
00000170: 7296 de3d fcd7 64be 5e79 7f3e c6ce 173e
00000180: 1356 93be 2ee1 863d 7eed c93d 5b7f 523e
00000190: 6e5e 08be 1421 47be 2bbe 26be 18c5 b43d
000001a0: 7147 7fbe f376 06be 3802 cbbd 24d5 7a3e
000001b0: 7a59 7b3e 2ccc bd3d dce7 473d 50ad d3bc
000001c0: 1018 8ebd 74bf bbbd 7475 023e 6f32 91be
000001d0: 3825 533e 9042 07be 37ee 69be 7a4b b5bd
0.11664644 0.18980595 -0.21310475 0.13499063 -0.04714957 0.08102414 -0.106284216 0.18675713
0.15644263 -0.22870365 -0.08749378 -0.20271981 -0.28283092 -0.2503509 -0.086284384 -0.18641253
-0.22701842 -0.25528052 -0.025147276 0.13168679 -0.07669905 -0.22642627 0.00018912554 0.03256029
0.009010404 0.18800974 -0.023290634 -0.25264755 0.04765494 -0.21645756 0.017026573 -0.21830104
0.011082977 -0.24449934 -0.26813707 0.18896063 -0.25741917 0.07143782 0.28882945 -0.04992923
0.04354182 0.11996058 -0.11411223 -0.15120237 0.081205875 0.035386384 -0.11273055 -0.049392074
0.055163935 -0.27608156 -0.23321027 -0.24708831 0.040358633 0.17833255 -0.26577812 0.12614727
-0.13716434 -0.20123105 0.024269193 -0.109814316 -0.1449721 -0.10674156 -0.10000554 0.19025564
-0.093235 0.19718939 -0.028959543 -0.07304014 0.049974263 0.030665606 -0.2349306 0.23266539
0.056400865 0.06521799 0.21975148 -0.2879806 0.17437686 -0.13275151 0.22241858 0.120447844
0.09210247 -0.11296968 0.2208799 0.20653075 0.011538714 -0.07546367 -0.20426223 0.080144525
0.108129576 0.13283479 0.15993665 0.0660885 0.10868539 -0.22348017 0.24948642 0.14824972
-0.28776607 0.06585918 0.09859751 0.20556395 -0.13317272 -0.19446212 -0.16283481 0.08826655
-0.24929596 -0.13131313 -0.099125326 0.24495369 0.24545851 0.09267458 0.048805103 -0.025839478
-0.06938183 -0.09167376 0.12740117 -0.2835879 0.20619667 -0.13208985 -0.22844778 -0.08852287

fc.2.weight f4 [4, 120]
00000000: 507d 943d 39b4 81bd e860 6d3c 9c3d ae3c
00000010: a866 123c 9b48 d63c 03f2 11bd 605d 363b
00000020: e025 483d 5be9 b7bd 08af 4dbc f44c b03d
00000030: 4d72 11bd f8e5 b33d 207f 713c dc7f 2a3d
00000040: 8cde 75bd ba46 ab3d 7465 d23c 80bc 4b3c
00000050: 9ad1 95bd 3182 90bd e90d a9bd 0009 aabc
00000060: c05a f5bb 12a1 55bc a7ec 97bd 5dc9 8bbd
00000070: 9cab b0bd 4a09 3fbd 6b8a 82bd b20f abbd
00000080: 2c0d 963d 38f4 4d3d b8b6 8ebc 8260 903d
00000090: 6a76 b63d bb37 913c f8b9 143d c43e aa3c
000000a0: a40a 1d3d a043 563c 0770 55bd 222f ab3d
000000b0: 0004 47bc d8c0 a5bc 9ef8 9fbd 20cc df3b
000000c0: 1196 8cbc 20cd 79bc 0a4a 913d ea10 ae3d
000000d0: 80ba 3a3b e7e1 9bbd 9fbf 63bd 9082 423c
000000e0: 8829 723d ffba a5bd 5032 dfbb ff17 9abd
000000f0: 8ede 3fbd c085 e63a 1202 86bd 3e0b 993d
00000100: 2828 783c 9e5e 31bd 4cfd 693d 8465 573d
00000110: 203e 853d c600 95bd 0632 a9bd 78a4 693d
00000120: 6cf0 1d3d b000 f63c ec5f 50bd 64fd 713d
00000130: 5c9c b23d b74a a3bd cc1a 7a3d 00d2 a3b9
00000140: 1a98 72bd 57a9 cf3c 609e 353c d4fe fe3c
00000150: 7859 9c3d fb56 28bd 0080 93b8 2c73 59bd
00000160: d3fe b73c d898 593d a66c e13c 4cbd 9a3d
00000170: f2f9 983d 10a6 8d3b fc0b b93b 3bf4 43bd
00000180: 00c9 17bd 08ae 3dbd f63b 9d3d 884e a7bc
00000190: 8d78 98bc a24a 863d 5377 0dbd 00fa 303b
000001a0: 5058 703c 748a b2bd e476 553d 44f8 a5bd
000001b0: 7fc1 97bd 9564 d8bc e0fc 5ebb 8cac 82bd
000001c0: f213 a4bd f248 803d 5891 90bd 0cd9 903d
000001d0: 8010 a33b 7b1d 86bd c762 1bbd b843 333c
000001e0: 881f 4bbd fae3 973d 75d9 a4bd 1c5d 883b
000001f0: 0054 713c 3249 b9bd 1264 5cbd b859 50bd
00000200: fa4b ff3c 5e9f 043d b074 8f3c 0c8a 87bd
00000210: c0eb d0ba 8cfd 9c3d d8cc 57bc 2099 593c
00000220: 50cb 193d e862 4bbd 3248 3bbd 8873 b23d
00000230: 80c0 82bb d0da ae3c f482 7c3d 5833 003d
00000240: 3074 42bc 64f5 50bd 70e3 ee3b 049d 7f3d
00000250: 7448 94bd fda3 71bd f0c5 f43b 4a29 71bd
00000260: 173e 4cbd 3066 3ebc d037 653d 003f eabc
00000270: 8204 74bc e012 97bd 888e 63bc 1c65 3c3d
00000280: de01 b43d 801b 45bd 02a4 8dbd 16f0 803d
00000290: 841e b03d 80ff 71bd 5b29 b0bd 9458 6b3d
000002a0: 80c8 0d3a 85bf 82bd 1b89 f53c dc93 443d
000002b0: e546 90bd f94c a5bc c814 5d3d ec45 913d
000002c0: b816 323d 44ab eabc 10c3 a83b f092 c0bc
000002d0: 8cfc e5bc 3e6b 5bbd 305c e63c ba73 a6bd
000002e0: 3400 2e3d 1c56 363d 6509 4ebd 621d 1ebd
000002f0: f400 09bd 4e38 40bd fcdc 9d3d a444 fa3c
00000300: 6499 e5bc 4860 113d 5ae1 a83d cc2a 84bd
00000310: 806d c63b 26c9 f0bc 3a29 a0bd 62f6 853d
00000320: 78ad 643d 685d 363d f8e1 0fbc 804c 303b
00000330: c08a a33d a886 8b3d 2c6c 783d d864 02bd
00000340: b84a c4bc c043 133b 10a5 2b3d 1083 96bd
00000350: f43e a93d 8c52 263d 3b42 68bd 0049 fa39
00000360: e405 543d 10f5 4d3c 1f67 8cbd b2f8 0abd
00000370: 6b32 8abd 303f c8bb 54ee a63d 3839 393c
00000380: d037 b1bd aae6 903d 3168 e9bc a005 51bc
00000390: 1abd 98bd f869 e43c 224e b2bd 4044 e33b
000003a0: a21e 47bd f08e 883c 8061 9bba 2c78 a43d
000003b0: 374a b43c 1cc3 ef3c c04f 8bbb 30bf 403d
000003c0: 6f68 86bd 1a12 9f3d 42b3 6dbd 8875 15bc
000003d0: 204d 09bc c0f8 463c 60ef 69bb e8db 523d
000003e0: 8a7b b83d 0c3d e83c 50bd e23c 8117 54bd
000003f0: 00f1 d43c cece 913d 2c75 adbd f76b 99bd
0.07250464 -0.06333203 0.014488436 0.021269612 0.008935608 0.026157668 -0.03563119 0.0027826652
0.048864245 -0.08980056 -0.012553938 0.08608428 -0.035509396 0.087840974 0.014739782 0.041625842
-0.06002669 0.083630994 0.025683142 0.012435079 -0.07315369 -0.07056082 -0.08254606 -0.020756245
-0.007487625 -0.01303889 -0.07418185 -0.068255164 -0.08626482 -0.046639718 -0.063740574 -0.08352603
0.07326731 0.050281733 -0.017421111 0.070496574 0.089093044 0.01772677 0.036310166 0.020781882
0.038340226 0.0130776465 -0.05210879 0.08358599 -0.01214695 -0.020233557 -0.07811092 0.0068297535
-0.017161401 -0.0152466595 0.070942 0.0849932 0.002849251 -0.07611447 -0.055602666 0.011871949
0.05912164 -0.08092307 -0.0068114176 -0.07524108 -0.046843104 0.0017587468 -0.06543364 0.074728474
0.015146293 -0.043303125 0.05712633 0.052587047 0.0650599 -0.07275538 -0.08261494 0.057041615
0.038559362 0.030029625 -0.05087273 0.059079543 0.087212294 -0.07973235 0.06106071 -0.00031246245
-0.059227087 0.025349302 0.011085123 0.03112737 0.07634252 -0.041098576 -7.033348e-05 -0.053088352
0.022460377 0.05312428 0.027517628 0.07555637 0.07469548 0.0043227747 0.0056471806 -0.04784034
-0.037056923 -0.046308547 0.07677452 -0.020423189 -0.01861217 0.06557204 -0.034537625 0.002700448
0.014669493 -0.08717814 0.052115336 -0.081039935 -0.07409953 -0.026415149 -0.0034025237 -0.06380567
-0.08011617 0.06263913 -0.07058972 0.070726484 0.004976332 -0.06548592 -0.037936 0.010941438
-0.049590617 0.0741653 -0.08049289 0.00416149 0.0147295 -0.09047164 -0.053806372 -0.050866812
0.031164158 0.032378547 0.017511696 -0.06618127 -0.00159394 0.07665548 -0.013171397 0.013281137
0.03754741 -0.04965487 -0.045723148 0.08713442 -0.003990233 0.021344572 0.061648324 0.031298965
-0.011868522 -0.051015273 0.0072902963 0.0624056 -0.07240382 -0.058994282 0.007469885 -0.058877267
-0.0498639 -0.011621043 0.05596143 -0.028594494 -0.014893653 -0.07376647 -0.013888963 0.045994863
0.08789419 -0.04812193 -0.06916048 0.06295793 0.085995704 -0.059081554 -0.08601638 0.05745752
0.00054086 -0.06384186 0.029972604 0.047992572 -0.07044772 -0.020178305 0.053974897 0.07093415
0.043478698 -0.028646119 0.0051502064 -0.023507565 -0.028074525 -0.05356907 0.02812013 -0.08127542
0.042480662 0.044515714 -0.050301928 -0.03860224 -0.033448175 -0.046928696 0.07708165 0.030550309
-0.028027244 0.03549221 0.082461074 -0.06453475 0.006055534 -0.02939279 -0.07820363 0.065411344
0.055829495 0.044522673 -0.0087819025 0.0026901066 0.07985449 0.06812793 0.060650036 -0.031834453
-0.02396141 0.0022470802 0.041905463 -0.07349217 0.082639605 0.040606067 -0.056703787 0.00047738105
0.05176343 0.0125706345 -0.06855606 -0.03392858 -0.06747898 -0.006111048 0.08150926 0.011305146
-0.086532235 0.07075246 -0.028492065 -0.012757689 -0.07457943 0.027882561 -0.08706309 0.0069356263
-0.048613198 0.01666972 -0.0011854619 0.080307335 0.022008045 0.02926784 -0.0042514503 0.04705733
-0.06562888 0.077671245 -0.05803228 -0.00912226 -0.008380204 0.012144268 -0.0035695657 0.05147925
0.09007938 0.028349422 0.027678162 -0.051780228 0.025993824 0.07119523 -0.084696144 -0.07491296

fc.2.bias f4 [4]
00000000: a040 e93b c07e 1d3d 9ce0 3cbd 202e 8ebd
0.0071182996 0.038450956 -0.04611264 -0.069423914
