Models/score_49_model_925957.pt (torch, 9695 bytes, 4 tensors)

fc.0.weight f4 [120, 12]
0.26921818 0.10686572 0.047242165 -0.15146762 0.018093927 -0.15197527 0.06837675 0.04153347
0.07553679 -0.1817157 0.112554684 -0.13204822 -0.008675247 -0.20997962 0.22482021 0.07081711
-0.24332388 -0.10115881 0.12373038 0.23213589 -0.012596816 -0.18604803 -0.0027570724 -0.103103474
-0.13831289 -0.08675727 -0.05967027 -0.06466332 -0.2706695 -0.15205646 0.16497128 -0.052562594
0.2770897 0.104065895 0.26289973 -0.23478903 -0.13131182 -0.23450853 -0.16567531 -0.04570882
0.15449232 -0.16002046 0.065200046 0.14498639 -0.0738322 -0.14099151 0.26041612 -0.0068059564
-0.1751957 -0.07740438 0.10420965 -0.19398881 -0.21285093 0.084145516 0.015223682 -0.12004419
-0.24626371 0.041969016 -0.22802423 -0.19028647 0.2656287 0.19117047 0.27444914 -0.026646048
0.2641661 -0.12253688 0.14917345 -0.24274722 -0.056197062 0.07840097 -0.14202449 0.05366063
0.012638658 -0.09722695 0.072125584 0.1868766 0.22487804 0.13606153 0.2752617 0.23807901
-0.12723574 0.28552264 -0.23459439 0.19144404 -0.0955876 0.1679583 0.2744172 -0.029956758
0.25217816 -0.193026 0.022289306 -0.19998461 -0.0038742125 0.22676608 -0.087957054 0.07265696
-0.09094077 -0.015806781 -0.049917877 0.26319358 0.08454549 0.018609881 -0.23280603 -0.21055326
-0.24872506 -0.17469351 0.11014186 -0.13191724 0.26170623 -0.21364558 0.2349705 0.25397515
0.2373449 0.19448228 0.062010884 0.090578154 0.12742397 -0.0039402843 0.12386389 -0.07100181
-0.23316061 0.002032131 0.23254398 -0.035710007 0.03939937 0.020921886 -0.0150461495 -0.18906339
0.16536543 -0.13851586 -0.10665491 0.26942915 0.124621406 -0.26827025 -0.25299767 0.117266715
-0.27445745 -0.28114292 0.11339904 -0.13976298 0.1845982 -0.1642843 -0.14566463 -0.05703412
0.1721134 0.26038972 0.26584867 0.115768954 0.055327535 0.18242845 -0.02821228 0.20159695
-0.24438705 0.25989679 0.008635789 0.09116687 0.11108875 0.18887223 -0.1675927 -0.2376608
-0.04284866 -0.21157573 -0.07285893 0.12504569 -0.08714944 0.016368061 0.13879971 0.08820067
-0.030305833 0.17186186 -0.0468743 0.12902604 -0.28143752 -0.021994531 -0.119140655 0.13374242
-0.014727116 0.17712888 0.2279422 -0.244869 0.01060009 0.15340939 0.068581104 0.15998349
0.1845077 0.21897325 -0.14427538 0.13481243 0.24701472 0.025235862 0.15332337 -0.13164249
-0.062736586 0.012709469 -0.19058989 0.18637215 -0.025944024 -0.12603524 -0.05052051 0.026372403
-0.024665475 -0.06682582 -0.14828236 0.0141067505 0.20646869 0.06688063 0.25120738 -0.06414479
-0.15545365 -0.13039239 -0.061493114 -0.09737383 0.22898887 -0.14277774 -0.119790435 -0.14500566
0.11229788 -0.24753772 0.15022497 -0.22751889 -0.17866234 0.05128008 0.19833301 0.24890949
0.24618854 -0.15352646 -0.073183104 0.10886446 0.18162921 -0.22882704 -0.07911861 -0.2182219
0.053293183 -0.1721777 0.23668015 0.19748934 0.022749871 -0.15469024 0.1502812 -0.07064237
-0.09074293 -0.15721074 0.1082447 -0.09653175 0.24074306 0.09908593 -0.087727994 -0.22949985
-0.029257447 0.14003554 -0.25241393 -0.2599719 0.15900142 0.04810545 0.026397496 -0.21035379
00000000: f7d6 893e 6adc da3d 0081 413d 541a 1bbe
00000010: b739 943c 689f 1bbe 1c09 8c3d 001f 2a3d
00000020: 08b3 9a3d ae13 3abe 1283 e63d a637 07be
00000030: a022 0ebc e604 57be 4537 663e 9008 913d
00000040: e529 79be 5a2c cfbd 5a66 fd3d 08b5 6d3e
00000050: e062 4ebc 6083 3ebe 00b0 34bb ea27 d3bd
00000060: e5a1 0dbe ccad b1bd d068 74bd 346e 84bd
00000070: 3195 8abe b0b4 1bbe 3bee 283e e04b 57bd
00000080: b3de 8d3e 8020 d53d cb9a 863e 896c 70be
00000090: 9b76 06be 0123 70be caa6 29be 2c39 3bbd
000000a0: 3c33 1e3e 67dc 23be 9a87 853d 5077 143e
000000b0: 5635 97bd 1460 10be 4355 853e 8004 dfbb
000000c0: 8066 33be 3086 9ebd de6b d53d 01a5 46be
000000d0: 98f5 59be 7c54 ac3d c06c 793c bad9 f5bd
000000e0: 8e2c 7cbe b4e7 2b3d 2f7f 69be 75da 42be
000000f0: 7c00 883e 31c2 433e 9984 8c3e d048 dabc
00000100: c740 873e 9ef4 fabd edc0 183e ba92 78be
00000110: e42e 66bd b090 a03d de6e 11be 40cb 5b3d
00000120: 6012 4f3c ec1e c7bd 94b6 933d 945c 3f3e
00000130: 6e46 663e b753 0b3e 1aef 8c3e fcca 733e
00000140: 164a 02be 0630 923e 8339 70be e809 443e
00000150: 6ec3 c3bd 43fd 2b3e 6980 8c3e e067 f5bc
00000160: 7f1d 813e 9ca8 45be 1098 b63c c4c8 4cbe
00000170: 80e6 7dbb 5e35 683e d422 b4bd 2ccd 943d
00000180: 283f babd 397d 81bc b076 4cbd 4fc1 863e
00000190: 3026 ad3d c073 983c b464 6ebe 469b 57be
000001a0: c8b1 7ebe dbe2 32be 0e92 e13d 5015 07be
000001b0: 5cfe 853e e8c5 5abe 1b9c 703e 0809 823e
000001c0: 8b0a 733e 5d26 473e 20ff 7d3d 0a81 b93d
000001d0: 6e7b 023e 801d 81bb 5aac fd3d 6669 91bd
000001e0: a8c1 6ebe 802d 053b 0220 6e3e a844 12bd
000001f0: 3c61 213d 6064 ab3c 2084 76bc d599 41be
00000200: 8e55 293e 1ad7 0dbe e46d dabd 9ef2 893e
00000210: 8239 ff3d b85a 89be e988 81be 8829 f03d
00000220: b085 8cbe f7f1 8fbe c23d e83d 071e 0fbe
00000230: 4f07 3d3e 253a 28be 1c29 15be 9c9c 69bd
00000240: 7f3e 303e cd51 853e 511d 883e 4618 ed3d
00000250: 209f 623d 86ce 3a3e 701d e7bc 6e6f 4e3e
00000260: 9940 7abe 3111 853e 207d 0d3c b2b5 ba3d
00000270: 8082 e33d b967 413e 6c9d 2bbe 5a5d 73be
00000280: 1482 2fbd 4fa7 58be 1037 95bd fa0b 003e
00000290: 687b b2bd 5016 863c 8321 0e3e 8ea2 b43d
000002a0: f043 f8bc 8efc 2f3e 44ff 3fbd 671f 043e
000002b0: 9418 90be e02d b4bc 0400 f4bd c6f3 083e
000002c0: 004a 71bc 4661 353e ae69 693e f0be 7abe
000002d0: 00ac 2d3c 5a17 1d3e 4074 8c3d b6d2 233e
000002e0: 96ef 3c3e 863a 603e edbc 13be 450c 0a3e
000002f0: 6df1 7c3e 70bb ce3c cd00 1d3e 4acd 06be
00000300: 0a7c 80bd 603b 503c ff29 43be 57d8 3e3e
00000310: 9088 d4bc 620f 01be 98ee 4ebd f00a d83c
00000320: 400f cabc fadb 88bd 55d7 17be 0020 673c
00000330: 876c 533e b6f8 883d 419e 803e 585e 83bd
00000340: 3e2f 1fbe 9585 05be 34e0 7bbd ee6b c7bd
00000350: 0f7c 6a3e 5434 12be b054 f5bd 5d7c 14be
00000360: 6efc e53d 877a 7dbe 93d4 193e b6fa 68be
00000370: 43f3 36be 100b 523d cf17 4b3e 21e2 7e3e
00000380: d918 7c3e 0a36 1dbe 06e1 95bd 54f4 de3d
00000390: 02fd 393e a351 6abe f008 a2bd 9075 5fbe
000003a0: f449 5a3d 5a4f 30be 485c 723e a53a 4a3e
000003b0: f05d ba3c 1e67 1ebe 51e3 193e f2ac 90bd
000003c0: 6ed7 b9bd dafb 20be 66af dd3d 70b2 c5bd
000003d0: 5985 763e 90ed ca3d bcaa b3bd 0202 6bbe
000003e0: 50ad efbc 7a65 0f3e 663c 81be 091b 85be
000003f0: 45d1 223e 380a 453d 903f d83c fc66 57be

fc.0.bias f4 [120]
0.11664644 0.18960595 -0.21290475 0.13519064 -0.047049567 0.08092414 -0.10638422 0.18675713
0.15634263 -0.22880365 -0.08759378 -0.2024198 -0.2829309 -0.25055087 -0.086284384 -0.18641253
-0.22721842 -0.25528052 -0.025247276 0.1318868 -0.07679905 -0.22612627 0.00018912554 0.03266029
0.009010404 0.18800974 -0.023290634 -0.25214761 0.04755494 -0.21665756 0.017026573 -0.21820104
0.011082977 -0.24429934 -0.26803708 0.18876062 -0.25751916 0.07133782 0.28862947 -0.04992923
0.04354182 0.11996058 -0.11421223 -0.15140237 0.08140588 0.035486385 -0.11273055 -0.049492076
0.055063933 -0.2756816 -0.23341027 -0.24758832 0.040358633 0.17813255 -0.26617807 0.12614727
-0.13736434 -0.20113105 0.024269193 -0.11001432 -0.1448721 -0.10674156 -0.10000554 0.19015564
-0.093535006 0.1973894 -0.028959543 -0.07294014 0.049974263 0.030665606 -0.2346306 0.23256539
0.056200862 0.065117985 0.21975148 -0.2879806 0.17427686 -0.1324515 0.22231857 0.120447844
0.09200247 -0.11286968 0.2210799 0.20653075 0.011538714 -0.07556367 -0.20426223 0.080244526
0.10822958 0.13273479 0.15963665 0.065988496 0.10868539 -0.22348017 0.24938641 0.14854972
-0.28786606 0.06565918 0.09859751 0.20556395 -0.13297272 -0.19426212 -0.16283481 0.08826655
-0.24929596 -0.13121313 -0.099125326 0.24485369 0.24535851 0.092774585 0.0487051 -0.025839478
-0.06958184 -0.09157376 0.12720117 -0.28378788 0.20619667 -0.13218985 -0.22824778 -0.08852287
00000000: 54e4 ee3d 1028 423e b403 5abe 6a6f 0a3e
00000010: 0cb7 40bd 8ebb a53d f8df d9bd 433d 3f3e
00000020: 4818 203e 814b 6abe 5e64 b3bd 2347 4fbe
00000030: 52dc 90be 3448 80be deb5 b0bd ede2 3ebe
00000040: f2ab 68be 21b4 82be 60d3 cebc 550d 073e
00000050: d248 9dbd a58d 67be 0050 4639 ccc6 053d
00000060: 60a0 133c a085 403e 00cc bebc 7e19 81be
00000070: f8c8 423d 7bdb 5dbe 507b 8b3c 1870 5fbe
00000080: 6095 353c 9b29 7abe 283c 89be 774a 413e
00000090: 8dd9 83be 9019 923d 3ec7 933e 9882 4cbd
000000a0: e858 323d e4ad f53d 1ae8 e9bd 3909 1bbe
000000b0: 20b8 a63d 2c5a 113d 46df e6bd 34b8 4abd
000000c0: b88a 613d 2426 8dbe 1a03 6fbe cb87 7dbe
000000d0: 184f 253d 6168 363e 7e48 88be c02c 013e
000000e0: 3da9 0cbe 4cf5 4dbe 30d0 c63c 304f e1bd
000000f0: 5a59 14be 529b dabd b4cf ccbd 29b8 423e
00000100: 488f bfbd 7220 4a3e 903c edbc a461 95bd
00000110: d0b1 4c3d 7036 fb3c 0143 70be 9f25 6e3e
00000120: e032 663d 945c 853d 8806 613e 3172 93be
00000130: a275 323e 5ea1 07be 7ba7 633e 5cad f63d
00000140: ca6b bc3d 3828 e7bd c562 623e cc7c 533e
00000150: e00c 3d3c 20c1 9abd 1e2a 51be 3e57 a43d
00000160: 78a7 dd3d a1eb 073e ca77 233e fa24 873d
00000170: 7296 de3d fcd7 64be 275f 7f3e 6b1d 183e
00000180: 2e63 93be 5278 863d 7eed c93d 5b7f 523e
00000190: 002a 08be a6ec 46be 2bbe 26be 18c5 b43d
000001a0: 7147 7fbe bc5c 06be 3802 cbbd edba 7a3e
000001b0: 433f 7b3e 9a00 be3d 007f 473d 50ad d3bc
000001c0: ec80 8ebd 068b bbbd 0641 023e a54c 91be
000001d0: 3825 533e c75c 07be c9b9 69be 7a4b b5bd

fc.2.weight f4 [4, 120]
0.07250464 -0.06333203 0.014488436 0.021269612 0.008935608 0.026057668 -0.03563119 0.0027826652
0.048964247 -0.08980056 -0.012553938 0.08608428 -0.0358094 0.087840974 0.014739782 0.041725844
-0.05992669 0.083730996 0.025783142 0.012435079 -0.07315369 -0.07036082 -0.08254606 -0.020756245
-0.007487625 -0.01303889 -0.07428185 -0.068355165 -0.08616482 -0.046539716 -0.063740574 -0.08352603
0.073467314 0.050281733 -0.017421111 0.07039657 0.08929305 0.01762677 0.036310166 0.020781882
0.038340226 0.0130776465 -0.051908787 0.08358599 -0.01214695 -0.020233557 -0.07811092 0.0068297535
-0.017161401 -0.01514666 0.070942 0.084793195 0.002849251 -0.07621447 -0.055602666 0.011871949
0.05912164 -0.081023075 -0.0068114176 -0.07514108 -0.046743102 0.0017587468 -0.06543364 0.074828476
0.015146293 -0.043403126 0.057026327 0.05268705 0.0650599 -0.07275538 -0.08261494 0.05724162
0.03845936 0.030029625 -0.05087273 0.059079543 0.08711229 -0.07963235 0.061160713 -0.00031246245
-0.059227087 0.025249302 0.011085123 0.03112737 0.07634252 -0.041098576 -7.033348e-05 -0.053088352
0.022460377 0.05322428 0.027317628 0.075456366 0.07469548 0.0043227747 0.0057471804 -0.04784034
-0.037056923 -0.046308547 0.076874524 -0.020423189 -0.01871217 0.06557204 -0.034537625 0.002700448
0.014669493 -0.08717814 0.052115336 -0.08093993 -0.07399953 -0.026415149 -0.0034025237 -0.06380567
-0.08011617 0.06253913 -0.07058972 0.070826486 0.004976332 -0.06548592 -0.038036 0.010941438
-0.049590617 0.0740653 -0.08059289 0.0040614903 0.0147295 -0.09057164 -0.053906374 -0.050966814
0.030964158 0.032378547 0.017611695 -0.06608127 -0.00159394 0.076555476 -0.013171397 0.013281137
0.03754741 -0.04965487 -0.045523144 0.08693442 -0.003990233 0.021344572 0.061648324 0.031298965
-0.011868522 -0.051015273 0.0072902963 0.0623056 -0.07250382 -0.058994282 0.007469885 -0.058877267
-0.049963903 -0.011621043 0.05596143 -0.028594494 -0.014893653 -0.07366647 -0.013888963 0.045994863
0.08789419 -0.04812193 -0.06926048 0.06315793 0.085995704 -0.059181556 -0.08621638 0.057557523
0.00054086 -0.063741855 0.029872604 0.047992572 -0.07044772 -0.020278305 0.053974897 0.07113415
0.043478698 -0.028646119 0.0051502064 -0.023407565 -0.027974525 -0.05346907 0.02812013 -0.08127542
0.042480662 0.044515714 -0.05050193 -0.03860224 -0.033548176 -0.046928696 0.07698165 0.030550309
-0.027827244 0.03549221 0.082461074 -0.06443475 0.006055534 -0.02939279 -0.07810363 0.065411344
0.055929497 0.044722676 -0.0087819025 0.0026901066 0.07975449 0.06822793 0.060450032 -0.03173445
-0.02396141 0.0022470802 0.04180546 -0.07339217 0.08273961 0.040606067 -0.05680379 0.00047738105
0.05176343 0.0125706345 -0.068656065 -0.03392858 -0.06757898 -0.006111048 0.08150926 0.011305146
-0.086532235 0.07075246 -0.028592065 -0.012757689 -0.07457943 0.027882561 -0.08716309 0.0069356263
-0.048513196 0.01666972 -0.0011854619 0.080307335 0.021908045 0.02926784 -0.0042514503 0.047157332
-0.06562888 0.077671245 -0.05793228 -0.00912226 -0.008380204 0.012244267 -0.0035695657 0.05137925
0.09007938 0.028349422 0.027678162 -0.051780228 0.025993824 0.07119523 -0.084696144 -0.07491296
00000000: 507d 943d 39b4 81bd e860 6d3c 9c3d ae3c
00000010: a866 123c e476 d53c 03f2 11bd 605d 363b
00000020: bc8e 483d 5be9 b7bd 08af 4dbc f44c b03d
00000030: e1ac 12bd f8e5 b33d 207f 713c b8e8 2a3d
00000040: b075 75bd 287b ab3d 2b37 d33c 80bc 4b3c
00000050: 9ad1 95bd 5519 90bd e90d a9bd 0009 aabc
00000060: c05a f5bb 12a1 55bc 1521 98bd cbfd 8bbd
00000070: 2e77 b0bd 6ea0 3ebd 6b8a 82bd b20f abbd
00000080: 0876 963d 38f4 4d3d b8b6 8ebc 142c 903d
00000090: 46df b63d 0466 903c f8b9 143d c43e aa3c
000000a0: a40a 1d3d a043 563c 4f9e 54bd 222f ab3d
000000b0: 0004 47bc d8c0 a5bc 9ef8 9fbd 20cc df3b
000000c0: 1196 8cbc b229 78bc 0a4a 913d 0ea8 ad3d
000000d0: 80ba 3a3b 5516 9cbd 9fbf 63bd 9082 423c
000000e0: 8829 723d 6def a5bd 5032 dfbb 91e3 99bd
000000f0: b275 3fbd c085 e63a 1202 86bd ac3f 993d
00000100: 2828 783c 7ac7 31bd 7094 693d 60ce 573d
00000110: 203e 853d c600 95bd 0632 a9bd 3076 6a3d
00000120: 9087 1d3d b000 f63c ec5f 50bd 64fd 713d
00000130: ee67 b23d 4916 a3bd a883 7a3d 00d2 a3b9
00000140: 1a98 72bd a0d7 ce3c 609e 353c d4fe fe3c
00000150: 7859 9c3d fb56 28bd 0080 93b8 2c73 59bd
00000160: d3fe b73c b401 5a3d 38c9 df3c de88 9a3d
00000170: f2f9 983d 10a6 8d3b d852 bc3b 3bf4 43bd
00000180: 00c9 17bd 08ae 3dbd 6470 9d3d 884e a7bc
00000190: 444a 99bc a24a 863d 5377 0dbd 00fa 303b
000001a0: 5058 703c 748a b2bd e476 553d d6c3 a5bd
000001b0: 118d 97bd 9564 d8bc e0fc 5ebb 8cac 82bd
000001c0: f213 a4bd 8414 803d 5891 90bd 7a0d 913d
000001d0: 8010 a33b 7b1d 86bd a3cb 1bbd b843 333c
000001e0: 881f 4bbd 8caf 973d e30d a5bd 4016 853b
000001f0: 0054 713c a07d b9bd eecc 5cbd 94c2 50bd
00000200: 8ca8 fd3c 5e9f 043d 6746 903c 9e55 87bd
00000210: c0eb d0ba 1ec9 9c3d d8cc 57bc 2099 593c
00000220: 50cb 193d e862 4bbd 7a76 3abd ac0a b23d
00000230: 80c0 82bb d0da ae3c f482 7c3d 5833 003d
00000240: 3074 42bc 64f5 50bd 70e3 ee3b 2834 7f3d
00000250: e27c 94bd fda3 71bd f0c5 f43b 4a29 71bd
00000260: f3a6 4cbd 3066 3ebc d037 653d 003f eabc
00000270: 8204 74bc 72de 96bd 888e 63bc 1c65 3c3d
00000280: de01 b43d 801b 45bd 70d8 8dbd f258 813d
00000290: 841e b03d 5c68 72bd 3792 b0bd 70c1 6b3d
000002a0: 80c8 0d3a 178b 82bd 64b7 f43c dc93 443d
000002b0: e546 90bd b01e a6bc c814 5d3d c8ae 913d
000002c0: b816 323d 44ab eabc 10c3 a83b 39c1 bfbc
000002d0: d52a e5bc 6202 5bbd 305c e63c ba73 a6bd
000002e0: 3400 2e3d 1c56 363d 1ddb 4ebd 621d 1ebd
000002f0: d069 09bd 4e38 40bd 8ea8 9d3d a444 fa3c
00000300: f6f5 e3bc 4860 113d 5ae1 a83d 5ef6 83bd
00000310: 806d c63b 26c9 f0bc ccf4 9fbd 62f6 853d
00000320: 5416 653d 202f 373d f8e1 0fbc 804c 303b
00000330: 5256 a33d 16bb 8b3d 749a 773d fcfb 01bd
00000340: b84a c4bc c043 133b 343c 2b3d a24e 96bd
00000350: 6273 a93d 8c52 263d 17ab 68bd 0049 fa39
00000360: e405 543d 10f5 4d3c 8d9b 8cbd b2f8 0abd
00000370: d966 8abd 303f c8bb 54ee a63d 3839 393c
00000380: d037 b1bd aae6 903d e839 eabc a005 51bc
00000390: 1abd 98bd f869 e43c 9082 b2bd 4044 e33b
000003a0: c6b5 46bd f08e 883c 8061 9bba 2c78 a43d
000003b0: 8078 b33c 1cc3 ef3c c04f 8bbb 0c28 413d
000003c0: 6f68 86bd 1a12 9f3d 664a 6dbd 8875 15bc
000003d0: 204d 09bc 2e9c 483c 60ef 69bb 0c73 523d
000003e0: 8a7b b83d 0c3d e83c 50bd e23c 8117 54bd
000003f0: 00f1 d43c cece 913d 2c75 adbd f76b 99bd

fc.2.bias f4 [4]
0.0071182996 0.038450956 -0.04611264 -0.069423914
00000000: a040 e93b c07e 1d3d 9ce0 3cbd 202e 8ebd
