Models/score_42_model_816095.pt (torch, 9695 bytes, 4 tensors)

fc.0.weight f4 [120, 12]
0.26941815 0.10676572 0.047242165 -0.15136762 0.018093927 -0.15187527 0.06847675 0.04153347
0.07563679 -0.1817157 0.11245468 -0.13204822 -0.008575248 -0.20977962 0.22472021 0.070917115
-0.24322388 -0.10105881 0.123630375 0.23203589 -0.012596816 -0.18604803 -0.0027570724 -0.103203475
-0.13831289 -0.08655727 -0.05967027 -0.06446332 -0.2706695 -0.15175645 0.16477127 -0.052662596
0.2769897 0.1041659 0.26329967 -0.23488903 -0.13151182 -0.23450853 -0.16557531 -0.045308813
0.15449232 -0.16012046 0.06530005 0.14498639 -0.0738322 -0.1406915 0.2605161 -0.0068059564
-0.17509569 -0.07750438 0.10450965 -0.19408882 -0.21305093 0.08424552 0.015223682 -0.12004419
-0.24636371 0.041869015 -0.22802423 -0.19038647 0.2655287 0.19107047 0.27454913 -0.026646048
0.26426607 -0.12243688 0.14927346 -0.24264722 -0.056197062 0.07850097 -0.14222449 0.053860635
0.012638658 -0.097126946 0.072225586 0.1869766 0.22477804 0.13606153 0.2752617 0.23817901
-0.12743574 0.28542265 -0.23459439 0.19154404 -0.095487595 0.16815831 0.27461717 -0.029956758
0.25207818 -0.192826 0.022289306 -0.19998461 -0.0038742125 0.22666608 -0.08785705 0.072456956
-0.09064077 -0.015906781 -0.049917877 0.2630936 0.08454549 0.018709881 -0.23260602 -0.21025325
-0.24872506 -0.17469351 0.11004186 -0.13191724 0.2620062 -0.21354558 0.2351705 0.25397515
0.23774491 0.19458228 0.062110886 0.090578154 0.12752397 -0.0039402843 0.12386389 -0.07100181
-0.23316061 0.002032131 0.23244397 -0.035710007 0.03929937 0.020921886 -0.0150461495 -0.18906339
0.16546543 -0.13861586 -0.106754914 0.26932916 0.124521405 -0.26817027 -0.25319764 0.11746672
-0.27475742 -0.28084296 0.11359905 -0.13976298 0.1847982 -0.1641843 -0.14566463 -0.05703412
0.1721134 0.26038972 0.26604864 0.115768954 0.055427536 0.18222845 -0.02821228 0.20179695
-0.24438705 0.25989679 0.008635789 0.09136687 0.11138876 0.18877223 -0.1675927 -0.2375608
-0.04284866 -0.21147573 -0.07285893 0.12504569 -0.08694944 0.016368061 0.13869971 0.08840068
-0.030305833 0.17186186 -0.0469743 0.12902604 -0.2816375 -0.021994531 -0.11924066 0.13364242
-0.014727116 0.17702888 0.2278422 -0.24476899 0.01060009 0.1537094 0.0684811 0.15998349
0.1844077 0.21907325 -0.14417538 0.13471243 0.24701472 0.025335861 0.15352337 -0.13154249
-0.062636584 0.012709469 -0.19038989 0.18647215 -0.025944024 -0.12623525 -0.050320506 0.026372403
-0.024665475 -0.06692582 -0.14818236 0.0141067505 0.20656869 0.06698063 0.25130737 -0.06414479
-0.15535365 -0.13029239 -0.061493114 -0.09687382 0.22918887 -0.14267774 -0.11949043 -0.14500566
0.112197876 -0.24733771 0.15012497 -0.22761889 -0.17866234 0.051380083 0.19853301 0.2492095
0.24588853 -0.15362646 -0.0730831 0.10886446 0.18162921 -0.22902705 -0.07911861 -0.2179219
0.053293183 -0.1723777 0.23648015 0.19768934 0.022749871 -0.15469024 0.15058121 -0.07064237
-0.09074293 -0.15711074 0.108344704 -0.09663175 0.24084306 0.09878592 -0.08762799 -0.22919984
-0.029157447 0.14013554 -0.2526139 -0.2598719 0.15900142 0.04810545 0.026397496 -0.21035379
00000000: 2df1 893e fca7 da3d 0081 413d 1d00 1bbe
00000010: b739 943c 3185 1bbe 8a3d 8c3d 001f 2a3d
00000020: 76e7 9a3d ae13 3abe a44e e63d a637 07be
00000030: 327f 0cbc 78d0 56be 0e1d 663e fe3c 913d
00000040: ae0f 79be ecf7 cebd ec31 fd3d d19a 6d3e
00000050: e062 4ebc 6083 3ebe 00b0 34bb 585c d3bd
00000060: e5a1 0dbe f044 b1bd d068 74bd 5805 84bd
00000070: 3195 8abe 0b66 1bbe cdb9 283e bcb4 57bd
00000080: 98d1 8d3e ee54 d53d 37cf 863e c086 70be
00000090: 09ab 06be 0123 70be 938c 29be bc95 39bd
000000a0: 3c33 1e3e 9ef6 23be 08bc 853d 5077 143e
000000b0: 5635 97bd 6f11 10be 5e62 853e 8004 dfbb
000000c0: 494c 33be 9eba 9ebd 2809 d63d 38bf 46be
000000d0: 062a 5abe ea88 ac3d c06c 793c bad9 f5bd
000000e0: c546 7cbe d87e 2b3d 2f7f 69be acf4 42be
000000f0: 61f3 873e faa7 433e b491 8c3e d048 dabc
00000100: e24d 873e 30c0 fabd 24db 183e 8378 78be
00000110: e42e 66bd 1ec5 a03d 4ca3 11be f89c 5c3d
00000120: 6012 4f3c 7eea c6bd 02eb 933d cb76 3f3e
00000130: 372c 663e b753 0b3e 1aef 8c3e 33e5 733e
00000140: 847e 02be eb22 923e 8339 70be 1f24 443e
00000150: 008f c3bd b131 2c3e 9f9a 8c3e e067 f5bc
00000160: 6410 813e 2e74 45be 1098 b63c c4c8 4cbe
00000170: 80e6 7dbb 271b 683e 66ee b3bd 5064 943d
00000180: dea1 b9bd f04e 82bc b076 4cbd 34b4 863e
00000190: 3026 ad3d 7745 993c 4630 6ebe a14c 57be
000001a0: c8b1 7ebe dbe2 32be a05d e13d 5015 07be
000001b0: ad25 863e b1ab 5abe 89d0 703e 0809 823e
000001c0: 6773 733e 9440 473e fc67 7e3d 0a81 b93d
000001d0: a595 023e 801d 81bb 5aac fd3d 6669 91bd
000001e0: a8c1 6ebe 802d 053b cb05 6e3e a844 12bd
000001f0: 60f8 203d 6064 ab3c 2084 76bc d599 41be
00000200: c56f 293e 51f1 0dbe 52a2 dabd 83e5 893e
00000210: 1405 ff3d 9d4d 89be 1fa3 81be 6492 f03d
00000220: 01ad 8cbe a6ca 8fbe 9ea6 e83d 071e 0fbe
00000230: bd3b 3d3e ee1f 28be 1c29 15be 9c9c 69bd
00000240: 7f3e 303e cd51 853e 8737 883e 4618 ed3d
00000250: fc07 633d 189a 3a3e 701d e7bc dca3 4e3e
00000260: 9940 7abe 3111 853e 207d 0d3c 8e1e bb3d
00000270: ca1f e43d 824d 413e 6c9d 2bbe 2343 73be
00000280: 1482 2fbd 188d 58be 1037 95bd fa0b 003e
00000290: 8c12 b2bd 5016 863c 4c07 0e3e 6a0b b53d
000002a0: f043 f8bc 8efc 2f3e 2068 40bd 671f 043e
000002b0: ca32 90be e02d b4bc 7234 f4bd 8fd9 083e
000002c0: 004a 71bc 0f47 353e 774f 693e b9a4 7abe
000002d0: 00ac 2d3c ff65 1d3e d23f 8c3d b6d2 233e
000002e0: 5fd5 3c3e bd54 603e b6a2 13be 0ef2 093e
000002f0: 6df1 7c3e 278d cf3c 3b35 1d3e 13b3 06be
00000300: 9c47 80bd 603b 503c 91f5 42be 8ef2 3e3e
00000310: 9088 d4bc d043 01be e01c 4ebd f00a d83c
00000320: 400f cabc 6810 89bd 1ebd 17be 0020 673c
00000330: be86 533e 242d 893d 5cab 803e 585e 83bd
00000340: 0715 1fbe 5e6b 05be 34e0 7bbd c865 c6bd
00000350: 7db0 6a3e 1d1a 12be 66b7 f4bd 5d7c 14be
00000360: 00c8 e53d 1946 7dbe 5cba 193e ed14 69be
00000370: 43f3 36be ec73 523d 3d4c 4b3e c630 7f3e
00000380: 34ca 7b3e 4150 1dbe 98ac 95bd 54f4 de3d
00000390: 02fd 393e 1186 6abe f008 a2bd eb26 5fbe
000003a0: f449 5a3d c883 30be da27 723e 136f 4a3e
000003b0: f05d ba3c 1e67 1ebe f631 1a3e f2ac 90bd
000003c0: 6ed7 b9bd a3e1 20be d4e3 dd3d dee6 c5bd
000003d0: 909f 763e 4650 ca3d 4e76 b3bd 5db3 6abe
000003e0: 99db eebc b17f 0f3e 9c56 81be ee0d 85be
000003f0: 45d1 223e 380a 453d 903f d83c fc66 57be

fc.0.bias f4 [120]
0.11674644 0.18960595 -0.21300475 0.13529064 -0.047049567 0.08092414 -0.106284216 0.18675713
0.15654263 -0.22870365 -0.08759378 -0.2024198 -0.28253096 -0.25045088 -0.08618438 -0.18621252
-0.22721842 -0.2553805 -0.025247276 0.1317868 -0.07669905 -0.22642627 0.00018912554 0.03266029
0.009010404 0.18790974 -0.023290634 -0.25214761 0.04755494 -0.21665756 0.017026573 -0.21810104
0.011082977 -0.24429934 -0.26813707 0.18886063 -0.25751916 0.07133782 0.28872946 -0.04992923
0.04354182 0.119860575 -0.11411223 -0.15110236 0.081205875 0.035486385 -0.11273055 -0.049492076
0.055063933 -0.27618155 -0.23311026 -0.24728832 0.040358633 0.17803255 -0.2659781 0.12644728
-0.13736434 -0.20113105 0.024269193 -0.109814316 -0.1450721 -0.10654156 -0.099905536 0.19045565
-0.093535006 0.19718939 -0.028959543 -0.07294014 0.049974263 0.030765606 -0.2348306 0.23266539
0.056200862 0.065117985 0.21985148 -0.28818056 0.17427686 -0.13265151 0.22241858 0.120447844
0.091902465 -0.11296968 0.2207799 0.20653075 0.011538714 -0.07556367 -0.20446223 0.08044453
0.108129576 0.13273479 0.15973665 0.065988496 0.10868539 -0.22338016 0.24968642 0.14844972
-0.28796604 0.06565918 0.09859751 0.20536394 -0.13317272 -0.19456212 -0.1626348 0.08836655
-0.24919596 -0.13131313 -0.09892532 0.24485369 0.24565852 0.09267458 0.0487051 -0.025839478
-0.06958184 -0.09177376 0.12720117 -0.2835879 0.20639667 -0.13208985 -0.22854778 -0.08852287
00000000: c218 ef3d 1028 423e eb1d 5abe a189 0a3e
00000010: 0cb7 40bd 8ebb a53d 8aab d9bd 433d 3f3e
00000020: b64c 203e 4a31 6abe 5e64 b3bd 2347 4fbe
00000030: e6a7 90be 193b 80be 7081 b0bd 7fae 3ebe
00000040: f2ab 68be 3cc1 82be 60d3 cebc 1ef3 063e
00000050: 6414 9dbd 4adc 67be 0050 4639 ccc6 053d
00000060: 60a0 133c 696b 403e 00cc bebc 7e19 81be
00000070: f8c8 423d 7bdb 5dbe 507b 8b3c e155 5fbe
00000080: 6095 353c 9b29 7abe 4349 89be ae64 413e
00000090: 8dd9 83be 9019 923d 59d4 933e 9882 4cbd
000000a0: e858 323d 7679 f53d acb3 e9bd 94ba 1abe
000000b0: 444f a63d 2c5a 113d 46df e6bd 34b8 4abd
000000c0: b88a 613d ab67 8dbe 75b4 6ebe 2639 7dbe
000000d0: 184f 253d 2a4e 363e 482e 88be 657b 013e
000000e0: 3da9 0cbe 4cf5 4dbe 30d0 c63c 54e6 e0bd
000000f0: c88d 14be 7632 dabd 469b ccbd ce06 433e
00000100: 488f bfbd 04ec 493e 903c edbc a461 95bd
00000110: d0b1 4c3d 2708 fc3c 6f77 70be d63f 6e3e
00000120: e032 663d 945c 853d bf20 613e 678c 93be
00000130: a275 323e ccd5 07be b2c1 633e 5cad f63d
00000140: 5c37 bc3d a65c e7bd 2014 623e cc7c 533e
00000150: e00c 3d3c 20c1 9abd 8c5e 51be 1ac0 a43d
00000160: 0a73 dd3d a1eb 073e 0192 233e fa24 873d
00000170: 7296 de3d c5bd 64be ccad 7f3e 3403 183e
00000180: 4970 93be 5278 863d 7eed c93d ed4a 523e
00000190: 6e5e 08be 4b3b 47be bd89 26be 86f9 b43d
000001a0: 3a2d 7fbe f376 06be 5c99 cabd edba 7a3e
000001b0: e88d 7b3e 2ccc bd3d 007f 473d 50ad d3bc
000001c0: ec80 8ebd e2f3 bbbd 0641 023e 6f32 91be
000001d0: a659 533e 9042 07be 6e08 6abe 7a4b b5bd

fc.2.weight f4 [4, 120]
0.07240464 -0.06333203 0.014488436 0.021269612 0.008935608 0.026157668 -0.03563119 0.0027826652
0.048864245 -0.08980056 -0.012553938 0.08618428 -0.0357094 0.087940976 0.014739782 0.041625842
-0.06002669 0.083730996 0.025783142 0.012435079 -0.07325369 -0.07046082 -0.08244606 -0.020756245
-0.007387625 -0.01303889 -0.07428185 -0.068355165 -0.08636482 -0.046439715 -0.06364057 -0.08342603
0.07336731 0.050381735 -0.017321112 0.070596576 0.089093044 0.01762677 0.036310166 0.020781882
0.038440228 0.0130776465 -0.05210879 0.08358599 -0.01214695 -0.020233557 -0.07811092 0.0069297533
-0.017161401 -0.0152466595 0.070942 0.0849932 0.002849251 -0.07611447 -0.055602666 0.011971949
0.05912164 -0.08092307 -0.0068114176 -0.07524108 -0.046843104 0.0017587468 -0.06543364 0.074728474
0.015146293 -0.043403126 0.057026327 0.052587047 0.0651599 -0.07275538 -0.08261494 0.057141617
0.03845936 0.030029625 -0.050672725 0.05897954 0.08701229 -0.07963235 0.061160713 -0.00031246245
-0.059127085 0.025249302 0.011185123 0.03112737 0.07634252 -0.041098576 -7.033348e-05 -0.053088352
0.022460377 0.05322428 0.027317628 0.07555637 0.07469548 0.0043227747 0.0056471806 -0.04784034
-0.03695692 -0.046208546 0.076974526 -0.020423189 -0.01861217 0.06557204 -0.034537625 0.002700448
0.014669493 -0.08727814 0.052115336 -0.08113994 -0.074199535 -0.026515149 -0.0034025237 -0.063605666
-0.080016166 0.06253913 -0.07048972 0.07092649 0.004976332 -0.06568592 -0.037835997 0.011041438
-0.04969062 0.0741653 -0.08059289 0.0040614903 0.0147295 -0.09057164 -0.053906374 -0.050966814
0.031064158 0.032378547 0.017511696 -0.06608127 -0.00159394 0.076555476 -0.013171397 0.013281137
0.037747413 -0.04965487 -0.045723148 0.08703442 -0.003990233 0.021344572 0.061748326 0.031298965
-0.011768522 -0.05091527 0.0072902963 0.0624056 -0.07240382 -0.058994282 0.007469885 -0.058877267
-0.049963903 -0.011621043 0.05596143 -0.028594494 -0.014893653 -0.07376647 -0.013888963 0.046094865
0.087794185 -0.04812193 -0.06916048 0.06305793 0.085995704 -0.059081554 -0.08601638 0.05745752
0.00054086 -0.06384186 0.029872604 0.048192576 -0.07044772 -0.020278305 0.053974897 0.07093415
0.0436787 -0.028646119 0.0051502064 -0.023507565 -0.028074525 -0.05356907 0.02812013 -0.08127542
0.042480662 0.044515714 -0.05050193 -0.03860224 -0.033548176 -0.046928696 0.07688165 0.030550309
-0.028027244 0.03549221 0.08236107 -0.064634755 0.006055534 -0.02929279 -0.07790363 0.065411344
0.055729493 0.044522673 -0.0087819025 0.0026901066 0.07975449 0.068427935 0.060550034 -0.031934455
-0.02396141 0.0022470802 0.041905463 -0.07349217 0.08273961 0.04070607 -0.05690379 0.00047738105
0.05176343 0.0125706345 -0.068656065 -0.03392858 -0.06757898 -0.006111048 0.08150926 0.011305146
-0.086532235 0.07075246 -0.028492065 -0.012757689 -0.074679434 0.027882561 -0.08716309 0.0069356263
-0.048513196 0.01676972 -0.0011854619 0.08060734 0.021908045 0.02936784 -0.0042514503 0.04705733
-0.06562888 0.07787125 -0.05803228 -0.00912226 -0.008380204 0.012144268 -0.0035695657 0.05137925
0.090179384 0.028449422 0.027778162 -0.051780228 0.025993824 0.07119523 -0.084696144 -0.07501296
00000000: e248 943d 39b4 81bd e860 6d3c 9c3d ae3c
00000010: a866 123c 9b48 d63c 03f2 11bd 605d 363b
00000020: e025 483d 5be9 b7bd 08af 4dbc 6281 b03d
00000030: 0544 12bd 661a b43d 207f 713c dc7f 2a3d
00000040: 8cde 75bd 287b ab3d 2b37 d33c 80bc 4b3c
00000050: 0806 96bd c34d 90bd 7bd9 a8bd 0009 aabc
00000060: e413 f2bb 12a1 55bc 1521 98bd cbfd 8bbd
00000070: 0ae0 b0bd 9237 3ebd fd55 82bd 44db aabd
00000080: 9a41 963d 145d 4e3d 01e5 8dbc f094 903d
00000090: 6a76 b63d 0466 903c f8b9 143d c43e aa3c
000000a0: 8073 1d3d a043 563c 0770 55bd 222f ab3d
000000b0: 0004 47bc d8c0 a5bc 9ef8 9fbd fc12 e33b
000000c0: 1196 8cbc 20cd 79bc 0a4a 913d ea10 ae3d
000000d0: 80ba 3a3b e7e1 9bbd 9fbf 63bd fe25 443c
000000e0: 8829 723d ffba a5bd 5032 dfbb ff17 9abd
000000f0: 8ede 3fbd c085 e63a 1202 86bd 3e0b 993d
00000100: 2828 783c 7ac7 31bd 7094 693d 8465 573d
00000110: 8e72 853d c600 95bd 0632 a9bd 540d 6a3d
00000120: 9087 1d3d b000 f63c 348e 4fbd 8894 713d
00000130: 8033 b23d 4916 a3bd a883 7a3d 00d2 a3b9
00000140: 3e2f 72bd a0d7 ce3c ce41 373c d4fe fe3c
00000150: 7859 9c3d fb56 28bd 0080 93b8 2c73 59bd
00000160: d3fe b73c b401 5a3d 38c9 df3c 4cbd 9a3d
00000170: f2f9 983d 10a6 8d3b fc0b b93b 3bf4 43bd
00000180: 2460 17bd 2c45 3dbd d2a4 9d3d 884e a7bc
00000190: 8d78 98bc a24a 863d 5377 0dbd 00fa 303b
000001a0: 5058 703c e2be b2bd e476 553d b22c a6bd
000001b0: edf5 97bd 4c36 d9bc e0fc 5ebb b043 82bd
000001c0: 84df a3bd 8414 803d ea5c 90bd e841 913d
000001d0: 8010 a33b 5786 86bd ebf9 1abd 26e7 343c
000001e0: 6488 4bbd fae3 973d e30d a5bd 4016 853b
000001f0: 0054 713c a07d b9bd eecc 5cbd 94c2 50bd
00000200: 437a fe3c 5e9f 043d b074 8f3c 9e55 87bd
00000210: c0eb d0ba 1ec9 9c3d d8cc 57bc 2099 593c
00000220: 089d 1a3d e862 4bbd 3248 3bbd 1a3f b23d
00000230: 80c0 82bb d0da ae3c d0eb 7c3d 5833 003d
00000240: c2d0 40bc 888c 50bd 70e3 ee3b 049d 7f3d
00000250: 7448 94bd fda3 71bd f0c5 f43b 4a29 71bd
00000260: f3a6 4cbd 3066 3ebc d037 653d 003f eabc
00000270: 8204 74bc e012 97bd 888e 63bc f8cd 3c3d
00000280: 70cd b33d 801b 45bd 02a4 8dbd 8424 813d
00000290: 841e b03d 80ff 71bd 5b29 b0bd 9458 6b3d
000002a0: 80c8 0d3a 85bf 82bd 64b7 f43c 9465 453d
000002b0: e546 90bd b01e a6bc c814 5d3d ec45 913d
000002c0: 70e8 323d 44ab eabc 10c3 a83b f092 c0bc
000002d0: 8cfc e5bc 3e6b 5bbd 305c e63c ba73 a6bd
000002e0: 3400 2e3d 1c56 363d 1ddb 4ebd 621d 1ebd
000002f0: d069 09bd 4e38 40bd 2074 9d3d a444 fa3c
00000300: 6499 e5bc 4860 113d ecac a83d 3a5f 84bd
00000310: 806d c63b 6ff7 efbc f08b 9fbd 62f6 853d
00000320: 9c44 643d 685d 363d f8e1 0fbc 804c 303b
00000330: 5256 a33d f223 8c3d 5003 783d b4cd 02bd
00000340: b84a c4bc c043 133b 10a5 2b3d 1083 96bd
00000350: 6273 a93d 68bb 263d f313 69bd 0049 fa39
00000360: e405 543d 10f5 4d3c 8d9b 8cbd b2f8 0abd
00000370: d966 8abd 303f c8bb 54ee a63d 3839 393c
00000380: d037 b1bd aae6 903d 3168 e9bc a005 51bc
00000390: 88f1 98bd f869 e43c 9082 b2bd 4044 e33b
000003a0: c6b5 46bd a760 893c 8061 9bba 7615 a53d
000003b0: 8078 b33c d394 f03c c04f 8bbb 30bf 403d
000003c0: 6f68 86bd f67a 9f3d 42b3 6dbd 8875 15bc
000003d0: 204d 09bc c0f8 463c 60ef 69bb 0c73 523d
000003e0: f8af b83d c30e e93c 078f e33c 8117 54bd
000003f0: 00f1 d43c cece 913d 2c75 adbd 65a0 99bd

fc.2.bias f4 [4]
0.0071182996 0.038450956 -0.04591264 -0.06932391
00000000: a040 e93b c07e 1d3d e40e 3cbd b2f9 8dbd
