Models/score_40_model_73832.pt (torch, 9695 bytes, 4 tensors)

fc.0.weight f4 [120, 12]
000000 dc c9 89 3e 6a dc da 3d 00 81 41 3d e6 e5 1a be
       0.2691182 0.10686572 0.047242165 -0.15126762
000010 00 68 93 3c c3 50 1b be 8a 3d 8c 3d 00 1f 2a 3d
       0.017993927 -0.15167527 0.06847675 0.04153347
000020 76 e7 9a 3d 77 f9 39 be ca 54 e7 3d 38 03 07 be
       0.07563679 -0.1816157 0.11295469 -0.13184822
000030 a0 22 0e bc d3 81 56 be 7c 51 66 3e da a5 91 3d
       -0.008675247 -0.20947962 0.22492021 0.07111712
000040 ae 0f 79 be c8 60 cf bd 36 cf fd 3d 9a 80 6d 3e
       -0.24322388 -0.101258814 0.12393038 0.23193589
000050 e0 62 4e bc bb 34 3e be 00 b0 34 bb 58 5c d3 bd
       -0.012596816 -0.18574803 -0.0027570724 -0.103203475
000060 40 53 0d be 5e 79 b1 bd d0 68 74 bd a2 a2 84 bd
       -0.13801289 -0.08665727 -0.05967027 -0.06476332
000070 c5 60 8a be 9d 31 1b be 04 d4 28 3e 98 1d 58 bd
       -0.27026954 -0.15155645 0.16487128 -0.052762598
000080 04 06 8e 3e 80 20 d5 3d 1c c2 86 3e c0 86 70 be
       0.27738965 0.104065895 0.2631997 -0.23488903
000090 d2 90 06 be ee 9f 6f be 01 c1 29 be 74 67 3a bd
       -0.13141182 -0.23400852 -0.16577531 -0.045508817
0000a0 aa 67 1e 3e 67 dc 23 be 2c 53 85 3d be ab 14 3e
       0.15469232 -0.16002046 0.065100044 0.1451864
0000b0 e8 00 97 bd 14 60 10 be 79 6f 85 3e a4 bd db bb
       -0.0737322 -0.14099151 0.2606161 -0.0067059565
0000c0 a4 fd 32 be 30 86 9e bd 4c a0 d5 3d 38 bf 46 be
       -0.17479569 -0.07740438 0.10430965 -0.19408882
0000d0 61 db 59 be ea 88 ac 3d 2e 10 7b 3c ba d9 f5 bd
       -0.21275093 0.08424552 0.015323682 -0.12004419
0000e0 e9 dd 7b be d8 7e 2b 3d 53 16 69 be 07 a6 42 be
       -0.24596371 0.041869015 -0.22762422 -0.19008647
0000f0 7c 00 88 3e 9f f6 43 3e b4 91 8c 3e d0 48 da bc
       0.2656287 0.19137047 0.27454913 -0.026646048
000100 e2 4d 87 3e 30 c0 fa bd c9 29 19 3e 02 c1 77 be
       0.26426607 -0.12243688 0.14957346 -0.2419472
000110 08 c6 65 bd 1e c5 a0 3d 4c a3 11 be 40 cb 5b 3d
       -0.05609706 0.07850097 -0.14222449 0.05366063
000120 60 12 4f 3c a2 81 c6 bd 02 eb 93 3d 94 5c 3f 3e
       0.012638658 -0.09692694 0.072225586 0.1868766
000130 13 95 66 3e ee 6d 0b 3e 86 23 8d 3e d8 33 74 3e
       0.22517805 0.13616154 0.27566165 0.23847902
000140 a8 15 02 be 21 3d 92 3e a7 d0 6f be 8d 58 44 3e
       -0.12703574 0.28562263 -0.23419438 0.19174404
000150 6e c3 c3 bd 43 fd 2b 3e d5 b4 8c 3e e0 67 f5 bc
       -0.0955876 0.1679583 0.27481714 -0.029956758
000160 b5 37 81 3e c0 3f 45 be 10 98 b6 3c 1f 7a 4c be
       0.25237814 -0.192626 0.022289306 -0.1996846
000170 80 e6 7d bb 5e 35 68 3e 66 ee b3 bd be 98 94 3d
       -0.0038742125 0.22676608 -0.08785705 0.07255696
000180 ba 0a ba bd f0 4e 82 bc f8 a4 4b bd a0 e8 86 3e
       -0.09084077 -0.015906781 -0.049717873 0.26349354
000190 9e 5a ad 3d c0 73 98 3c 0f 16 6e be d8 66 57 be
       0.084645495 0.018609881 -0.23250602 -0.21035326
0001a0 c8 b1 7e be a4 c8 32 be ea fa e1 3d 19 fb 06 be
       -0.24872506 -0.17459351 0.11034186 -0.13181724
0001b0 ad 25 86 3e b1 ab 5a be 2e 1f 71 3e 23 16 82 3e
       0.2620062 -0.21354558 0.2354705 0.25407514
0001c0 f9 3e 73 3e 02 75 47 3e 20 ff 7d 3d 0a 81 b9 3d
       0.23754491 0.19478229 0.062010884 0.090578154
0001d0 dc af 02 3e 80 1d 81 bb 5a ac fd 3d 1c cc 90 bd
       0.12762398 -0.0039402843 0.12386389 -0.07070181
0001e0 3a 8d 6e be 80 2d 05 3b de 88 6e 3e f0 72 11 bd
       -0.23296061 0.002032131 0.23294398 -0.035510004
0001f0 3c 61 21 3d 17 36 ac 3c 20 84 76 bc 0c b4 41 be
       0.03939937 0.021021886 -0.0150461495 -0.18916339
000200 c5 6f 29 3e 51 f1 0d be 52 a2 da bd b9 ff 89 3e
       0.16546543 -0.13861586 -0.106754914 0.26952913
000210 f0 6d ff 3d ee 74 89 be e9 88 81 be d2 c6 f0 3d
       0.12472141 -0.26847023 -0.25299767 0.11756672
000220 7a 6b 8c be a6 ca 8f be c2 3d e8 3d 3e 38 0f be
       -0.27425748 -0.28084296 0.11339904 -0.13986298
000230 bd 3b 3d 3e 80 eb 27 be 1c 29 15 be 54 6e 6a bd
       0.1847982 -0.1639843 -0.14566463 -0.057234123
000240 5b a7 30 3e 03 6c 85 3e d8 5e 88 3e 46 18 ed 3d
       0.17251341 0.2605897 0.2663486 0.115768954
000250 20 9f 62 3d 4f b4 3a 3e 70 1d e7 bc dc a3 4e 3e
       0.055327535 0.18232845 -0.02821228 0.20179695
000260 62 26 7a be 4c 1e 85 3e 20 7d 0d 3c b2 b5 ba 3d
       -0.24428704 0.25999677 0.008635789 0.09116687
000270 38 54 e4 3d f0 81 41 3e fe 68 2b be 47 da 72 be
       0.11148876 0.18897223 -0.1673927 -0.23716079
000280 38 19 2f bd 18 8d 58 be c6 99 94 bd 86 e3 ff 3d
       -0.04274866 -0.21147573 -0.072558925 0.124945685
000290 b0 a9 b1 bd 50 16 86 3c 5f 8a 0e 3e fc d6 b4 3d
       -0.086749434 0.016368061 0.13919972 0.088300675
0002a0 f0 43 f8 bc fc 30 30 3e 68 96 3f bd 67 1f 04 3e
       -0.030305833 0.17206186 -0.046774298 0.12902604
0002b0 94 18 90 be e0 2d b4 bc 28 97 f3 bd 8f d9 08 3e
       -0.28143752 -0.021994531 -0.11894065 0.13364242
0002c0 92 a6 6f bc 0f 47 35 3e 1c 9e 69 3e f0 be 7a be
       -0.014627116 0.17702888 0.2281422 -0.244869
0002d0 00 ac 2d 3c 91 31 1d 3e 64 0b 8c 3d 24 07 24 3e
       0.01060009 0.1535094 0.0683811 0.16018349
0002e0 5f d5 3c 3e f4 6e 60 3e 48 6e 13 be 45 0c 0a 3e
       0.1844077 0.21917325 -0.14397538 0.13481243
0002f0 49 5a 7d 3e 27 8d cf 3c cd 00 1d 3e 4a cd 06 be
       0.24741472 0.025335861 0.15332337 -0.13164249
000300 80 bd 7f bd 60 3b 50 3c 91 f5 42 be 8e f2 3e 3e
       -0.06243658 0.012709469 -0.19038989 0.18647215
000310 90 88 d4 bc d0 43 01 be bc 85 4e bd a7 dc d8 3c
       -0.025944024 -0.12623525 -0.050420508 0.026472403
000320 89 3d c9 bc 68 10 89 bd 1e bd 17 be 6e c3 68 3c
       -0.024565475 -0.06692582 -0.14818236 0.01420675
000330 9a ef 53 3e 92 61 89 3d 92 c5 80 3e ea 29 83 bd
       0.2069687 0.06708063 0.25150734 -0.06404479
000340 ac 63 1f be 5e 6b 05 be 58 77 7b bd a4 ce c6 bd
       -0.15565366 -0.13029239 -0.061393112 -0.09707382
000350 7d b0 6a 3e 8b 4e 12 be 8a 4e f4 bd 26 62 14 be
       0.22918887 -0.14287774 -0.11929043 -0.14490566
000360 b8 99 e6 3d e2 2b 7d be 93 d4 19 3e 48 c6 68 be
       0.11259788 -0.24723771 0.15022497 -0.22731888
000370 0c d9 36 be 80 ae 53 3d 3d 4c 4b 3e c6 30 7f 3e
       -0.17856234 0.051680088 0.19853301 0.2492095
000380 a2 fe 7b 3e d3 1b 1d be e2 49 96 bd 30 5d df 3d
       0.24608853 -0.15342645 -0.07338311 0.10906446
000390 70 31 3a 3e 35 1d 6a be f0 08 a2 bd 90 75 5f be
       0.18182921 -0.22862704 -0.07911861 -0.2182219
0003a0 f4 49 5a 3d b5 00 30 be da 27 72 3e ef d7 4a 3e
       0.053293183 -0.1718777 0.23648015 0.19808935
0003b0 a7 2f bb 3c e7 4c 1e be bf 17 1a 3e 60 e1 90 bd
       0.02284987 -0.15459023 0.15048121 -0.07074237
0003c0 dc 0b ba bd 7f 4a 21 be 66 af dd 3d ba 4f c6 bd
       -0.09084293 -0.15751074 0.1082447 -0.096831754
0003d0 59 85 76 3e b4 84 ca 3d bc aa b3 bd cb e7 6a be
       0.24074306 0.09888592 -0.087727994 -0.22939985
0003e0 99 db ee bc 43 4b 0f 3e 9c 56 81 be d3 00 85 be
       -0.029157447 0.13993554 -0.2526139 -0.2597719
0003f0 45 d1 22 3e f0 db 45 3d 47 11 d9 3c b2 c9 56 be
       0.15900142 0.048305452 0.026497496 -0.20975378

fc.0.bias f4 [120]
000000 30 4d ef 3d b5 76 42 3e 59 52 5a be 33 55 0a 3e
       0.11684644 0.18990596 -0.21320476 0.13509063
000010 c4 88 41 bd 20 87 a5 3d 8a ab d9 bd 56 c0 3f 3e
       -0.04724957 0.08082414 -0.106284216 0.18725714
000020 b6 4c 20 3e 6e c8 69 be 5e 64 b3 bd 23 47 4f be
       0.15654263 -0.22830364 -0.08759378 -0.2024198
000030 1c c2 90 be b5 be 7f be de b5 b0 bd 11 7a 3e be
       -0.28273094 -0.24975093 -0.086284384 -0.18601252
000040 84 77 68 be eb 99 82 be 60 d3 ce bc 55 0d 07 3e
       -0.22701842 -0.25508055 -0.025247276 0.1318868
000050 64 14 9d bd dc a7 67 be 00 50 46 39 cc c6 05 3d
       -0.07669905 -0.22622627 0.00018912554 0.03266029
000060 60 a0 13 3c a0 85 40 3e 49 fa bd bc 7e 19 81 be
       0.009010404 0.18800974 -0.023190634 -0.25214761
000070 d4 31 43 3d d6 8c 5d be 50 7b 8b 3c 3c 07 5f be
       0.04765494 -0.21635756 0.017026573 -0.21780103
000080 ce 38 37 3c d2 43 7a be 0d 2f 89 be ae 64 41 3e
       0.011182977 -0.24439934 -0.2679371 0.18886063
000090 72 cc 83 be fe 4d 92 3d 4c 4a 94 3e bc 19 4c bd
       -0.25741917 0.07143782 0.28962934 -0.04982923
0000a0 e8 58 32 3d 08 45 f5 3d 88 1c ea bd 5d a0 1a be
       0.04354182 0.11976057 -0.11431223 -0.15100236
0000b0 20 b8 a6 3d 50 f1 10 3d d8 aa e6 bd 58 4f 4a bd
       0.08140588 0.035386384 -0.112630546 -0.049392074
0000c0 94 f3 61 3d 90 5a 8d be 3e 9a 6e be 94 6d 7d be
       0.055163935 -0.27608156 -0.23301026 -0.24748832
0000d0 18 4f 25 3d cf 9c 36 3e f7 06 88 be 2e 61 01 3e
       0.040358633 0.17833255 -0.26567814 0.12634727
0000e0 3d a9 0c be a7 a6 4d be 30 d0 c6 3c 78 7d e0 bd
       -0.13736434 -0.20083104 0.024269193 -0.10961431
0000f0 91 73 14 be e4 66 da bd d8 66 cc bd 05 21 43 3e
       -0.1449721 -0.10664156 -0.099805534 0.19055565
000100 6c 26 bf bd 3b 06 4a 3e 90 3c ed bc 12 96 95 bd
       -0.093335 0.19728939 -0.028959543 -0.07304014
000110 ac 1a 4d 3d 70 36 fb 3c 38 5d 70 be 44 74 6e 3e
       0.050074264 0.030665606 -0.2347306 0.2328654
000120 98 04 67 3d 02 91 85 3d f6 3a 61 3e c5 3d 93 be
       0.056400865 0.06521799 0.21995148 -0.28758064
000130 10 aa 32 3e 3a 0a 08 be 20 f6 63 3e ca e1 f6 3d
       0.17447686 -0.13285151 0.22261858 0.120547846
000140 5c 37 bc 3d 14 91 e7 bd 57 2e 62 3e 71 cb 53 3e
       0.091902465 -0.11306968 0.2208799 0.20683075
000150 e0 0c 3d 3c b2 8c 9a bd 1e 2a 51 be ac 8b a4 3d
       0.011538714 -0.07546367 -0.20426223 0.08034453
000160 0a 73 dd 3d a1 eb 07 3e 6f c6 23 3e 8c f0 86 3d
       0.108129576 0.13273479 0.15993665 0.065888494
000170 72 96 de 3d 8e a3 64 be 5e 79 7f 3e c6 ce 17 3e
       0.10868539 -0.22328016 0.24948642 0.14824972
000180 2e 63 93 be c0 ac 86 3d 10 b9 c9 3d 5b 7f 52 3e
       -0.28786606 0.06575918 0.09849751 0.20556395
000190 ed a6 07 be a6 ec 46 be 2b be 26 be f4 2d b5 3d
       -0.13247271 -0.19426212 -0.16283481 0.088466555
0001a0 95 de 7e be 85 42 06 be 5c 99 ca bd 24 d5 7a 3e
       -0.24889596 -0.13111313 -0.09892532 0.24495369
0001b0 e8 8d 7b 3e 9a 00 be 3d b8 50 48 3d 50 ad d3 bc
       0.24565852 0.092774585 0.048905104 -0.025839478
0001c0 10 18 8e bd 74 bf bb bd 74 75 02 3e 39 18 91 be
       -0.06938183 -0.09167376 0.12740117 -0.28338793
0001d0 a6 59 53 3e 22 0e 07 be 00 d4 69 be 0c 17 b5 bd
       0.20639667 -0.13188985 -0.22834778 -0.088422865

fc.2.weight f4 [4, 120]
000000 be b1 94 3d cb 7f 81 bd e8 60 6d 3c 9c 3d ae 3c
       0.07260464 -0.06323203 0.014488436 0.021269612
000010 a8 66 12 3c e4 76 d5 3c df 5a 12 bd 60 5d 36 3b
       0.008935608 0.026057668 -0.035731193 0.0027826652
000020 bc 8e 48 3d 7f 80 b7 bd 08 af 4d bc 62 81 b0 3d
       0.048964247 -0.089600556 -0.012553938 0.08618428
000030 e1 ac 12 bd d4 4e b4 3d 8e 22 73 3c dc 7f 2a 3d
       -0.0358094 0.08804098 0.014839781 0.041625842
000040 b0 75 75 bd 96 af ab 3d 2b 37 d3 3c 80 bc 4b 3c
       -0.05992669 0.083831 0.025783142 0.012435079
000050 be 68 95 bd c3 4d 90 bd c5 76 a9 bd 00 09 aa bc
       -0.072953686 -0.07046082 -0.082746066 -0.020756245
000060 c0 5a f5 bb 80 44 57 bc a7 ec 97 bd 81 60 8b bd
       -0.007487625 -0.01313889 -0.07418185 -0.06805516
000070 9c ab b0 bd 6e a0 3e bd fd 55 82 bd b2 0f ab bd
       -0.08626482 -0.046539716 -0.06364057 -0.08352603
000080 76 aa 96 3d 14 5d 4e 3d b8 b6 8e bc 14 2c 90 3d
       0.073567316 0.050381735 -0.017421111 0.07039657
000090 46 df b6 3d 04 66 90 3c f8 b9 14 3d c4 3e aa 3c
       0.08929305 0.01762677 0.036310166 0.020781882
0000a0 a4 0a 1d 3d a0 43 56 3c 4f 9e 54 bd 22 2f ab 3d
       0.038340226 0.0130776465 -0.051908787 0.08358599
0000b0 92 60 45 bc 21 ef a4 bc 78 f2 9e bd 20 cc df 3b
       -0.01204695 -0.020133557 -0.07761091 0.0068297535
0000c0 c8 67 8d bc 20 cd 79 bc 0a 4a 91 3d 58 45 ae 3d
       -0.0172614 -0.0152466595 0.070942 0.0850932
0000d0 80 ba 3a 3b c3 4a 9c bd 9f bf 63 bd 90 82 42 3c
       0.002849251 -0.07631447 -0.055602666 0.011871949
0000e0 40 fb 72 3d ff ba a5 bd 50 32 df bb ff 17 9a bd
       0.059321642 -0.08092307 -0.0068114176 -0.07524108
0000f0 6a 47 40 bd c0 85 e6 3a a4 cd 85 bd 88 a8 99 3d
       -0.046943106 0.0017587468 -0.065333635 0.07502848
000100 28 28 78 3c 9e 5e 31 bd 28 66 6a 3d 60 ce 57 3d
       0.015146293 -0.043303125 0.05722633 0.05268705
000110 8e 72 85 3d 58 cc 94 bd 74 66 a9 bd 30 76 6a 3d
       0.0651599 -0.07265538 -0.082714945 0.05724162
000120 24 c2 1e 3d b0 00 f6 3c 10 f7 4f bd 88 94 71 3d
       0.038759366 0.030029625 -0.050772727 0.05897954
000130 38 05 b3 3d 49 16 a3 bd 84 ec 7a 3d 00 d2 a3 b9
       0.0874123 -0.07963235 0.061260715 -0.00031246245
000140 62 c6 71 bd a0 d7 ce 3c 60 9e 35 3c d4 fe fe 3c
       -0.059027083 0.025249302 0.011085123 0.03112737
000150 54 c2 9c 3d 43 85 27 bd 00 80 93 b8 08 dc 59 bd
       0.07654253 -0.040898573 -7.033348e-05 -0.053188354
000160 1c 2d b7 3c 90 6a 5a 3d 38 c9 df 3c ba f1 9a 3d
       0.022360377 0.053324282 0.027317628 0.07565637
000170 84 c5 98 3d 10 a6 8d 3b 20 c5 b5 3b 3b f4 43 bd
       0.07459548 0.0043227747 0.005547181 -0.04784034
000180 24 60 17 bd 50 dc 3c bd d2 a4 9d 3d 1a ab a5 bc
       -0.03695692 -0.046108544 0.076974526 -0.02022319
000190 44 4a 99 bc 7e b3 86 3d 9b a5 0c bd 00 fa 30 3b
       -0.01871217 0.06577204 -0.03433762 0.002700448
0001a0 50 58 70 3c 74 8a b2 bd e4 76 55 3d d6 c3 a5 bd
       0.014669493 -0.08717814 0.052115336 -0.08093993
0001b0 11 8d 97 bd 4c 36 d9 bc e0 fc 5e bb b0 43 82 bd
       -0.07399953 -0.026515149 -0.0034025237 -0.063605666
0001c0 a8 76 a3 bd ce b1 80 3d 58 91 90 bd e8 41 91 3d
       -0.07981616 0.062839136 -0.07058972 0.07092649
0001d0 80 10 a3 3b e9 51 86 bd eb f9 1a bd 26 e7 34 3c
       0.004976332 -0.06558592 -0.037835997 0.011041438
0001e0 88 1f 4b bd 1e 7b 97 3d e3 0d a5 bd 40 16 85 3b
       -0.049590617 0.073965296 -0.08059289 0.0040614903
0001f0 00 54 71 3c a0 7d b9 bd ca 35 5d bd dc f0 4f bd
       0.0147295 -0.09057164 -0.054006375 -0.05076681
000200 8c a8 fd 3c f2 d9 05 3d 1e 18 91 3c 9e 55 87 bd
       0.030964158 0.032678552 0.017711695 -0.06608127
000210 c0 eb d0 ba 1e c9 9c 3d d8 cc 57 bc 8e 3c 5b 3c
       -0.00159394 0.076555476 -0.013171397 0.013381137
000220 74 62 19 3d 30 91 4a bd 9e 0d 3a bd 88 73 b2 3d
       0.037447408 -0.049454868 -0.045423143 0.08713442
000230 80 c0 82 bb d0 da ae 3c f4 82 7c 3d 58 33 00 3d
       -0.003990233 0.021344572 0.061648324 0.031298965
000240 30 74 42 bc 88 8c 50 bd 70 e3 ee 3b 5e 37 80 3d
       -0.011868522 -0.05091527 0.0072902963 0.062605605
000250 06 14 94 bd 45 d2 70 bd f0 c5 f4 3b 4a 29 71 bd
       -0.07230382 -0.05879428 0.007469885 -0.058877267
000260 f3 a6 4c bd c2 c2 3c bc f4 ce 64 3d 49 6d e9 bc
       -0.049963903 -0.011521043 0.05586143 -0.028494494
000270 f0 a7 75 bc 72 de 96 bd 88 8e 63 bc 1c 65 3c 3d
       -0.014993653 -0.07366647 -0.013888963 0.045994863
000280 de 01 b4 3d c8 49 44 bd 94 6f 8d bd 84 24 81 3d
       0.08789419 -0.047921926 -0.069060475 0.06305793
000290 f2 52 b0 3d 5c 68 72 bd 5b 29 b0 bd 70 c1 6b 3d
       0.086095706 -0.059181556 -0.08601638 0.057557523
0002a0 80 c8 0d 3a 17 8b 82 bd 64 b7 f4 3c dc 93 44 3d
       0.00054086 -0.063741855 0.029872604 0.047992572
0002b0 09 de 8f bd b0 1e a6 bc c8 14 5d 3d c8 ae 91 3d
       -0.07024772 -0.020278305 0.053974897 0.07113415
0002c0 94 7f 32 3d 44 ab ea bc 10 c3 a8 3b f0 92 c0 bc
       0.0435787 -0.028646119 0.0051502064 -0.023507565
0002d0 8c fc e5 bc 62 02 5b bd e7 2d e7 3c ba 73 a6 bd
       -0.028074525 -0.05346907 0.02822013 -0.08127542
0002e0 10 69 2e 3d f8 be 36 3d 1d db 4e bd 86 b4 1d bd
       0.042580664 0.044615716 -0.05050193 -0.03850224
0002f0 d0 69 09 bd 4e 38 40 bd 20 74 9d 3d 5b 16 fb 3c
       -0.033548176 -0.046928696 0.07688165 0.030650308
000300 64 99 e5 bc 24 c9 11 3d ec ac a8 3d cc 2a 84 bd
       -0.028027244 0.035592213 0.08236107 -0.06453475
000310 80 6d c6 3b 26 c9 f0 bc 3a 29 a0 bd f4 c1 85 3d
       0.006055534 -0.02939279 -0.07820363 0.06531134
000320 c0 db 63 3d 68 5d 36 3d f8 e1 0f bc 80 4c 30 3b
       0.05562949 0.044522673 -0.0087819025 0.0026901066
000330 c0 8a a3 3d f2 23 8c 3d 2c 6c 78 3d fc fb 01 bd
       0.07985449 0.068427935 0.060650036 -0.03173445
000340 01 79 c3 bc c0 43 13 3b 10 a5 2b 3d 34 1a 96 bd
       -0.02386141 0.0022470802 0.041905463 -0.073292166
000350 62 73 a9 3d 8c 52 26 3d 17 ab 68 bd 00 49 fa 39
       0.08273961 0.040606067 -0.05680379 0.00047738105
000360 2c 34 53 3d 10 f5 4d 3c 1f 67 8c bd b2 f8 0a bd
       0.051563427 0.0125706345 -0.06855606 -0.03392858
000370 d9 66 8a bd 30 3f c8 bb 54 ee a6 3d a6 dc 3a 3c
       -0.06757898 -0.006111048 0.08150926 0.011405146
000380 f4 ce b0 bd 86 4f 91 3d e8 39 ea bc a0 05 51 bc
       -0.08633223 0.07095246 -0.028592065 -0.012757689
000390 ac 88 98 bd f8 69 e4 3c b4 19 b2 bd 1c 8b e6 3b
       -0.07447943 0.027882561 -0.08696309 0.007035626
0003a0 a2 1e 47 bd f0 8e 88 3c 80 61 9b ba 52 7e a5 3d
       -0.048613198 0.01666972 -0.0011854619 0.08080734
0003b0 37 4a b4 3c d3 94 f0 3c c0 4f 8b bb 0c 28 41 3d
       0.022008045 0.02936784 -0.0042514503 0.047157332
0003c0 6f 68 86 bd f6 7a 9f 3d ae 78 6c bd 88 75 15 bc
       -0.06562888 0.07787125 -0.057732277 -0.00912226
0003d0 20 4d 09 bc c0 f8 46 3c 60 ef 69 bb e8 db 52 3d
       -0.008380204 0.012144268 -0.0035695657 0.05147925
0003e0 8a 7b b8 3d 0c 3d e8 3c 50 bd e2 3c c9 45 53 bd
       0.09007938 0.028349422 0.027678162 -0.051580224
0003f0 b7 c2 d5 3c 86 a0 92 3d be 40 ad bd 89 37 99 bd
       0.026093824 0.07159524 -0.08459614 -0.074812956

fc.2.bias f4 [4]
000000 a0 40 e9 3b 9c e7 1d 3d 78 49 3d bd 20 2e 8e bd
       0.0071182996 0.038550958 -0.046212643 -0.069423914
