Models/score_43_model_886449.pt (torch, 9695 bytes, 4 tensors)

fc.0.weight f4 [120, 12]
0	0x3e89e412	0.26931816
1	0x3ddaa7fc	0.10676572
2	0x3d418100	0.047242165
3	0xbe1acbaf	-0.15116762
4	0x3c950b6e	0.018193927
5	0xbe1b50c3	-0.15167527
6	0x3d8c091c	0.06837675
7	0x3d2a87dc	0.04163347
8	0x3d9ab308	0.07553679
9	0xbe39f977	-0.1816157
10	0x3de64ea4	0.11245468
11	0xbe071d6f	-0.13194822
12	0xbc0e22a0	-0.008675247
13	0xbe56b641	-0.20967962
14	0x3e663745	0.22482021
15	0x3d91716c	0.07101712
16	0xbe790fae	-0.24322388
17	0xbdcec37e	-0.10095881
18	0x3dfe03a4	0.12403038
19	0x3e6de976	0.2323359
20	0xbc4cbf72	-0.012496816
21	0xbe3e34bb	-0.18574803
22	0xbb34b000	-0.0027570724
23	0xbdd327ea	-0.103103474
24	0xbe0d1ed2	-0.13781288
25	0xbdb0a7a6	-0.086257264
26	0xbd7468d0	-0.05967027
27	0xbd8439c6	-0.06456332
28	0xbe8a7afb	-0.27046952
29	0xbe1b4bd4	-0.15165645
30	0x3e293ce0	0.16527128
31	0xbd581d98	-0.052762598
32	0x3e8e203a	0.27758962
33	0x3dd554ee	0.1041659
34	0x3e86a7e6	0.2629997
35	0xbe706c89	-0.23478903
36	0xbe06422d	-0.13111182
37	0xbe6fee93	-0.23430853
38	0xbe29725c	-0.16547531
39	0xbd39fe98	-0.045408815
40	0x3e1e4d73	0.15459232
41	0xbe23dc67	-0.16002046
42	0x3d8624e4	0.06550005
43	0x3e14c5f5	0.1452864
44	0xbd96639e	-0.07343219
45	0xbe102ba6	-0.1407915
46	0x3e8589af	0.26081607
47	0xbbdf0480	-0.0068059564
48	0xbe336680	-0.1751957
49	0xbd9e8630	-0.07740438
50	0x3dd60928	0.10450965
51	0xbe468aca	-0.19388881
52	0xbe59db61	-0.21275093
53	0x3dac200e	0.084045514
54	0x3c796cc0	0.015223682
55	0xbdf570de	-0.11984418
56	0xbe7c2c8e	-0.24626371
57	0x3d2b7ed8	0.041869015
58	0xbe694ac1	-0.22782423
59	0xbe42f4ac	-0.19038647
60	0x3e884203	0.26612863
61	0x3e43dc68	0.19127047
62	0x3e8c91b4	0.27454913
63	0xbcd97719	-0.026546048
64	0x3e874de2	0.26426607
65	0xbdf9ee78	-0.122036874
66	0x3e18db24	0.14927346
67	0xbe780fa7	-0.24224721
68	0xbd65c608	-0.05609706
69	0x3da0c51e	0.07850097
70	0xbe116ede	-0.14202449
71	0x3d5c9cf8	0.053860635
72	0x3c4f1260	0.012638658
73	0xbdc6b610	-0.097026944
74	0x3d93eb02	0.072225586
75	0x3e3f9102	0.1870766
76	0x3e667adc	0.22507805
77	0x3e0b8825	0.13626154
78	0x3e8ce1ff	0.2751617
79	0x3e73ff6a	0.23827901
80	0xbe02644d	-0.12733574
81	0x3e927ea8	0.28612256
82	0xbe6feade	-0.23429438
83	0x3e443e56	0.19164404
84	0xbdc38f00	-0.095487595
85	0x3e2c31b1	0.16815831
86	0x3e8ccf0b	0.2750171
87	0xbcf3c472	-0.029756758
88	0x3e815f06	0.2526781
89	0xbe453fc0	-0.192626
90	0x3cb69810	0.022289306
91	0xbe4c7a1f	-0.1996846
92	0xbb7de680	-0.0038742125
93	0x3e681b27	0.22666608
94	0xbdb3ee66	-0.08785705
95	0x3d946450	0.072456956
96	0xbdba0aba	-0.09084077
97	0xbc824ef0	-0.015906781
98	0xbd4c76b0	-0.049917877
99	0x3e86db85	0.26339355
100	0x3dad8f0c	0.0847455
101	0x3c994577	0.018709881
102	0xbe6e4a7d	-0.23270603
103	0xbe571833	-0.21005325
104	0xbe7e7d5a	-0.24852505
105	0xbe3279ff	-0.1742935
106	0x3de1c67c	0.11024186
107	0xbe06e0e2	-0.13171723
108	0x3e8632c8	0.26210618
109	0xbe5a5d0c	-0.21324557
110	0x3e70eac0	0.2352705
111	0x3e823059	0.2542751
112	0x3e738d9e	0.23784491
113	0x3e477502	0.19478229
114	0x3d7f39b4	0.06231089
115	0x3db9b578	0.090678155
116	0x3e0295a5	0.12752397
117	0xbb7bad47	-0.0038402842
118	0x3dfde0c8	0.12396389
119	0xbd916966	-0.07100181
120	0xbe6ea771	-0.23306061
121	0x3b052d80	0.002032131
122	0x3e6deb94	0.23234397
123	0xbd11dbcc	-0.035610005
124	0x3d20f860	0.03929937
125	0x3cab6460	0.020921886
126	0xbc768420	-0.0150461495
127	0xbe41b40c	-0.18916339
128	0x3e2989fc	0.16556543
129	0xbe0df151	-0.13861586
130	0xbdda6de4	-0.10665491
131	0x3e8a0cd4	0.26962912
132	0x3e00059d	0.12502141
133	0xbe891931	-0.26777032
134	0xbe817bce	-0.25289768
135	0x3df12fae	0.11776672
136	0xbe8c5144	-0.2740575
137	0xbe8f963a	-0.280443
138	0x3de8db0c	0.11369905
139	0xbe0f1e07	-0.13976298
140	0x3e3d55f4	0.1848982
141	0xbe2805b7	-0.1640843
142	0xbe14da77	-0.14536463
143	0xbd6933c0	-0.05693412
144	0x3e30c192	0.17261341
145	0x3e855ee8	0.2604897
146	0x3e882a6c	0.26594865
147	0x3dedb590	0.11606896
148	0x3d6307fc	0.055427536
149	0x3e3ae8bd	0.18252845
150	0xbce64bb9	-0.02811228
151	0x3e4e6f6e	0.20159695
152	0xbe7a2662	-0.24428704
153	0x3e856cee	0.2605967
154	0x3c0d7d20	0.008635789
155	0x3dbab5b2	0.09116687
156	0x3de3eb5c	0.111288756
157	0x3e414d82	0.18877223
158	0xbe2b4ec7	-0.1672927
159	0xbe734323	-0.2375608
160	0xbd2f8214	-0.04284866
161	0xbe58243c	-0.21107572
162	0xbd94ce34	-0.072658926
163	0x3dffe386	0.124945685
164	0xbdb2128c	-0.08694944
165	0x3c86e807	0.016468061
166	0x3e0e074c	0.13869971
167	0x3db4d6fc	0.088300675
168	0xbcf843f0	-0.030305833
169	0x3e3016c5	0.17196186
170	0xbd3fff44	-0.0468743
171	0x3e04399e	0.12912604
172	0xbe9025af	-0.2815375
173	0xbcb28a72	-0.021794531
174	0xbdf40004	-0.119140655
175	0x3e08d98f	0.13364242
176	0xbc6fa692	-0.014627116
177	0x3e34f86a	0.17672887
178	0x3e6983e5	0.2280422
179	0xbe7a704b	-0.24456899
180	0x3c2dac00	0.01060009
181	0x3e1d8036	0.1538094
182	0x3d8c3fd2	0.0684811
183	0x3e23eced	0.16008349
184	0x3e3d2404	0.1847077
185	0x3e606ef4	0.21917325
186	0xbe13887f	-0.14407538
187	0x3e0a0c45	0.13481243
188	0x3e7d25db	0.24721472
189	0x3ccebb70	0.025235862
190	0x3e1d353b	0.15352337
191	0xbe06b313	-0.13154249
192	0xbd80479c	-0.062636584
193	0x3c503b60	0.012709469
194	0xbe42f591	-0.19038989
195	0x3e3f4133	0.18677215
196	0xbcd48890	-0.025944024
197	0xbe012999	-0.12613524
198	0xbd4eee98	-0.05052051
199	0x3cd8dca7	0.026472403
200	0xbcca0f40	-0.024665475
201	0xbd88dbfa	-0.06682582
202	0xbe17a2e7	-0.14808236
203	0x3c68c36e	0.01420675
204	0x3e53a0f5	0.20666869
205	0x3d88f8b6	0.06688063
206	0x3e80ece3	0.2518073
207	0xbd8329ea	-0.06404479
208	0xbe1f2f3e	-0.15545365
209	0xbe056b5e	-0.13029239
210	0xbd7be034	-0.061493114
211	0xbdc70312	-0.097173825
212	0x3e6acab4	0.22928888
213	0xbe11e5af	-0.14247774
214	0xbdf4ebd4	-0.11959043
215	0xbe149694	-0.14510566
216	0x3de5c800	0.112197876
217	0xbe7d2be2	-0.24723771
218	0x3e19ba5c	0.15012497
219	0xbe68fab6	-0.22751889
220	0xbe370d7a	-0.17876235
221	0x3d520b10	0.05128008
222	0x3e4bcf50	0.19903302
223	0x3e7f30c6	0.2492095
224	0x3e7c4d47	0.24638854
225	0xbe1d1bd3	-0.15342645
226	0xbd95ac98	-0.0730831
227	0x3ddf28c2	0.10896446
228	0x3e3a4ba7	0.18192922
229	0xbe6a51a3	-0.22882704
230	0xbda208f0	-0.07911861
231	0xbe5f0cb4	-0.2178219
232	0x3d5b1bac	0.053493187
233	0xbe301aec	-0.1719777
234	0x3e7290b6	0.23688015
235	0x3e4a894a	0.19778934
236	0x3cbb2fa7	0.02284987
237	0xbe1e4ce7	-0.15459023
238	0x3e1a4c2d	0.15068121
239	0xbd90e160	-0.07074237
240	0xbdb9a300	-0.09064293
241	0xbe20c76c	-0.15701073
242	0x3dde1842	0.108444706
243	0xbdc61b4c	-0.09673175
244	0x3e769f90	0.24084306
245	0x3dca84b4	0.09888592
246	0xbdb3764e	-0.08762799
247	0xbe6ab35d	-0.22919984
248	0xbceedb99	-0.029157447
249	0x3e0f7fb1	0.14013554
250	0xbe80fadf	-0.251914
251	0xbe84e69d	-0.25957194
252	0x3e231fea	0.15930143
253	0x3d457314	0.04820545
254	0x3cd83f90	0.026397496
255	0xbe5766fc	-0.21035379

fc.0.bias f4 [120]
0	0x3def819e	0.116946444
1	0x3e4276b5	0.18990596
2	0xbe5a03b4	-0.21290475
3	0x3e0abe0f	0.13549064
4	0xbd404e30	-0.046949565
5	0x3da6246a	0.08112414
6	0xbdd942ae	-0.10608421
7	0x3e3f577a	0.18685713
8	0x3e2066ed	0.15664263
9	0xbe69fcdc	-0.22850364
10	0xbdb32ff0	-0.08749378
11	0xbe4ef87e	-0.2021198
12	0xbe90b501	-0.28263095
13	0xbe7ff323	-0.24995093
14	0xbdb01894	-0.08598438
15	0xbe3ec8b6	-0.18631253
16	0xbe687784	-0.22701842
17	0xbe82a706	-0.25518054
18	0xbcced360	-0.025247276
19	0x3e070d55	0.1318868
20	0xbd9d48d2	-0.07679905
21	0xbe678da5	-0.22612627
22	0x39465000	0.00018912554
23	0x3d062fa8	0.032760292
24	0x3c13a060	0.009010404
25	0x3e40ba0e	0.18820974
26	0xbcbdfa49	-0.023190634
27	0xbe812699	-0.2522476
28	0x3d4331d4	0.04765494
29	0xbe5d729f	-0.21625756
30	0x3c8b7b50	0.017026573
31	0xbe5f8a4f	-0.21830104
32	0x3c359560	0.011082977
33	0xbe79daf6	-0.24399933
34	0xbe8907bc	-0.26763713
35	0x3e417ee5	0.18896063
36	0xbe83cc72	-0.25741917
37	0x3d92826c	0.07153782
38	0x3e9408c5	0.2891294
39	0xbd4c8298	-0.04992923
40	0x3d3258e8	0.04354182
41	0x3df5e252	0.12006058
42	0xbde9b3ac	-0.11411223
43	0xbe1aba94	-0.15110236
44	0x3da6b820	0.08140588
45	0x3d10f150	0.035386384
46	0xbde6aad8	-0.112630546
47	0xbd4ab834	-0.049492076
48	0x3d61f394	0.055163935
49	0xbe8d2624	-0.2756816
50	0xbe6e65d0	-0.23281026
51	0xbe7d3926	-0.24728832
52	0x3d2620d0	0.040558636
53	0x3e368298	0.17823255
54	0xbe881412	-0.26577812
55	0x3e01959c	0.12654728
56	0xbe0c5a98	-0.13706434
57	0xbe4d8c70	-0.20073104
58	0x3cc6d030	0.024269193
59	0xbde0e654	-0.109814316
60	0xbe14a7ff	-0.1451721
61	0xbdd9fe08	-0.10644156
62	0xbdcc9b46	-0.099905536
63	0x3e4306ce	0.19045565
64	0xbdbef1fe	-0.093235
65	0x3e4a2072	0.1973894
66	0xbced3c90	-0.028959543
67	0xbd952d36	-0.07284014
68	0x3d4d8388	0.050174266
69	0x3cfc0827	0.030765606
70	0xbe705d38	-0.2347306
71	0x3e6e7444	0.2328654
72	0x3d6632e0	0.056200862
73	0x3d859102	0.06521799
74	0x3e61899b	0.22025149
75	0xbe9357fb	-0.2877806
76	0x3e328fd9	0.17437686
77	0xbe07a15e	-0.1324515
78	0x3e64936a	0.22321859
79	0x3df6ad5c	0.120447844
80	0x3dbca038	0.09210247
81	0xbde72838	-0.11286968
82	0x3e621420	0.2207799
83	0x3e53e5a8	0.20693076
84	0x3c3d0ce0	0.011538714
85	0xbd9a8cb2	-0.07546367
86	0xbe512a1e	-0.20426223
87	0x3da48bac	0.08034453
88	0x3ddd730a	0.108129576
89	0x3e0805d8	0.13283479
90	0x3e244982	0.16043666
91	0x3d878dd6	0.0661885
92	0x3ddecae0	0.10878539
93	0xbe646f20	-0.22308016
94	0x3e7f795e	0.24948642
95	0x3e180334	0.14844972
96	0xbe9321a7	-0.28736612
97	0x3d86acc0	0.06575918
98	0x3dca21ec	0.09869751
99	0x3e529992	0.20566395
100	0xbe080fc9	-0.13287272
101	0xbe46d26f	-0.19416212
102	0xbe26554f	-0.1624348
103	0x3db4c518	0.08826655
104	0xbe7f1303	-0.24909596
105	0xbe065cbc	-0.13121313
106	0xbdca64ee	-0.09882532
107	0x3e7b23c9	0.2452537
108	0x3e7b73b1	0.24555852
109	0x3dbe3508	0.09287459
110	0x3d477f00	0.0487051
111	0xbcd3ad50	-0.025839478
112	0xbd8e4c7e	-0.069481835
113	0xbdbbbf74	-0.09167376
114	0x3e027574	0.12740117
115	0xbe90e3cd	-0.28298798
116	0x3e538e14	0.20659667
117	0xbe072859	-0.13198985
118	0xbe69b9c9	-0.22824778
119	0xbdb5170c	-0.088422865

fc.2.weight f4 [4, 120]
0	0x3d9448e2	0.07240464
1	0xbd81e8a7	-0.06343203
2	0x3c6f0456	0.014588436
3	0x3cae3d9c	0.021269612
4	0x3c1266a8	0.008935608
5	0x3cd6489b	0.026157668
6	0xbd118927	-0.03553119
7	0x3b365d60	0.0027826652
8	0x3d488ebc	0.048964247
9	0xbdb7e95b	-0.08980056
10	0xbc4daf08	-0.012553938
11	0x3db08162	0.08618428
12	0xbd12ace1	-0.0358094
13	0x3db48342	0.08814098
14	0x3c717f20	0.014739782
15	0x3d2a7fdc	0.041625842
16	0xbd75de8c	-0.06002669
17	0x3dac1872	0.084031
18	0x3cd26574	0.025683142
19	0x3c4bbc80	0.012435079
20	0xbd959d2c	-0.07305369
21	0xbd8fb079	-0.07016081
22	0xbda8a50d	-0.08234606
23	0xbca93749	-0.020656245
24	0xbbf213e4	-0.007387625
25	0xbc53fda4	-0.012938891
26	0xbd982115	-0.07428185
27	0xbd8bc95d	-0.068255164
28	0xbdb0e00a	-0.08636482
29	0xbd3dceb6	-0.046339713
30	0xbd828a6b	-0.063740574
31	0xbdaa7268	-0.083226025
32	0x3d96419a	0.07336731
33	0x3d4ec5f0	0.050481737
34	0xbc8de501	-0.017321112
35	0x3d90c95e	0.07069658
36	0x3db6aad8	0.089193046
37	0x3c906604	0.01762677
38	0x3d1522d4	0.036410168
39	0x3caa3ec4	0.020781882
40	0x3d1d7380	0.038440228
41	0x3c5643a0	0.0130776465
42	0xbd55072b	-0.05200879
43	0x3dab6390	0.083685994
44	0xbc470400	-0.01214695
45	0xbca5c0d8	-0.020233557
46	0xbd9fc430	-0.07801092
47	0x3bdfcc20	0.0068297535
48	0xbc8c9611	-0.017161401
49	0xbc79cd20	-0.0152466595
50	0x3d914a0a	0.070942
51	0x3dae79c6	0.0851932
52	0x3b3aba80	0.002849251
53	0xbd9bad79	-0.07601447
54	0xbd6356c3	-0.055502664
55	0x3c4425fe	0.011971949
56	0x3d729264	0.05922164
57	0xbda5ef6d	-0.081023075
58	0xbbdf3250	-0.0068114176
59	0xbd99af23	-0.07504108
60	0xbd3fde8e	-0.046843104
61	0x3ae685c0	0.0017587468
62	0xbd863680	-0.06553364
63	0x3d99a888	0.07502848
64	0x3c782828	0.015146293
65	0xbd315e9e	-0.043303125
66	0x3d69fd4c	0.05712633
67	0x3d58373c	0.05278705
68	0x3d85728e	0.0651599
69	0xbd94cc58	-0.07265538
70	0xbda96674	-0.082714945
71	0x3d6a7630	0.05724162
72	0x3d1e5948	0.038659364
73	0x3cf600b0	0.030029625
74	0xbd4f2558	-0.050572723
75	0x3d719488	0.05897954
76	0x3db23380	0.08701229
77	0xbda34ab7	-0.07973235
78	0x3d7a1acc	0.06106071
79	0xb9a3d200	-0.00031246245
80	0xbd72981a	-0.059227087
81	0x3cced7a0	0.025249302
82	0x3c3741ce	0.011185123
83	0x3cffd08b	0.03122737
84	0x3d9cc254	0.07654253
85	0xbd2856fb	-0.041098576
86	0xb8938000	-7.033348e-05
87	0xbd59732c	-0.053088352
88	0x3cb8d08a	0.022560377
89	0x3d5b3c48	0.053524286
90	0x3ce09aef	0.027417628
91	0x3d9abd4c	0.07555637
92	0x3d98f9f2	0.07469548
93	0x3b8da610	0.0043227747
94	0x3bb90bfc	0.0056471806
95	0xbd438b5f	-0.047740337
96	0xbd17c900	-0.037056923
97	0xbd3e16e4	-0.04640855
98	0x3d9d3bf6	0.07677452
99	0xbca74e88	-0.020423189
100	0xbc994a44	-0.01871217
101	0x3d864aa2	0.06557204
102	0xbd0d7753	-0.034537625
103	0x3b30fa00	0.002700448
104	0x3c705850	0.014669493
105	0xbdb28a74	-0.08717814
106	0x3d550e08	0.052015334
107	0xbda66120	-0.08123994
108	0xbd978d11	-0.07399953
109	0xbcd86495	-0.026415149
110	0xbb5efce0	-0.0034025237
111	0xbd820f42	-0.063505664
112	0xbda376a8	-0.07981616
113	0x3d8048f2	0.06263913
114	0xbd90287c	-0.07038972
115	0x3d917656	0.07102649
116	0x3ba31080	0.004976332
117	0xbd8651e9	-0.06558592
118	0xbd1bcba3	-0.038036
119	0x3c34e726	0.011041438
120	0xbd4b8864	-0.04969062
121	0x3d984cd6	0.0743653
122	0xbda4d975	-0.08049289
123	0x3b851640	0.0040614903
124	0x3c715400	0.0147295
125	0xbdb97da0	-0.09057164
126	0xbd5b925a	-0.05360637
127	0xbd50c294	-0.050966814
128	0x3cfe7a43	0.031064158
129	0x3d049f5e	0.032378547
130	0x3c8f74b0	0.017511696
131	0xbd87559e	-0.06608127
132	0xbad0ebc0	-0.00159394
133	0x3d9cfd8c	0.07665548
134	0xbc57ccd8	-0.013171397
135	0x3c599920	0.013281137
136	0x3d19cb50	0.03754741
137	0xbd4afa0c	-0.04955487
138	0xbd3adf56	-0.045623146
139	0x3db23f1a	0.08703442
140	0xbb82c080	-0.003990233
141	0x3caedad0	0.021344572
142	0x3d7c82f4	0.061648324
143	0x3d009c34	0.031398967
144	0xbc427430	-0.011868522
145	0xbd50f564	-0.051015273
146	0x3beee370	0.0072902963
147	0x3d7f9d04	0.0624056
148	0xbd941406	-0.07230382
149	0xbd70d245	-0.05879428
150	0x3bf4c5f0	0.007469885
151	0xbd70c06e	-0.058777265
152	0xbd4bd53b	-0.0497639
153	0xbc3e6630	-0.011621043
154	0x3d64cef4	0.05586143
155	0xbcea3f00	-0.028594494
156	0xbc740482	-0.014893653
157	0xbd9712e0	-0.07376647
158	0xbc638e88	-0.013888963
159	0x3d3c651c	0.045994863
160	0x3db4364c	0.08799419
161	0xbd44b2a4	-0.048021927
162	0xbd8da402	-0.06916048
163	0x3d80f016	0.06295793
164	0x3db08760	0.08619571
165	0xbd72685c	-0.059181556
166	0xbdaff4ed	-0.08591638
167	0x3d6b5894	0.05745752
168	0x3a0dc880	0.00054086
169	0xbd828b17	-0.063741855
170	0x3cf4b764	0.029872604
171	0x3d44fcb8	0.048092574
172	0xbd9046e5	-0.07044772
173	0xbca61eb0	-0.020278305
174	0x3d5d14c8	0.053974897
175	0x3d91aec8	0.07113415
176	0x3d3216b8	0.043478698
177	0xbceaab44	-0.028646119
178	0x3ba8c310	0.0051502064
179	0xbcc092f0	-0.023507565
180	0xbce5fc8c	-0.028074525
181	0xbd5b0262	-0.05346907
182	0x3ce72de7	0.02822013
183	0xbda673ba	-0.08127542
184	0x3d2e0034	0.042480662
185	0x3d36561c	0.044515714
186	0xbd4edb1d	-0.05050193
187	0xbd1e1d62	-0.03860224
188	0xbd0969d0	-0.033548176
189	0xbd40384e	-0.046928696
190	0x3d9d7420	0.07688165
191	0x3cfa44a4	0.030550309
192	0xbce59964	-0.028027244
193	0x3d123200	0.035692215
194	0x3da8787e	0.08226107
195	0xbd83c1f0	-0.06433475
196	0x3bc66d80	0.006055534
197	0xbcef25b8	-0.02919279
198	0xbd9fc05e	-0.07800363
199	0x3d85f662	0.065411344
200	0x3d651654	0.055929497
201	0x3d36c644	0.044622675
202	0xbc0fe1f8	-0.0087819025
203	0x3b304c80	0.0026901066
204	0x3da38ac0	0.07985449
205	0x3d8bef84	0.06832793
206	0x3d793de4	0.06085004
207	0xbd0264d8	-0.031834453
208	0xbcc44ab8	-0.02396141
209	0x3b1343c0	0.0022470802
210	0x3d2b3c34	0.04180546
211	0xbd964ea2	-0.07339217
212	0x3da97362	0.08273961
213	0x3d26528c	0.040606067
214	0xbd68ab17	-0.05680379
215	0x39fa4900	0.00047738105
216	0x3d546ec0	0.051863432
217	0x3c4df510	0.0125706345
218	0xbd8c32b1	-0.06845606
219	0xbd0b618e	-0.034028582
220	0xbd8a66d9	-0.06757898
221	0xbbc83f30	-0.006111048
222	0x3da722c2	0.081609264
223	0x3c393938	0.011305146
224	0xbdb10362	-0.08643223
225	0x3d914f86	0.07095246
226	0xbcea39e8	-0.028592065
227	0xbc4f6232	-0.012657689
228	0xbd98f188	-0.074679434
229	0x3ce469f8	0.027882561
230	0xbdb219b4	-0.08696309
231	0x3be34440	0.0069356263
232	0xbd46b5c6	-0.048513196
233	0x3c888ef0	0.01666972
234	0xba9b6180	-0.0011854619
235	0x3da4782c	0.080307335
236	0x3cb44a37	0.022008045
237	0x3cefc31c	0.02926784
238	0xbb8b4fc0	-0.0042514503
239	0x3d40bf30	0.04705733
240	0xbd86686f	-0.06562888
241	0x3d9faf64	0.07797125
242	0xbd6db342	-0.05803228
243	0xbc157588	-0.00912226
244	0xbc094d20	-0.008380204
245	0x3c46f8c0	0.012144268
246	0xbb69ef60	-0.0035695657
247	0x3d52730c	0.05137925
248	0x3db8e466	0.090279385
249	0x3ce9e07a	0.028549422
250	0x3ce2bd50	0.027678162
251	0xbd541781	-0.051780228
252	0x3cd4f100	0.025993824
253	0x3d92033c	0.07129523
254	0xbdacd7e2	-0.08439614
255	0xbd993789	-0.074812956

fc.2.bias f4 [4]
0	0x3be940a0	0.0071182996
1	0x3d1d7ec0	0.038450956
2	0xbd3c0ee4	-0.04591264
3	0xbd8d5c68	-0.06902391
