Models/score_55_model_473631.pt (torch, 12127 bytes, 4 tensors)

fc.0.weight f4 [156, 12]
000000 24 97 68 bc 47 b8 53 bc 23 81 77 3e ee 60 c4 3d
       -0.014196191 -0.012922353 0.24170355 0.095888
000010 4d 57 13 3e e2 47 48 be 4e 0f c3 3c f2 d5 66 3e
       0.14388771 -0.19558671 0.023811009 0.22542551
000020 fc 7f da bc 80 e5 0a bd 6c 54 98 bd fb 54 65 3e
       -0.026672356 -0.033910275 -0.07437977 0.22395699
000030 89 ab 34 be a2 06 4b 3b b4 e8 74 be e5 78 77 3e
       -0.1764356 0.0030979295 -0.23916894 0.24167211
000040 10 2d 8a be c5 74 f7 bd da 48 81 be 68 49 83 be
       -0.26987505 -0.12082819 -0.25250894 -0.25641942
000050 9e 11 80 be 0a 33 45 3d f0 f8 37 3c 22 1d 44 be
       -0.2501344 0.048144378 0.011228785 -0.19151738
000060 fe ae 71 be 7a 43 6f 3e 17 2f cb bb 39 3e 4e 3e
       -0.2360191 0.23365584 -0.006200682 0.20140924
000070 14 93 32 3a ad 89 6c be 4c 7a 00 3e 41 94 41 3e
       0.00068120775 -0.23099394 0.12546653 0.1890421
000080 41 6f 03 bc 8c 7b e7 bc cb cf 88 be eb 67 fa 3c
       -0.0080221305 -0.028257154 -0.26721033 0.03056713
000090 1a d8 c9 bd 13 3e 1e 3e 07 0f 8e be db e8 0c be
       -0.09855671 0.15453367 -0.2774584 -0.13760702
0000a0 dc 7f 38 3e 5f 0b 85 3e 85 55 45 be 0f 27 c9 3d
       0.18017524 0.25985238 -0.19270904 0.09821903
0000b0 31 89 83 3d 6f 99 8a 3e 73 09 57 be 12 ac 70 be
       0.064226516 0.27070186 -0.20999698 -0.2350314
0000c0 f3 1c 34 3e 82 c4 7b be 8f 0d 87 bd a5 d9 bf 3d
       0.17589168 -0.2458668 -0.06594383 0.09367684
0000d0 28 60 ce ba 6e 09 90 be 9b 31 a5 bc bb 59 68 3d
       -0.001574521 -0.28132194 -0.020165255 0.0567262
0000e0 df 02 0a 3e 0c c1 7a bd de 90 39 3e 69 b4 ba bc
       0.13477658 -0.06121926 0.18121669 -0.022791104
0000f0 66 98 7f 3e 7e 66 63 3e 5c d7 2f be db f9 50 be
       0.24960479 0.22207066 -0.17171997 -0.20407812
000100 17 e6 08 3e f4 11 c0 bc 11 67 ca 3d 55 3c 2f 3e
       0.13369022 -0.02344606 0.098829396 0.17112859
000110 5b 76 41 be 74 83 84 be 8a f6 a5 bd 45 ec a8 3d
       -0.18892805 -0.2588154 -0.08103664 0.0824819
000120 f3 a2 88 3e 22 36 3e 3c b1 b8 fd 3d 4b c1 c0 3c
       0.2668682 0.011609586 0.12388743 0.02352967
000130 96 25 10 3d 47 60 8e be 74 62 6a 3e f6 9b 5d be
       0.035192095 -0.2780783 0.2288912 -0.21641526
000140 ce e4 6d be ff 64 b0 3d 20 72 91 bd 47 d0 b6 3c
       -0.23231813 0.086130135 -0.07101846 0.022316111
000150 17 a9 6f 3e c8 74 1b 3e 9f 42 81 3e a9 66 2b 3e
       0.23404346 0.15181267 0.2524614 0.1673838
000160 60 a8 14 be 96 01 87 3b ca df d1 bd 5c 94 09 3d
       -0.14517355 0.004120062 -0.102477625 0.033588752
000170 12 9c 38 3e b3 b6 80 3e f7 b6 1d bd 55 49 85 bd
       0.18028286 0.25139388 -0.038504567 -0.065081276
000180 46 00 76 3e be 14 88 3e 13 a6 7d 3e 86 50 83 bd
       0.24023542 0.26578325 0.24770384 -0.06411843
000190 4b 1d 85 be a3 c4 f6 3c 4e a6 57 bd 9a 1e 7f 3e
       -0.2599891 0.03012306 -0.052648835 0.24914017
0001a0 20 2e 54 3e 1f 77 08 3e 90 a4 82 3c 5e a7 86 be
       0.2072072 0.13326691 0.01594761 -0.26299566
0001b0 f4 47 64 3b 7e 05 ba 3d 15 f9 fb 3c f5 fe 7c 3d
       0.0034832926 0.09083079 0.03075842 0.061766583
0001c0 b9 3d c0 3d 51 67 f2 3d 24 8f 4e 3e be 55 71 3d
       0.09386773 0.11836112 0.20171791 0.05891966
0001d0 37 70 33 be d1 f8 2b 3e e9 72 85 bc 17 2a 35 be
       -0.17523275 0.16794135 -0.016290145 -0.17691837
0001e0 c5 51 c3 bc 27 7a 59 3e c1 78 fa 3d 77 0c 7c 3e
       -0.023842702 0.21238004 0.12230063 0.2461413
0001f0 8a 75 75 bd 48 42 8a 3e 33 8c 40 be e6 22 10 3e
       -0.059926547 0.27003694 -0.18803482 0.14075813
000200 dc 6b 2e be 51 76 8e 3e 0f 57 38 3d 52 ac 1c 3e
       -0.17033333 0.27824643 0.0450049 0.1530011
000210 72 06 f8 bd e0 b7 c9 3c a1 e9 45 3e 8c ed 88 3b
       -0.12110604 0.024623811 0.19327404 0.0041787084
000220 fc 74 3a bd 77 65 bb ba 16 2f d3 bd 75 67 08 3d
       -0.04552172 -0.0014297207 -0.10311715 0.03330179
000230 74 94 f5 bc 67 6d e3 3d d0 b9 ac 3d 34 55 60 3e
       -0.029978015 0.11104851 0.084338784 0.21907502
000240 85 f0 04 3e 84 e9 1a 39 19 0f 94 be 93 94 5f 3e
       0.12982376 0.00014773576 -0.2891777 0.2183402
000250 a5 7b b0 3c 17 e7 bb 3d eb b8 1a 3e f1 04 88 be
       0.021543333 0.09174936 0.15109603 -0.2656627
000260 4c 15 46 3e 64 e9 8a bc 95 80 53 be 6d ef 35 be
       0.19344062 -0.016956992 -0.20654519 -0.17767115
000270 d4 e6 8e 3d 2a 95 8f 3e 1f f1 1b 3e 25 17 83 3d
       0.06977621 0.2804349 0.15228699 0.06400899
000280 bc 23 bf 3d c4 b1 e7 bc 33 16 0c be 51 4b ca bd
       0.09332988 -0.028283007 -0.13680343 -0.09877647
000290 27 ca 72 be d7 52 de bd 1a 1f 09 3e 87 a9 4e be
       -0.23709927 -0.10855644 0.1339077 -0.20181857
0002a0 e6 98 28 3e bf 43 0b 3e e6 d6 f6 3d dc aa f6 3c
       0.16464576 0.13600062 0.120527074 0.030110769
0002b0 07 98 36 3e ea a2 48 3e 01 84 85 be 83 c0 1d 3e
       0.17831431 0.19593397 -0.26077273 0.15405469
0002c0 96 42 7d bd 94 91 05 3e 97 25 0f 3e e0 6b 13 be
       -0.06183108 0.13043815 0.13979183 -0.1439662
0002d0 4f 72 07 bd ec 1f 53 bd ae cf c4 3d c6 ae e2 bd
       -0.033067998 -0.051544115 0.09609924 -0.11068492
0002e0 6b e3 b2 3d 60 89 86 3e 30 bc 81 be 03 8c 5d 3d
       0.08734783 0.26276684 -0.25338888 0.054088604
0002f0 76 9b 82 be 85 59 b9 3c 29 3e 67 3e d6 0b 7a 3e
       -0.25509232 0.022625694 0.22582306 0.24418578
000300 0d 8c 1a be 7a 24 0b be 9b 77 e0 bb ed ff 1e be
       -0.15092488 -0.13588133 -0.0068501956 -0.15527315
000310 6e 36 43 be 8b c3 8c 3e f1 ec 8b 3e 26 88 09 3e
       -0.19063732 0.27492937 0.2732921 0.13430843
000320 3f 3a d5 3d 97 fd 16 bd 0f 9b 80 be 71 53 08 3d
       0.104115 -0.036862936 -0.251183 0.0332827
000330 b9 18 68 3e 3e bf 8d be 9c 99 10 3e ff f2 df 3d
       0.22665681 -0.2768497 0.14121097 0.1093502
000340 e8 16 3f 3e 36 2e 1e bd 95 ac 38 3e 9a 70 e1 3c
       0.18661082 -0.03861829 0.18034585 0.027519513
000350 e8 7d 86 3e bc 6d 9e bb c5 8a 8e 3e a9 63 44 3e
       0.26267934 -0.0048348587 0.27840248 0.19178642
000360 02 91 93 bc fe fc 31 be 62 02 32 3d 08 33 da 3c
       -0.018013481 -0.17381665 0.043459304 0.026635662
000370 f0 12 3a 3e 53 f9 6c bc 60 6b 36 3e 1d 9e 00 be
       0.18171287 -0.01446374 0.17814398 -0.12560315
000380 53 31 d4 bd 4d d9 5b be e0 44 0e 3e fc 57 b4 3d
       -0.1036097 -0.21469612 0.13893461 0.08805844
000390 80 8a 47 3e ee e8 3a 3e af d4 59 bd 17 16 f8 3b
       0.19486427 0.18252918 -0.053181347 0.0075709927
0003a0 0d 93 e1 bd 9e be b7 3d b2 f1 26 3c 66 4d 5f be
       -0.11014376 0.08971904 0.010189461 -0.21806869
0003b0 d2 5c 74 3e a9 5d db 3b 1f 13 59 3e 5e 48 c9 3d
       0.23863533 0.006694515 0.211987 0.09828256
0003c0 fa 5c 91 be e6 ee 04 3e fc 05 88 3e f4 10 50 bc
       -0.28391248 0.12981758 0.26567066 -0.012699354
0003d0 b7 ef 91 3d 2d f6 85 be 8d 6a 87 be 21 a3 49 3c
       0.071258 -0.2616438 -0.2644848 0.012306959
0003e0 20 8f f1 3d 80 0b f7 3d 03 b7 55 bd 97 3a 29 bd
       0.11794877 0.1206274 -0.052176487 -0.04131564
0003f0 f6 8c 51 3e 5a e1 32 3e aa b7 bb 3d ce 11 85 be
       0.20463929 0.17468777 0.091658905 -0.25990146

fc.0.bias f4 [156]
000000 2d f2 bf bb 61 95 05 be b1 f5 6d be 16 12 49 3e
       -0.005857727 -0.13045265 -0.23238255 0.19635805
000010 1c bd 5b 3e 19 41 77 3e b1 b5 7e be cc 79 86 3e
       0.21458858 0.24145927 -0.24873997 0.262648
000020 f9 32 53 3e aa 39 87 3e 68 0f 91 be 31 7a 08 be
       0.20624913 0.26411182 -0.28332067 -0.13327862
000030 e2 b3 17 3d c0 75 84 bd 60 64 95 bd 95 d7 82 be
       0.037036784 -0.064677715 -0.07294536 -0.255551
000040 b0 16 d3 3b db 92 23 3e c7 dc 62 3d b9 e5 19 bc
       0.0064419135 0.1597399 0.05538633 -0.009393149
000050 a8 92 d6 3c 10 7b 8b 3e ad d3 99 3d e2 73 f0 3c
       0.026192978 0.27242327 0.07511077 0.029352132
000060 73 43 bb 3d be 48 c2 3d 13 ba e0 3d f7 38 89 be
       0.09143724 0.09486531 0.10972991 -0.26801273
000070 b5 2b b3 bc d6 bc 4c 3e 67 4f 08 be ee 93 21 3d
       -0.021871427 0.1999391 -0.1331154 0.039447717
000080 0b 21 67 3e 71 a0 51 bb 4e e4 98 bb ed 7d a5 bc
       0.22571199 -0.00319865 -0.004665888 -0.020201648
000090 33 76 3a be 79 61 f2 bd 93 ea d5 bd 8f ea 72 bc
       -0.18209152 -0.11834998 -0.10445132 -0.014826431
0000a0 45 e4 7a 3d 67 e8 2e 3d be 0c 3b 3d bb 8e 8d 3e
       0.06125285 0.042702105 0.04566645 0.27647957
0000b0 dc 69 64 3e da 04 4a be e5 8f 40 3d 46 cd 6c 3d
       0.22306007 -0.19728413 0.04701223 0.05781295
0000c0 e5 fe 48 3e 07 cf 8b bc 48 82 19 3e e5 27 8e 3c
       0.19628485 -0.017066492 0.14991105 0.017353008
0000d0 1f bd 64 be 3d ff b8 bc 1c 39 74 3e e1 ae 82 be
       -0.22337769 -0.022582645 0.2384991 -0.25524047
0000e0 e8 0e c1 3d 6a 23 8a be 96 10 34 bc ea 4b 8b bd
       0.09426671 -0.26980144 -0.0109902825 -0.06801589
0000f0 9b 4c 84 3a 70 2b 8d 3e c1 d9 8f 3d 5a 8a 5f be
       0.0010093631 0.27572203 0.07023955 -0.2183012
000100 28 a9 af bb 46 ce 34 be d9 42 ea bd b6 c1 64 3e
       -0.005360741 -0.17656812 -0.114385314 0.2233952
000110 3e 3a c4 3c 79 0d 32 3d aa e0 2c bd 48 a3 84 be
       0.023953553 0.04346988 -0.042206444 -0.25905824
000120 0f 05 89 be 3d 54 43 3d d6 33 2e be e1 78 66 be
       -0.26761672 0.047687758 -0.17011961 -0.22507049
000130 a9 5b e1 bd 1d f7 24 be 5e 20 5c 3e 07 6c 8b 3e
       -0.11003811 -0.16109891 0.21496722 0.27230856
000140 09 9a 37 3e 77 ba 0b be 5d 7c 3d 3e 09 37 4e be
       0.17929853 -0.1364535 0.18504472 -0.20138182
000150 b9 93 d9 bc 74 eb 3d be 2e 0e 83 3e fb 62 6e 3e
       -0.026559697 -0.1854685 0.25596756 0.23279946
000160 ec 95 8e be 1d 1c 78 3e ba b4 97 3d 20 39 26 be
       -0.27848756 0.24229474 0.07407518 -0.16232729
000170 2f c5 60 3e a4 02 85 3e f1 1b 84 3e 5f 24 da 3d
       0.2195022 0.25978577 0.25802568 0.106514685
000180 43 78 8b 3e aa 18 58 3e 37 32 78 3e 7f b8 a5 3d
       0.2724019 0.21103159 0.24237905 0.080918305
000190 31 5f 65 3e 30 ab 5d 3e f5 82 57 3e 10 a0 e0 bd
       0.22399594 0.21647334 0.2104605 -0.109680295
0001a0 38 4a 03 3e 5f c0 8d be 5c db 2f bd 37 b1 57 3e
       0.12821281 -0.2768583 -0.042933807 0.21063696
0001b0 5b 18 08 be fc af 95 bc 25 77 3d be 3d e9 1e 3e
       -0.13290541 -0.018272392 -0.18502481 0.15518661
0001c0 45 ca 42 3e 8b a8 92 3e 85 40 a7 bd 68 9d 5d 3e
       0.19022472 0.28644213 -0.08166603 0.21642077
0001d0 6f 68 84 be 4c d1 5b 3e 70 a8 43 be 5c 83 28 bd
       -0.25860927 0.21466559 -0.19107223 -0.0411409
0001e0 bc 25 ac bd 25 5a ac bd 15 5d 80 3e 2d 8f 89 3e
       -0.08405635 -0.08415631 0.25071016 0.26867047
0001f0 24 72 38 3e f3 9d 91 3e 2c 4f 91 3e 35 a0 33 3e
       0.18012291 0.28440818 0.28380716 0.17541583
000200 3f d7 8f be 24 09 19 3d f5 5d 8f 3e 6e a8 1c 3e
       -0.28093907 0.037362233 0.2800137 0.15298626
000210 fb e0 48 be 88 49 5d bd 8a 16 94 3e 29 13 8c 3d
       -0.19617073 -0.054025203 0.28923446 0.06839592
000220 14 7b 98 3d a1 b0 ae 3d fa 79 bd bd 51 8e 6d 3e
       0.0744535 0.08529783 -0.09251781 0.2319882
000230 78 29 44 3e b6 d3 3e 3b f4 57 b4 bd 1c 82 4f be
       0.19156444 0.0029117889 -0.08805838 -0.20264477
000240 f0 e1 17 3e 4d 10 6b 3e f2 a2 fa 3c dc 85 a8 bd
       0.14832282 0.22955437 0.030595277 -0.08228657
000250 c1 47 2c 3e e8 25 1e 3d 1b 73 8b 3e 46 e3 6e 3e
       0.16824247 0.03861037 0.27236256 0.23328885
000260 f6 a1 1d 3e 9c 21 1c 3e e7 c7 79 be f2 3a 10 3d
       0.15393814 0.15247196 -0.24392663 0.035212465

fc.2.weight f4 [4, 156]
000000 dd b9 96 3c 62 d5 8e bd 75 b4 50 3d 76 80 9c bd
       0.018399173 -0.06974293 0.050953347 -0.076416895
000010 bf 8e 8a bc 4b 78 08 3d 4c 2e 29 bc d5 07 a5 3d
       -0.01691377 0.033317845 -0.010325979 0.080581345
000020 7b fe 99 bc 85 f8 42 3d 3f 26 49 3d fa 5f 8b 3d
       -0.018798104 0.047600288 0.04910874 0.068054155
000030 3e d6 49 bd 33 d9 d8 3c 97 ae d6 bc da 22 f6 bc
       -0.049276583 0.026470756 -0.026206298 -0.030045915
000040 c3 1c 86 3d 04 ba 09 3c ea d3 9e 3d d9 1e 48 bd
       0.065484546 0.008406166 0.07755263 -0.048857544
000050 28 8f 2b 3c 9b 3d 1e bc 1b aa bc 3c 36 25 12 bd
       0.010471143 -0.009658243 0.023030331 -0.03568002
000060 aa 18 99 bd 21 7b 86 bd c9 6d 4d 3d d6 ab 01 3d
       -0.074754074 -0.06566454 0.050153527 0.031658016
000070 21 42 06 3d f1 d1 62 bd 81 af 49 3d 21 da 9f 3d
       0.03277791 -0.055375997 0.04923964 0.07805277
000080 c0 b6 00 bd f0 4c 92 3d af a8 64 3d 7f 6c a8 bd
       -0.031424284 0.07143581 0.05582493 -0.08223819
000090 ed dd 6b 3c 0a f9 c5 3c 6c 14 8d bc f4 47 25 bd
       0.014396173 0.024166603 -0.017221652 -0.040351823
0000a0 aa f0 02 3d 74 52 ba 3c 8c bd fe 3c 0a 16 a4 3d
       0.031967796 0.022744395 0.031096242 0.08012016
0000b0 40 18 e5 3c b1 8f 21 3d 5f 32 23 3c 4d 84 94 bc
       0.027965665 0.039443675 0.00996074 -0.018129492
0000c0 03 a4 71 3c 34 00 12 bd 70 35 65 bd b3 0a a1 bd
       0.014748576 -0.035644725 -0.055959165 -0.07863369
0000d0 8b 9e 82 bd c9 48 23 3c 8f 44 82 3d c8 be 5e 3d
       -0.06377896 0.009966084 0.06360733 0.054381162
0000e0 8c 14 d9 3a 4d 23 82 bd 03 0a 9a bd 97 60 8c 3d
       0.001656191 -0.06354389 -0.07521441 0.068543606
0000f0 fc ee 83 bc ce c6 50 3d d8 45 da 3c 55 e6 fe bc
       -0.016105168 0.050970845 0.026644632 -0.03111569
000100 30 01 98 3b 51 b2 37 3d b5 1f 0a bd 94 65 8a bc
       0.0046388134 0.04484779 -0.033721644 -0.01689414
000110 fc f6 24 bd de 5a 30 3d 21 d0 41 bd 10 e0 86 bd
       -0.040274605 0.043055408 -0.047317628 -0.06585705
000120 fc 79 2e bb 23 4c 80 3c 1d b9 77 bd cf f6 5f bd
       -0.0026623001 0.015661305 -0.060479272 -0.054678734
000130 09 5b 82 bc 3c 29 71 3c c9 65 89 3d 20 3f 9c bd
       -0.01591255 0.014719304 0.06708867 -0.07629228
000140 e7 f0 92 3d 60 a9 64 3d 3a e5 1e bd 9e 6b 9d bd
       0.07174855 0.05582559 -0.038792826 -0.07686542
000150 d9 72 df 3c 30 42 67 3d 59 98 03 3b bb 62 a1 3b
       0.027276443 0.056459606 0.002007982 0.0049250997
000160 2e 67 f1 3c a9 ab b2 3c ed 09 23 3d 54 0e 35 ba
       0.029468145 0.02181037 0.039804388 -0.0006906737
000170 14 73 78 3d 1e e5 b5 3a ec 95 ea bc 7f f8 9b bd
       0.060656622 0.0013877486 -0.028635941 -0.07615756
000180 40 ab 64 3d 7e 5a f8 3c 3a c2 0e bd fa 3a 40 3d
       0.05582738 0.030316588 -0.034853198 0.046931244
000190 9e 70 8e bd 82 a8 09 bd 01 40 ba 3b 86 40 91 bd
       -0.06955074 -0.033607967 0.0056838994 -0.07092385
0001a0 8d d3 54 3c 5b 63 7d 3c 28 33 95 3c bd 11 e7 3b
       0.012989891 0.015465583 0.01821287 0.007051675
0001b0 91 83 34 bd 70 b2 53 bd 43 5d 8a bd 23 d0 af 3b
       -0.044070784 -0.051683843 -0.067560695 0.005365388
0001c0 f3 31 cf 3c dd 75 b2 bc ae 70 64 bd 82 9a a3 bd
       0.025292372 -0.021784717 -0.055771522 -0.079884544
0001d0 e4 82 2f 3b 8a 07 3e 3d ca 81 8a bd 6c 80 1d 3d
       0.0026780898 0.04639391 -0.067630365 0.03845255
0001e0 ae 04 14 bd 39 89 08 3d 5c d1 53 3d 00 ad 1d bd
       -0.036137275 0.03333399 0.051713333 -0.038495064
0001f0 74 1a cb ba 6d d4 96 bd 12 71 3d bc 33 f9 9f bd
       -0.0015495555 -0.07364736 -0.011562603 -0.07811203
000200 03 eb d4 3c 9d e1 85 bd 90 ed 38 3d 4c f2 d8 bc
       0.025990969 -0.06537173 0.045148432 -0.026482724
000210 ff 06 8a 3d 33 82 77 3d 23 3e a2 3d 56 e2 8d bd
       0.06739616 0.060426902 0.07922008 -0.06927936
000220 15 8e 9d 3d 9c c0 9c bb b8 26 e7 bc a7 65 4c bd
       0.076931156 -0.004783703 -0.028216705 -0.04990163
000230 2f 65 87 3d 18 17 01 bd ec 05 8e 3d e4 e4 7c 3d
       0.06611096 -0.031516165 0.06934723 0.061741725
000240 33 e4 39 bd a8 b7 5f bd 0f 49 96 bc b2 68 4f bd
       -0.045383643 -0.054618508 -0.018345384 -0.050636955
000250 9e 26 47 3c 69 de ed 3c 41 44 c3 3c 1a 6c aa bc
       0.012155203 0.029036717 0.023836257 -0.0208035
000260 e6 6b ae 39 a8 53 0c 3d de c6 a2 3b d9 47 9e 3c
       0.00033268257 0.03425947 0.0049675545 0.019321369
000270 28 1a 98 bd 9e 98 36 3d bf 94 8b 3c 4c fc 04 3c
       -0.07426864 0.04457914 0.017038701 0.008116793
000280 e5 68 d8 bc 3a 07 f3 3c dd d8 db bc e5 15 57 3a
       -0.026417205 0.029666532 -0.026836807 0.00082048617
000290 a9 ff 9b bd 9b fb 1f bc d7 26 ec bc f5 a3 f4 bb
       -0.07617123 -0.009764577 -0.028827114 -0.0074658343
0002a0 e2 28 53 3d 46 ad 64 bd b8 68 1b 3d 47 0d a1 3d
       0.05155266 -0.05582931 0.037941664 0.078638606
0002b0 2f f9 95 3b d7 91 1c bc 0b 79 f2 bc 2b 5d b7 3b
       0.004576824 -0.009556255 -0.029598733 0.0055958233
0002c0 4b 7d 36 3d 90 dd b7 3b 12 df 92 3d c5 51 fe bc
       0.044553082 0.005611129 0.071714535 -0.03104485
0002d0 03 35 15 bd 85 85 7b bc b9 5d 7c 3d da 9f e1 3c
       -0.03642751 -0.015351658 0.06161282 0.027542043
0002e0 27 fc 5c 3d 1d c5 4d 3c 3b 88 b5 3c eb 45 ed 3c
       0.05395141 0.0125592025 0.022159686 0.028964004
0002f0 9c 91 0b 3d 8d e6 9c 3a d2 f0 4a bd 57 29 91 3c
       0.03407441 0.0011970565 -0.04954607 0.017719908
000300 8a 48 a1 bd 1d d1 5e bd e4 e0 31 3b cf 30 b7 bb
       -0.07875164 -0.054398645 0.0027142102 -0.0055905352
000310 0c d8 40 bd d9 c9 bf bc ce 72 c6 bc 08 69 3e bd
       -0.04708104 -0.023411678 -0.024224665 -0.046486884
000320 0f 60 1a 3c d2 a8 82 bc fe 6e ff 3b d6 d1 12 3c
       0.009422316 -0.01594964 0.0077952137 0.008961162
000330 dc 51 92 3c 24 ff 80 3b b5 51 8f bd 29 51 82 bc
       0.0178613 0.003936665 -0.06998006 -0.01590784
000340 fa 37 31 bd b1 1c 9f 3d f3 3b a3 3d 38 fe 8c bb
       -0.043266274 0.07769144 0.07970419 -0.004302766
000350 e4 b4 4a 3d 5c 50 7e 3d b3 f1 3a bb 01 f1 7a 3c
       0.049488917 0.062088355 -0.0028525412 0.015316249
000360 20 ac c5 b7 69 57 26 3d 0a 58 85 3c e5 b6 83 3d
       -2.3564382e-05 0.040610705 0.016277332 0.06431369
000370 05 86 01 3d b1 75 dc 3c e6 25 d6 3c 38 b3 1d 3d
       0.03162195 0.026911588 0.026141118 0.038500994
000380 3a b6 fe bc 68 f5 85 bd 11 13 2b bd 97 49 8a bd
       -0.031092752 -0.06540948 -0.04176623 -0.067523174
000390 26 f9 05 bd 2d 66 7c bd f4 ff 05 bd 57 c0 24 3d
       -0.03270831 -0.06162088 -0.0327148 0.040222492
0003a0 66 60 e0 bc 2e e1 28 3d 5a c0 90 3b fd d4 95 bd
       -0.027389716 0.041230373 0.0044174613 -0.07316015
0003b0 87 ad 58 bc 42 9a 36 3c 0f 11 56 3c 28 7c 83 3c
       -0.013224966 0.011145176 0.0130655905 0.016050413
0003c0 07 f9 9f bd fe e5 60 3d 7a 69 9b 3c 46 1b 23 bd
       -0.0781117 0.054906838 0.018971194 -0.03982093
0003d0 5a be 81 bd 2b 46 95 bd 36 d8 4e bd 5a 58 8b bc
       -0.06335135 -0.07288774 -0.050499164 -0.017009903
0003e0 99 23 59 bd f9 cb 53 3d 5b 62 2d 3d 44 07 9c bc
       -0.053012464 0.051708195 0.042330127 -0.019046433
0003f0 af 62 59 bd 98 f8 01 3d 7a 91 69 bd 0f ea 63 3d
       -0.053072628 0.031731218 -0.057023503 0.055643138

fc.2.bias f4 [4]
000000 5c a0 df bb 43 ce 99 bc f7 08 72 3d 49 47 5b 3d
       -0.0068245362 -0.018775111 0.05909058 0.05353478
