Models/score_41_model_40414.pt (torch, 9695 bytes, 4 tensors)

fc.0.weight f4 [120, 12]
00000000: f7d6 893e 8e73 da3d 0081 413d 541a 1bbe
00000010: 0068 933c 9fb9 1bbe 1c09 8c3d 001f 2a3d
00000020: 08b3 9a3d e52d 3abe 1283 e63d dd51 07be
00000030: a022 0ebc 1d1f 57be d702 663e 6c71 913d
00000040: e529 79be c860 cfbd ec31 fd3d 9a80 6d3e
00000050: e062 4ebc ceb7 3ebe 00b0 34bb 585c d3bd
00000060: e5a1 0dbe ccad b1bd d068 74bd 346e 84bd
00000070: 4ca2 8abe 799a 1bbe 969f 283e bcb4 57bd
00000080: 98d1 8d3e 3683 d43d 1cc2 863e f7a0 70be
00000090: 40c5 06be 5cd4 6fbe 38db 29be 2c39 3bbd
000000a0: cefe 1d3e 9ef6 23be 2c53 853d 5077 143e
000000b0: 5635 97bd 4b7a 10be 2848 853e 8004 dfbb
000000c0: 8066 33be 0cef 9ebd de6b d53d 1428 47be
000000d0: cf0f 5abe a0eb ab3d c06c 793c 9642 f6bd
000000e0: fc60 7cbe d87e 2b3d f864 69be acf4 42be
000000f0: 46e6 873e 31c2 433e 7e77 8c3e d048 dabc
00000100: ac33 873e 0c29 fbbd edc0 183e 8378 78be
00000110: 08c6 65bd b090 a03d 4ca3 11be 40cb 5b3d
00000120: 6012 4f3c 7eea c6bd 94b6 933d 5d42 3f3e
00000130: 372c 663e 2588 0b3e 1aef 8c3e 33e5 733e
00000140: 4d64 02be 9afb 913e ba53 70be e809 443e
00000150: dcf7 c3bd d5c8 2b3e 848d 8c3e e067 f5bc
00000160: 7f1d 813e 2e74 45be c769 b73c c4c8 4cbe
00000170: 80e6 7dbb 271b 683e d422 b4bd 5064 943d
00000180: 283f babd f04e 82bc b076 4cbd 4fc1 863e
00000190: 3026 ad3d c073 983c 2299 6ebe 469b 57be
000001a0: ffcb 7ebe dbe2 32be 0e92 e13d 872f 07be
000001b0: 5cfe 853e 1fe0 5abe 89d0 703e d2ee 813e
000001c0: f93e 733e 9440 473e 20ff 7d3d 9c4c b93d
000001d0: a595 023e 801d 81bb ec77 fd3d 8a00 91bd
000001e0: a8c1 6ebe 802d 053b 7054 6e3e ccdb 11bd
000001f0: 60f8 203d 1736 ac3c 2084 76bc 7ae8 41be
00000200: 2021 293e 880b 0ebe 2e0b dbbd 83e5 893e
00000210: 8239 ff3d 248f 89be 0496 81be 8829 f03d
00000220: 01ad 8cbe dce4 8fbe c23d e83d d003 0fbe
00000230: 4f07 3d3e 253a 28be 5343 15be 546e 6abd
00000240: 7f3e 303e 7c2a 853e 511d 883e d8e3 ec3d
00000250: 209f 623d e17f 3a3e b94b e6bc 003b 4e3e
00000260: d05a 7abe 4c1e 853e 207d 0d3c b2b5 ba3d
00000270: eeb6 e33d 1419 413e dad1 2bbe 9177 73be
00000280: 1482 2fbd 4fa7 58be 34ce 94bd fa0b 003e
00000290: 8c12 b2bd 5016 863c 4c07 0e3e 206e b43d
000002a0: f043 f8bc 57e2 2f3e 44ff 3fbd 671f 043e
000002b0: ca32 90be e02d b4bc 7234 f4bd 21a5 083e
000002c0: 004a 71bc d82c 353e 774f 693e 27d9 7abe
000002d0: 00ac 2d3c 5a17 1d3e d23f 8c3d edec 233e
000002e0: 28bb 3c3e 4f20 603e 486e 13be a0bd 093e
000002f0: 6df1 7c3e 278d cf3c 96e6 1c3e b801 07be
00000300: 0a7c 80bd 603b 503c ff29 43be 20be 3e3e
00000310: 9088 d4bc d043 01be 98ee 4ebd a7dc d83c
00000320: 400f cabc 6810 89bd 55d7 17be 6ec3 683c
00000330: 5052 533e 48c4 883d 419e 803e 585e 83bd
00000340: e37d 1fbe 9585 05be 34e0 7bbd 1203 c7bd
00000350: 0f7c 6a3e 1d1a 12be d4eb f4bd 5d7c 14be
00000360: 6efc e53d f5ae 7dbe ee85 193e ed14 69be
00000370: 43f3 36be c8dc 523d 0632 4b3e eac7 7e3e
00000380: a2fe 7b3e 9c01 1dbe 7415 96bd 305d df3d
00000390: cbe2 393e a351 6abe f008 a2bd c78f 5fbe
000003a0: 18e1 593d 5a4f 30be a30d 723e 6e20 4a3e
000003b0: f05d ba3c 1e67 1ebe 51e3 193e 60e1 90bd
000003c0: 4a40 babd b664 21be 66af dd3d ba4f c6bd
000003d0: eb50 763e 4650 ca3d bcaa b3bd 0202 6bbe
000003e0: 99db eebc 434b 0f3e 9c56 81be 3f35 85be
000003f0: 45d1 223e 1473 453d 4711 d93c 8e32 57be
0.26921818 0.106665716 0.047242165 -0.15146762 0.017993927 -0.15207528 0.06837675 0.04153347
0.07553679 -0.1818157 0.112554684 -0.13214822 -0.008675247 -0.21007963 0.22462021 0.07101712
-0.24332388 -0.101258814 0.123630375 0.23193589 -0.012596816 -0.18624803 -0.0027570724 -0.103203475
-0.13831289 -0.08675727 -0.05967027 -0.06466332 -0.27076948 -0.15195645 0.16467127 -0.052662596
0.2769897 0.10376589 0.2631997 -0.23498903 -0.13161182 -0.23420852 -0.16587532 -0.04570882
0.15429232 -0.16012046 0.065100044 0.14498639 -0.0738322 -0.14109151 0.26031613 -0.0068059564
-0.1751957 -0.07760438 0.10420965 -0.19448882 -0.21295093 0.08394551 0.015223682 -0.12024419
-0.24646372 0.041869015 -0.22792423 -0.19038647 0.26542872 0.19117047 0.27434915 -0.026646048
0.2640661 -0.122636884 0.14917345 -0.24264722 -0.05609706 0.07840097 -0.14222449 0.05366063
0.012638658 -0.097126946 0.072125584 0.1867766 0.22477804 0.13626154 0.2752617 0.23817901
-0.12733574 0.2851227 -0.23469439 0.19144404 -0.0956876 0.1677583 0.27451718 -0.029956758
0.25217816 -0.192826 0.022389306 -0.19998461 -0.0038742125 0.22666608 -0.087957054 0.072456956
-0.09094077 -0.015906781 -0.049917877 0.26319358 0.08454549 0.018609881 -0.23300603 -0.21055326
-0.24882506 -0.17469351 0.11014186 -0.13201724 0.26170623 -0.21374558 0.2351705 0.25377518
0.23754491 0.19458228 0.062010884 0.09047815 0.12752397 -0.0039402843 0.12376389 -0.07080181
-0.23316061 0.002032131 0.23274398 -0.035610005 0.03929937 0.021021886 -0.0150461495 -0.18936339
0.16516542 -0.13871586 -0.10695492 0.26932916 0.124621406 -0.2686702 -0.25309765 0.117266715
-0.27475742 -0.28104293 0.11339904 -0.13966298 0.1845982 -0.1642843 -0.14576463 -0.057234123
0.1721134 0.26008976 0.26584867 0.11566895 0.055327535 0.18212844 -0.02811228 0.20139694
-0.24448705 0.25999677 0.008635789 0.09116687 0.111188754 0.18857223 -0.16779271 -0.2377608
-0.04284866 -0.21157573 -0.072658926 0.12504569 -0.08694944 0.016368061 0.13869971 0.08810067
-0.030305833 0.17176186 -0.0468743 0.12902604 -0.2816375 -0.021994531 -0.11924066 0.13344242
-0.014727116 0.17692888 0.2278422 -0.244969 0.01060009 0.15340939 0.0684811 0.16008349
0.1843077 0.21887325 -0.14397538 0.13451242 0.24701472 0.025335861 0.15322337 -0.1318425
-0.062736586 0.012709469 -0.19058989 0.18627214 -0.025944024 -0.12623525 -0.05052051 0.026472403
-0.024665475 -0.06692582 -0.14828236 0.01420675 0.20636868 0.06678063 0.25120738 -0.06414479
-0.15575366 -0.13039239 -0.061493114 -0.097173825 0.22898887 -0.14267774 -0.11959043 -0.14500566
0.11229788 -0.24773772 0.14992496 -0.22761889 -0.17866234 0.051480085 0.19843301 0.24880949
0.24608853 -0.15332645 -0.073283106 0.10906446 0.18152921 -0.22882704 -0.07911861 -0.2183219
0.05319318 -0.1721777 0.23638014 0.19738933 0.022749871 -0.15469024 0.1502812 -0.07074237
-0.090942934 -0.15761074 0.1082447 -0.096831754 0.24054305 0.09878592 -0.087727994 -0.22949985
-0.029157447 0.13993554 -0.2526139 -0.26017186 0.15900142 0.04820545 0.026497496 -0.21015379

fc.0.bias f4 [120]
00000000: 54e4 ee3d 4742 423e eb1d 5abe 3355 0a3e
00000010: 0cb7 40bd 2087 a53d 8aab d9bd 0c23 3f3e
00000020: 7f32 203e b865 6abe f02f b3bd 917b 4fbe
00000030: 52dc 90be fe2d 80be 4cea b0bd b6c8 3ebe
00000040: f2ab 68be 21b4 82be 60d3 cebc b0be 063e
00000050: 6414 9dbd 4adc 67be 0050 4639 f05d 053d
00000060: 60a0 133c 696b 403e 00cc bebc ea4d 81be
00000070: d431 433d 7bdb 5dbe 507b 8b3c 1870 5fbe
00000080: 6095 353c d243 7abe 4349 89be ae64 413e
00000090: 8dd9 83be 9019 923d 3ec7 933e 9882 4cbd
000000a0: e858 323d 52e2 f53d 881c eabd 3909 1bbe
000000b0: b283 a63d 50f1 103d d8aa e6bd 34b8 4abd
000000c0: b88a 613d c674 8dbe e3e8 6ebe 02a2 7dbe
000000d0: 184f 253d f333 363e 482e 88be f746 013e
000000e0: 74c3 0cbe ba29 4ebe 30d0 c63c 304f e1bd
000000f0: c88d 14be 529b dabd 2204 cdbd 29b8 423e
00000100: da5a bfbd cdd1 493e 903c edbc 1296 95bd
00000110: d0b1 4c3d 7036 fb3c 6f77 70be d63f 6e3e
00000120: e032 663d 0291 853d 51ec 603e 678c 93be
00000130: 6b5b 323e 03f0 07be 7ba7 633e ee78 f63d
00000140: 5c37 bc3d 82c5 e7bd b2df 613e 0397 533e
00000150: e00c 3d3c 20c1 9abd c378 51be 3e57 a43d
00000160: 9c3e dd3d 0f20 083e ca77 233e 8cf0 863d
00000170: 0462 de3d a126 65be 275f 7f3e 589a 173e
00000180: 4970 93be e443 863d 10b9 c93d 48fc 513e
00000190: 6e5e 08be 1421 47be 2bbe 26be 86f9 b43d
000001a0: 0313 7fbe bc5c 06be 5c99 cabd 7f86 7a3e
000001b0: 0c25 7b3e 2ccc bd3d 007f 473d 50ad d3bc
000001c0: ec80 8ebd e2f3 bbbd 0641 023e 8a3f 91be
000001d0: 3825 533e 9042 07be 6e08 6abe 7a4b b5bd
0.11664644 0.18970595 -0.21300475 0.13509063 -0.047049567 0.08082414 -0.106284216 0.18665713
0.15644263 -0.22890365 -0.08749378 -0.2026198 -0.2829309 -0.2503509 -0.086384386 -0.18631253
-0.22721842 -0.25528052 -0.025247276 0.13158679 -0.07669905 -0.22642627 0.00018912554 0.03256029
0.009010404 0.18790974 -0.023290634 -0.25254756 0.04765494 -0.21665756 0.017026573 -0.21820104
0.011082977 -0.24439934 -0.26813707 0.18886063 -0.25751916 0.07133782 0.28862947 -0.04992923
0.04354182 0.12006058 -0.11431223 -0.15140237 0.08130588 0.035386384 -0.112630546 -0.049492076
0.055063933 -0.27628154 -0.23331027 -0.24768832 0.040358633 0.17793255 -0.2659781 0.12624727
-0.13746434 -0.20133105 0.024269193 -0.11001432 -0.1450721 -0.10674156 -0.10010554 0.19015564
-0.093435004 0.19708939 -0.028959543 -0.07304014 0.049974263 0.030665606 -0.2348306 0.23266539
0.056200862 0.06521799 0.21965148 -0.28818056 0.17417686 -0.13275151 0.22231857 0.12034784
0.091902465 -0.113169685 0.22057989 0.20663075 0.011538714 -0.07556367 -0.20456223 0.080244526
0.108029574 0.1329348 0.15963665 0.065888494 0.10858539 -0.22378017 0.24938641 0.14804971
-0.28796604 0.06555918 0.09849751 0.20506394 -0.13317272 -0.19446212 -0.16283481 0.08836655
-0.24909596 -0.13121313 -0.09892532 0.24465369 0.24525851 0.09267458 0.0487051 -0.025839478
-0.06958184 -0.09177376 0.12720117 -0.2836879 0.20619667 -0.13208985 -0.22854778 -0.08852287

fc.2.weight f4 [4, 120]
00000000: 507d 943d a7e8 81bd e860 6d3c 9c3d ae3c
00000010: a866 123c e476 d53c df5a 12bd 605d 363b
00000020: e025 483d edb4 b7bd 08af 4dbc f44c b03d
00000030: 0544 12bd 8ab1 b33d 207f 713c dc7f 2a3d
00000040: 8cde 75bd ba46 ab3d 7465 d23c 80bc 4b3c
00000050: 9ad1 95bd 3182 90bd c576 a9bd 0009 aabc
00000060: c05a f5bb 8044 57bc 1521 98bd cbfd 8bbd
00000070: 0ae0 b0bd 6ea0 3ebd 6b8a 82bd 2044 abbd
00000080: 9a41 963d 38f4 4d3d b8b6 8ebc 142c 903d
00000090: d8aa b63d 0466 903c f8b9 143d c43e aa3c
000000a0: a40a 1d3d a043 563c 2b07 55bd 222f ab3d
000000b0: 9260 45bc d8c0 a5bc c28f 9fbd 20cc df3b
000000c0: c867 8dbc 20cd 79bc 0a4a 913d ea10 ae3d
000000d0: 80ba 3a3b 5516 9cbd 7b28 64bd 9082 423c
000000e0: 8829 723d 9186 a5bd 5032 dfbb 6d4c 9abd
000000f0: 6a47 40bd c085 e63a 1202 86bd ac3f 993d
00000100: 2828 783c 7ac7 31bd 7094 693d 8465 573d
00000110: b209 853d 7c63 94bd 7466 a9bd 78a4 693d
00000120: 6cf0 1d3d b000 f63c ec5f 50bd 8894 713d
00000130: 8033 b23d 4916 a3bd a883 7a3d 00d2 a3b9
00000140: 3e2f 72bd a0d7 ce3c 609e 353c d4fe fe3c
00000150: e68d 9c3d fb56 28bd 0080 93b8 08dc 59bd
00000160: 1c2d b73c d898 593d 38c9 df3c 4cbd 9a3d
00000170: 84c5 983d 10a6 8d3b 20c5 b53b 5f8b 43bd
00000180: 00c9 17bd 08ae 3dbd 6470 9d3d 884e a7bc
00000190: 444a 99bc 107f 863d 5377 0dbd 00fa 303b
000001a0: 5058 703c e2be b2bd e476 553d 2061 a6bd
000001b0: edf5 97bd 4c36 d9bc e0fc 5ebb 8cac 82bd
000001c0: 84df a3bd ceb1 803d 34fa 90bd 0cd9 903d
000001d0: 8010 a33b 5786 86bd c762 1bbd b843 333c
000001e0: 6488 4bbd 1e7b 973d 75d9 a4bd 4016 853b
000001f0: 0054 713c 3249 b9bd ca35 5dbd 94c2 50bd
00000200: 8ca8 fd3c 3a08 053d b074 8f3c 0c8a 87bd
00000210: c0eb d0ba b094 9c3d d8cc 57bc 2099 593c
00000220: 2c34 1a3d e862 4bbd 56df 3abd 1a3f b23d
00000230: 80c0 82bb d0da ae3c f482 7c3d 5833 003d
00000240: 3074 42bc 888c 50bd 70e3 ee3b f002 803d
00000250: e27c 94bd 6969 70bd f0c5 f43b 4a29 71bd
00000260: f3a6 4cbd 3066 3ebc f4ce 643d 496d e9bc
00000270: f0a7 75bc e012 97bd 888e 63bc 1c65 3c3d
00000280: 70cd b33d a4b2 44bd 02a4 8dbd 16f0 803d
00000290: f252 b03d 5c68 72bd a5c6 b0bd 70c1 6b3d
000002a0: 80c8 0d3a 85bf 82bd 64b7 f43c dc93 443d
000002b0: e546 90bd b01e a6bc c814 5d3d ec45 913d
000002c0: b816 323d 44ab eabc 10c3 a83b f092 c0bc
000002d0: 8cfc e5bc 3e6b 5bbd 305c e63c ba73 a6bd
000002e0: 3400 2e3d 1c56 363d f943 4fbd 621d 1ebd
000002f0: d069 09bd 4e38 40bd 8ea8 9d3d a444 fa3c
00000300: 6499 e5bc 4860 113d ecac a83d 3a5f 84bd
00000310: 806d c63b 26c9 f0bc 3a29 a0bd f4c1 853d
00000320: 9c44 643d 685d 363d f8e1 0fbc 804c 303b
00000330: 5256 a33d a886 8b3d 749a 773d d864 02bd
00000340: b84a c4bc c043 133b 10a5 2b3d 341a 96bd
00000350: 860a a93d 8c52 263d f313 69bd 0049 fa39
00000360: 2c34 533d 10f5 4d3c 1f67 8cbd 8e61 0bbd
00000370: 6b32 8abd 303f c8bb 54ee a63d 3839 393c
00000380: d037 b1bd aae6 903d e839 eabc a005 51bc
00000390: 1abd 98bd f869 e43c 9082 b2bd 4044 e33b
000003a0: a21e 47bd f08e 883c 8061 9bba 9aac a43d
000003b0: 8078 b33c 1cc3 ef3c c04f 8bbb 0c28 413d
000003c0: 6f68 86bd 8846 9f3d 8ae1 6cbd 8875 15bc
000003d0: 204d 09bc 2e9c 483c 60ef 69bb e8db 523d
000003e0: 8a7b b83d 0c3d e83c 50bd e23c 8117 54bd
000003f0: 00f1 d43c 3c03 923d be40 adbd f76b 99bd
0.07250464 -0.06343203 0.014488436 0.021269612 0.008935608 0.026057668 -0.035731193 0.0027826652
0.048864245 -0.08970056 -0.012553938 0.08608428 -0.0357094 0.08774097 0.014739782 0.041625842
-0.06002669 0.083630994 0.025683142 0.012435079 -0.07315369 -0.07056082 -0.082746066 -0.020756245
-0.007487625 -0.01313889 -0.07428185 -0.068355165 -0.08636482 -0.046539716 -0.063740574 -0.08362603
0.07336731 0.050281733 -0.017421111 0.07039657 0.089193046 0.01762677 0.036310166 0.020781882
0.038340226 0.0130776465 -0.05200879 0.08358599 -0.01204695 -0.020233557 -0.077910915 0.0068297535
-0.0172614 -0.0152466595 0.070942 0.0849932 0.002849251 -0.07621447 -0.055702668 0.011871949
0.05912164 -0.08082307 -0.0068114176 -0.07534108 -0.046943106 0.0017587468 -0.06543364 0.074828476
0.015146293 -0.043403126 0.057026327 0.052587047 0.0649599 -0.07245538 -0.082714945 0.057041615
0.038559362 0.030029625 -0.05087273 0.05897954 0.08701229 -0.07963235 0.061160713 -0.00031246245
-0.059127085 0.025249302 0.011085123 0.03112737 0.076442525 -0.041098576 -7.033348e-05 -0.053188354
0.022360377 0.05312428 0.027317628 0.07555637 0.07459548 0.0043227747 0.005547181 -0.047740337
-0.037056923 -0.046308547 0.076874524 -0.020423189 -0.01871217 0.06567204 -0.034537625 0.002700448
0.014669493 -0.08727814 0.052115336 -0.08123994 -0.074199535 -0.026515149 -0.0034025237 -0.06380567
-0.080016166 0.062839136 -0.070789725 0.070726484 0.004976332 -0.06568592 -0.037936 0.010941438
-0.04969062 0.073965296 -0.08049289 0.0040614903 0.0147295 -0.09047164 -0.054006375 -0.050966814
0.030964158 0.03247855 0.017511696 -0.06618127 -0.00159394 0.076455474 -0.013171397 0.013281137
0.03764741 -0.04965487 -0.045623146 0.08703442 -0.003990233 0.021344572 0.061648324 0.031298965
-0.011868522 -0.05091527 0.0072902963 0.0625056 -0.07250382 -0.058694277 0.007469885 -0.058877267
-0.049963903 -0.011621043 0.05586143 -0.028494494 -0.014993653 -0.07376647 -0.013888963 0.045994863
0.087794185 -0.048021927 -0.06916048 0.06295793 0.086095706 -0.059181556 -0.086316384 0.057557523
0.00054086 -0.06384186 0.029872604 0.047992572 -0.07044772 -0.020278305 0.053974897 0.07093415
0.043478698 -0.028646119 0.0051502064 -0.023507565 -0.028074525 -0.05356907 0.02812013 -0.08127542
0.042480662 0.044515714 -0.050601933 -0.03860224 -0.033548176 -0.046928696 0.07698165 0.030550309
-0.028027244 0.03549221 0.08236107 -0.064634755 0.006055534 -0.02939279 -0.07820363 0.06531134
0.055729493 0.044522673 -0.0087819025 0.0026901066 0.07975449 0.06812793 0.060450032 -0.031834453
-0.02396141 0.0022470802 0.041905463 -0.073292166 0.0825396 0.040606067 -0.05690379 0.00047738105
0.051563427 0.0125706345 -0.06855606 -0.034028582 -0.06747898 -0.006111048 0.08150926 0.011305146
-0.086532235 0.07075246 -0.028592065 -0.012757689 -0.07457943 0.027882561 -0.08716309 0.0069356263
-0.048613198 0.01666972 -0.0011854619 0.08040734 0.021908045 0.02926784 -0.0042514503 0.047157332
-0.06562888 0.07777125 -0.05783228 -0.00912226 -0.008380204 0.012244267 -0.0035695657 0.05147925
0.09007938 0.028349422 0.027678162 -0.051780228 0.025993824 0.07129523 -0.08459614 -0.07491296

fc.2.bias f4 [4]
00000000: a040 e93b c07e 1d3d 7849 3dbd 202e 8ebd
0.0071182996 0.038450956 -0.046212643 -0.069423914
