Models/score_55_model_260143.pt (torch, 12127 bytes, 4 tensors)

fc.0.weight f4 [156, 12]
-0.014809033 -0.013894471 0.2421931 0.093907475 0.14253855 -0.19683601 0.023659645 0.2250369
-0.027551688 -0.033793785 -0.07440925 0.22573023 -0.17462371 0.0039990135 -0.23840056 0.23978394
-0.27089766 -0.12153467 -0.25200582 -0.2572535 -0.24954218 0.049971163 0.010420841 -0.19154619
-0.23729642 0.23355956 -0.007275351 0.2011557 0.00042582888 -0.23071967 0.12650502 0.18864885
-0.007575812 -0.028916795 -0.26697338 0.032452993 -0.09698491 0.1556687 -0.27658117 -0.13700865
0.17990434 0.25994116 -0.19263704 0.0980663 0.065540954 0.26944137 -0.20987302 -0.23567916
0.1760924 -0.24653006 -0.064867355 0.0948993 -0.0028830636 -0.28096053 -0.020324074 0.058105532
0.13411772 -0.061491262 0.18006696 -0.023827229 0.2488996 0.22205256 -0.17142783 -0.20516467
0.13346578 -0.02354207 0.09939356 0.17104362 -0.18900642 -0.25897208 -0.08251798 0.082055524
0.26746786 0.012480583 0.12362751 0.02266452 0.034059033 -0.2791038 0.22892207 -0.2150338
-0.23238374 0.08704046 -0.06925133 0.021278726 0.23266593 0.15247527 0.25215897 0.16642047
-0.14594565 0.0055721407 -0.10289129 0.035156272 0.17894065 0.25041988 -0.039579105 -0.06413331
0.24116604 0.26522708 0.24823287 -0.06333953 -0.2618795 0.029701564 -0.053012315 0.24749829
0.20946161 0.13250962 0.01679395 -0.2623964 0.0042143343 0.0890795 0.03134509 0.064525865
0.09502901 0.11724384 0.20231594 0.058230385 -0.17612967 0.16856481 -0.014477214 -0.17691615
-0.02394805 0.21158996 0.12275492 0.24629293 -0.06039728 0.27026075 -0.18749686 0.14082435
-0.1678816 0.2781754 0.0457431 0.15398598 -0.12123268 0.02390329 0.1938606 0.003307947
-0.045274228 0.00091709464 -0.10193891 0.03335962 -0.030857164 0.11087024 0.08535423 0.21939613
0.13124952 0.0019918093 -0.28988326 0.21719967 0.022234503 0.09129633 0.15102546 -0.26496643
0.19321245 -0.016590193 -0.20550258 -0.17822988 0.068981774 0.2794063 0.15286031 0.062230892
0.09358661 -0.028756166 -0.13799125 -0.09851327 -0.23627342 -0.10877507 0.13404076 -0.20332827
0.1640663 0.13864939 0.12018507 0.029169627 0.17738597 0.19677363 -0.26107976 0.15523876
-0.061780244 0.12802774 0.13864352 -0.14381635 -0.03291529 -0.051778056 0.09681366 -0.112058744
0.08858173 0.26275763 -0.25210604 0.054381523 -0.2537871 0.022629034 0.2271216 0.2467624
-0.15091953 -0.13565403 -0.0071238633 -0.15403357 -0.1912982 0.27516904 0.27510822 0.13379249
0.10407974 -0.03644263 -0.24975684 0.033922434 0.22674127 -0.27739325 0.1415808 0.11154448
0.18703865 -0.038347907 0.18039288 0.027478393 0.26075774 -0.0052245473 0.2782151 0.19169796
-0.017258555 -0.17343457 0.04323527 0.027441882 0.18281639 -0.015314794 0.17772634 -0.12664066
-0.10382499 -0.21533132 0.138014 0.0875097 0.19494012 0.1822051 -0.053666156 0.007837538
-0.11188682 0.09060933 0.010379963 -0.21900783 0.23938292 0.005414389 0.2101672 0.09777989
-0.28367266 0.12892587 0.26646388 -0.0124639105 0.07075135 -0.26103964 -0.26343468 0.012497155
0.11912687 0.12063024 -0.051275786 -0.039720494 0.20507826 0.17464478 0.09133795 -0.2596449
00000000: 96a1 72bc a3a5 63bc 7801 783e 9052 c03d
00000010: a0f5 113e 618f 49be dfd1 c13c 1370 663e
00000020: 14b4 e1bc 5a6b 0abd e063 98bd d325 673e
00000030: 8fd0 32be 280a 833b 471f 74be ec89 753e
00000040: 19b3 8abe 2be7 f8bd e806 81be bbb6 83be
00000050: fc87 7fbe 90ae 4c3d 2dbc 2a3c af24 44be
00000060: d5fd 72be 3d2a 6f3e 1166 eebb c3fb 4d3e
00000070: c941 df39 c741 6cbe 888a 013e 2a2d 413e
00000080: 843e f8bb eae2 ecbc bcb0 88be 6eed 043d
00000090: 06a0 c6bd 9e67 1f3e 0c9c 8dbe ff4b 0cbe
000000a0: d838 383e 0217 853e a542 45be fcd6 c83d
000000b0: 563a 863d 38f4 893e f4e8 56be e155 71be
000000c0: 9151 343e 6072 7cbe 2dd9 84bd 905a c23d
000000d0: c8f1 3cbb 0fda 8fbe ac7e a6bc 1100 6e3d
000000e0: 2856 093e 43de 7bbd 7963 383e 5231 c3bc
000000f0: 89df 7e3e bf61 633e c78a 2fbe b016 52be
00000100: 41ab 083e 4ddb c0bc da8e cb3d 0f26 2f3e
00000110: e68a 41be fd97 84be 30ff a8bd ba0c a83d
00000120: 8cf1 883e 5c7b 4c3c 6c30 fd3d f2aa b93c
00000130: 7c81 0b3d b1e6 8ebe 8c6a 6a3e d231 5cbe
00000140: 01f6 6dbe 4542 b23d a4d3 8dbd b950 ae3c
00000150: fa3f 6e3e 7a22 1c3e fb1a 813e 216a 2a3e
00000160: c772 15be 8196 b63b abb8 d2bd 0600 103d
00000170: 383c 373e 0937 803e b31d 22bd 5358 83bd
00000180: 3bf4 763e d8cb 873e c230 7e3e 28b8 81bd
00000190: 1215 86be b250 f33c 7123 59bd 3170 7d3e
000001a0: 1b7d 563e 9ab0 073e 7793 893c d258 86be
000001b0: 6618 8a3b 506f b63d b663 003d 2326 843d
000001c0: 929e c23d 8a1d f03d e92b 4f3e fc82 6e3d
000001d0: 565b 34be 419c 2c3e d631 6dbc 8229 35be
000001e0: b32e c4bc 0aab 583e ee66 fb3d 3734 7c3e
000001f0: 2363 77bd 9e5f 8a3e 2dff 3fbe 4234 103e
00000200: 27e9 2bbe 026d 8e3e 1e5d 3b3d 80ae 1d3e
00000210: d748 f8bd d5d0 c33c 6583 463e 24ca 583b
00000220: 7871 39bd 2e69 703a 59c5 d0bd 19a4 083d
00000230: 2ac8 fcbc f00f e33d 33ce ae3d 61a9 603e
00000240: 4666 063e 0489 023b 946b 94be 9769 5e3e
00000250: 2225 b63c 92f9 ba3d 6ba6 1a3e aea9 87be
00000260: 7cd9 453e 28e8 87bc 456f 52be e581 36be
00000270: 5146 8d3d 580e 8f3e 6a87 1c3e d2e5 7e3d
00000280: 56aa bf3d 0d92 ebbc 944d 0dbe 53c1 c9bd
00000290: a9f1 71be 77c5 debd fb41 093e 4935 50be
000002a0: ff00 283e 1bfa 0d3e 9723 f63d 24f5 ee3c
000002b0: aba4 353e 077f 493e 3fac 85be e9f6 1e3e
000002c0: 480d 7dbd b419 033e 91f8 0d3e 9844 13be
000002d0: 2fd2 06bd 3a15 54bd 3d46 c63d 0e7f e5bd
000002e0: 576a b53d 2b88 863e 0b14 81be 29bf 5e3d
000002f0: 62f0 81be 8660 b93c 9192 683e 48af 7c3e
00000300: a68a 1abe e4e8 0abe 4c6f e9bb faba 1dbe
00000310: ade3 43be f5e2 8c3e fcda 8c3e e600 093e
00000320: c227 d53d de44 15bd 42c0 7fbe 40f2 0a3d
00000330: dd2e 683e 7d06 8ebe 8ffa 103e 6f71 e43d
00000340: 0f87 3f3e b212 1dbd e9b8 383e 5e1a e13c
00000350: 0a82 853e ae32 abbb 3672 8e3e 784c 443e
00000360: d061 8dbc d598 31be 7717 313d cccd e03c
00000370: 3834 3b3e e7ea 7abc e5fd 353e 17ae 01be
00000380: 32a2 d4bd d07f 5cbe 8b53 0d3e 4938 b33d
00000390: 629e 473e f993 3a3e 0bd1 5bbd 0469 003c
000003a0: eb24 e5bd 6291 b93d b810 2a3c 9743 60be
000003b0: cc20 753e 306b b13b 1236 573e d340 c83d
000003c0: 8b3d 91be 2505 043e f46d 883e 6e35 4cbc
000003d0: 15e6 903d fda6 85be e9e0 86be dec0 4c3c
000003e0: caf8 f33d fd0c f73d 8f06 52bd f5b1 22bd
000003f0: 0900 523e 15d6 323e 640f bb3d 2df0 84be

fc.0.bias f4 [156]
-0.0065176976 -0.12871978 -0.23138683 0.1970271 0.21444295 0.24108544 -0.24950585 0.26230672
0.20692244 0.26306745 -0.2826282 -0.13308693 0.035685703 -0.0633667 -0.07294544 -0.25372824
0.0078765815 0.15922873 0.056221083 -0.0074508 0.024993945 0.2737515 0.074164435 0.027877195
0.09124235 0.09463973 0.11173997 -0.26889247 -0.022036554 0.20005174 -0.13379166 0.038204674
0.22380735 -0.0030925807 -0.004324402 -0.020023406 -0.1821303 -0.12086803 -0.10514175 -0.015440877
0.059927616 0.043070074 0.04637097 0.27540246 0.22432095 -0.19770665 0.0449614 0.058319077
0.19545884 -0.015869712 0.15025374 0.016940178 -0.22446434 -0.021904157 0.23870309 -0.25489077
0.09404478 -0.2707058 -0.0110859 -0.06884436 -0.00025009038 0.27499032 0.07018297 -0.21816297
-0.005634752 -0.17509113 -0.11310782 0.22423361 0.023625815 0.04352661 -0.043504626 -0.2592019
-0.2670616 0.048036072 -0.16993023 -0.22447294 -0.110679634 -0.16141227 0.21478814 0.27171475
0.17859037 -0.13620842 0.1841212 -0.20235863 -0.028365364 -0.18537816 0.25691774 0.23353648
-0.27802417 0.24365738 0.075097635 -0.16141324 0.2187035 0.26063448 0.25754708 0.10776604
0.2721051 0.21175626 0.24210303 0.08137433 0.22245276 0.21647595 0.21125397 -0.108830035
0.12833609 -0.27607036 -0.041178282 0.20938368 -0.1313632 -0.018957717 -0.1856966 0.15371324
0.19083701 0.28561282 -0.081287265 0.21734193 -0.25879234 0.21487953 -0.19146346 -0.039807994
-0.08258212 -0.082219176 0.25041965 0.26807004 0.18028338 0.2838947 0.2860982 0.17698616
-0.28189284 0.03566589 0.2805428 0.15227914 -0.19551253 -0.052482318 0.28863743 0.06786579
0.075739995 0.0862592 -0.09255103 0.2295234 0.1897943 0.003715927 -0.08721777 -0.20423664
0.14905858 0.22956227 0.029131467 -0.08166702 0.16783535 0.036738776 0.2733746 0.23383074
0.15318109 0.15221664 -0.24446395 0.035155743
00000000: 6992 d5bb 1ecf 03be abf0 6cbe 79c1 493e
00000010: ef96 5b3e 1adf 763e 767e 7fbe 114d 863e
00000020: 7ae3 533e c7b0 863e a5b4 90be f147 08be
00000030: 2c2b 123d 67c6 81bd 6b64 95bd abe8 81be
00000040: c70c 013c db0c 233e 1448 663d d725 f4bb
00000050: 1ac0 cc3c 2829 8c3e 86e3 973d b75e e43c
00000060: 45dd ba3d 7ad2 c13d edd7 e43d 46ac 89be
00000070: 0186 b4bc 5dda 4c3e ae00 09be 817c 1c3d
00000080: c12d 653e e5ac 4abb b7b3 8dbb 2008 a4bc
00000090: 5e80 3abe a889 f7bd 8f54 d7bd bbfb 7cbc
000000a0: a976 753d 3f6a 303d 7cef 3d3d 8d01 8d3e
000000b0: 64b4 653e 9d73 4abe 7229 383d fcdf 6e3d
000000c0: 5d26 483e 3301 82bc 1edc 193e 21c6 8a3c
000000d0: fbd9 65be 5970 b3bc 956e 743e 0b81 82be
000000e0: 8d9a c03d f399 8abe a2a1 35bc 46fe 8cbd
000000f0: 901e 83b9 88cb 8c3e 17bc 8f3d 1d66 5fbe
00000100: baa3 b8bb 174b 33be 13a5 e7bd 7f9d 653e
00000110: ed8a c13c f548 323d e831 32bd 1db6 84be
00000120: 4cbc 88be 79c1 443d 3102 2ebe 3cdc 65be
00000130: 01ac e2bd 4249 25be 6cf1 5b3e 321e 8b3e
00000140: 65e0 363e 387a 0bbe 458a 3c3e 1a37 4fbe
00000150: 7b5e e8bc c6d3 3dbe b98a 833e 3024 6f3e
00000160: 2f59 8ebe 5281 793e cacc 993d 8349 25be
00000170: cff3 5f3e e271 853e 36dd 833e 71b4 dc3d
00000180: 5c51 8b3e a2d6 583e dbe9 773e 96a7 a63d
00000190: a8ca 633e dfab 5d3e f652 583e 48e2 debd
000001a0: 896a 033e 1859 8dbe 8faa 28bd ad68 563e
000001b0: 1384 06be 374d 9bbc 4027 3ebe 0167 1d3e
000001c0: c76a 433e d83b 923e f079 a6bd e28e 5e3e
000001d0: 6e80 84be 6109 5c3e ff0e 44be b50d 23bd
000001e0: d120 a9bd 8762 a8bd 0137 803e 7a40 893e
000001f0: 359c 383e a55a 913e 777b 923e dc3b 353e
00000200: 4254 90be 6516 123d 4ea3 8f3e 10ef 1b3e
00000210: 7034 48be b3f7 56bd 49c8 933e 38fd 8a3d
00000220: 921d 9b3d aaa8 b03d 658b bdbd 2f08 6b3e
00000230: 7059 423e e986 733b 3b9f b2bd 6923 51be
00000240: d0a2 183e 5f12 6b3e 1da5 ee3c 0a41 a7bd
00000250: 08dd 2b3e 667b 163d c1f7 8b3e 5371 6f3e
00000260: 81db 1c3e aede 1b3e c254 7abe 78ff 0f3d

fc.2.weight f4 [4, 156]
0.019571364 -0.069326855 0.05078443 -0.07553966 -0.016097685 0.0335942 -0.009644986 0.080507204
-0.020261196 0.04747032 0.04860025 0.06834002 -0.049446397 0.028156202 -0.025867479 -0.030164575
0.066968285 0.007943903 0.07853125 -0.048272103 0.009550118 -0.010747346 0.02410577 -0.03469981
-0.074184164 -0.06665268 0.049465224 0.032527447 0.031424034 -0.054629706 0.049233112 0.07794034
-0.030360471 0.07185601 0.05616796 -0.08093236 0.015596305 0.023091633 -0.01715786 -0.038590048
0.03257975 0.022658216 0.029711112 0.08074157 0.025903612 0.040097546 0.008245203 -0.018548986
0.016484449 -0.035954267 -0.055534735 -0.08041503 -0.064687245 0.009506672 0.06379569 0.05427693
0.0022991684 -0.06177681 -0.075491786 0.06845742 -0.0149863195 0.051419627 0.026299749 -0.029897733
0.0038702118 0.043373164 -0.033102743 -0.01788526 -0.04074428 0.043374393 -0.048849154 -0.067574464
-0.0047914344 0.016213607 -0.062129043 -0.0552016 -0.0151358 0.0149421245 0.06631842 -0.076083265
0.070914894 0.056140378 -0.038545698 -0.075438194 0.026451033 0.055771783 0.0022036242 0.0036615396
0.029880924 0.021360273 0.039346084 -0.0013501453 0.060595516 0.00148978 -0.02868506 -0.07598063
0.05601883 0.029612958 -0.034234118 0.04733889 -0.06762293 -0.03446115 0.0054911594 -0.07138837
0.012293825 0.013730721 0.017180333 0.006602527 -0.043712694 -0.05193571 -0.06837791 0.00706056
0.025117699 -0.022763528 -0.0567326 -0.078187935 0.0044615665 0.048126478 -0.068263784 0.03930738
-0.03538382 0.034440875 0.051726464 -0.03974905 -0.0020412882 -0.07297533 -0.010582687 -0.07746874
0.026322974 -0.067490295 0.046442453 -0.026191372 0.06760676 0.060916 0.0789523 -0.067582056
0.076836854 -0.0037693689 -0.028306706 -0.050516505 0.06583715 -0.030405518 0.07088989 0.06392968
-0.044400122 -0.05669627 -0.019425074 -0.05066488 0.012645069 0.029568058 0.023864403 -0.018744998
0.0017993869 0.033515748 0.004590052 0.01927744 -0.07623254 0.04360712 0.01660374 0.008267042
-0.026046164 0.030269513 -0.026659807 0.0021154152 -0.075137556 -0.009412966 -0.03148343 -0.008781818
0.05148792 -0.057100434 0.037827894 0.07884225 0.00467955 -0.008351593 -0.030578945 0.0066346135
0.046517964 0.0056213364 0.07250948 -0.030078873 -0.036901303 -0.015294951 0.06138038 0.029673498
0.05423468 0.01299719 0.022550697 0.028911458 0.032908153 6.711384e-05 -0.051535644 0.016504714
-0.07913281 -0.05515793 0.0025892872 -0.004938121 -0.04756957 -0.024570301 -0.02495404 -0.04571319
0.008180716 -0.016624391 0.00698414 0.008969063 0.01778419 0.002623145 -0.07132714 -0.01651436
-0.043846317 0.077897385 0.07875532 -0.0059329695 0.04929488 0.06214126 -0.0029003653 0.017233608
-0.0009991678 0.039749537 0.015847147 0.06623012 0.032331485 0.028333968 0.027701627 0.039442465
-0.030460758 -0.066158056 -0.041798256 -0.06916011 -0.03168122 -0.06065404 -0.03215427 0.04144777
-0.026957609 0.042169146 0.0049536484 -0.072116025 -0.014548235 0.012288382 0.015155706 0.016867539
-0.07917051 0.05271035 0.018803714 -0.038876135 -0.06323655 -0.0732379 -0.050246906 -0.017927738
-0.055475548 0.053174216 0.042001143 -0.018999806 -0.054656047 0.03203821 -0.056244157 0.05531143
00000000: 2054 a03c 3dfb 8dbd 5603 503d 8ab4 9abd
00000010: 4bdf 83bc 129a 093d 0106 1ebc f6e0 a43d
00000020: cffa a5bc 3d70 423d 0e11 473d daf5 8b3d
00000030: 4e88 4abd d6a7 e63c 09e8 d3bc b31b f7bc
00000040: ab26 893d 2527 023c fed4 a03d f8b8 45bd
00000050: 1978 1c3c a315 30bc 7779 c53c 6321 0ebd
00000060: deed 97bd 3381 88bd 0c9c 4a3d 803b 053d
00000070: 7db6 003d 66c3 5fbd a9a8 493d 2f9f 9f3d
00000080: 86b6 f8bc 3e29 933d 6010 663d ddbf a5bd
00000090: a587 7f3c aa2a bd3c a48e 8cbc 9910 1ebd
000000a0: 5872 053d b99d b93c b864 f33c d65b a53d
000000b0: d033 d43c 533d 243d e316 073c 0bf4 97bc
000000c0: 650a 873c c844 13bd 6478 63bd a3b0 a4bd
000000d0: bf7a 84bd dfc1 1b3c 51a7 823d 7c51 5e3d
000000e0: a5ad 163b ae09 7dbd 709b 9abd 6733 8c3d
000000f0: 2e89 75bc 639d 523d 9272 d73c 17ec f4bc
00000100: 61a3 7d3b 0fa8 313d be96 07bd 1c84 92bc
00000110: 79e3 26bd 59a9 313d 0d16 48bd 7b64 8abd
00000120: 7701 9dbb 66d2 843c 067b 7ebd 131b 62bd
00000130: 25fc 77bc d0cf 743c f4d1 873d 8bd1 9bbd
00000140: d43b 913d 74f3 653d 18e2 1dbd 577f 9abd
00000150: d6af d83c f470 643d ae6a 103b 71f6 6f3b
00000160: d7c8 f43c bdfb ae3c 5c29 213d 5cf7 b0ba
00000170: 0133 783d b944 c33a eefc eabc bc9b 9bbd
00000180: 0074 653d e096 f23c 1339 0cbd 6de6 413d
00000190: e47d 8abd 2327 0dbd 2fef b33b 1134 92bd
000001a0: 0a6c 493c d1f6 603c c5bd 8c3c 035a d83b
000001b0: 150c 33bd 8aba 54bd b809 8cbd 455c e73b
000001c0: a2c3 cd3c 947a babc 7160 68bd ff20 a0bd
000001d0: 5532 923b 4520 453d e2cd 8bbd c600 213d
000001e0: a0ee 10bd e011 0d3d 21df 533d e6cf 22bd
000001f0: 22c7 05bb 1774 95bd 0263 2dbc eea7 9ebd
00000200: 47a3 d73c 5a38 8abd 713a 3e3d 4a8f d6bc
00000210: 6a75 8a3d 0e83 793d beb1 a13d 7668 8abd
00000220: a45c 9d3d 8407 77bb 77e3 e7bc 65ea 4ebd
00000230: a1d5 863d fe14 f9bc b82e 913d 90ed 823d
00000240: e7dc 35bd 593a 68bd 5521 9fbc fa85 4fbd
00000250: 432d 4f3c b638 f23c 487f c33c 1c8f 99bc
00000260: 68d9 eb3a cf47 093d 2668 963b b9eb 9d3c
00000270: ce1f 9cbd 619d 323d 9104 883c 7d72 073c
00000280: c45e d5bc c5f7 f73c ab65 dabc c7a2 0a3b
00000290: b8e1 99bd d738 1abc c5f4 00bd 9de1 0fbc
000002a0: ffe4 523d 25e2 69bd 6cf1 1a3d 0c78 a13d
000002b0: e956 993b 1fd5 08bc b280 fabc 2c67 d93b
000002c0: 9f89 3e3d 3033 b83b da7f 943d f867 f6bc
000002d0: d225 17bd ad97 7abc fe69 7b3d d615 f33c
000002e0: 2f25 5e3d 2af2 543c 3dbc b83c b9d7 ec3c
000002f0: b3ca 063d 78bf 8c38 0a17 53bd e534 873c
00000300: 6210 a2bd 48ed 61bd 08b1 293b f6cf a1bb
00000310: 4fd8 42bd a847 c9bc 6a6c ccbc c13d 3bbd
00000320: 6908 063c e02f 88bc 36db e43b faf2 123c
00000330: 26b0 913c 12e9 2b3b f713 92bd 2049 87bc
00000340: 3298 33bd aa88 9f3d 784a a13d 5b69 c2bb
00000350: 6ee9 493d d587 7e3d 0e14 3ebb 7f2d 8d3c
00000360: 82f6 82ba 69d0 223d e0d1 813c a8a3 873d
00000370: 056e 043d a31c e83c 86ee e23c 6c8e 213d
00000380: d788 f9bc e07d 87bd a634 2bbd d1a3 8dbd
00000390: 2bc4 01bd 5f70 78bd 32b4 03bd 23c5 293d
000003a0: 34d6 dcbc 8eb9 2c3d 3752 a23b 91b1 93bd
000003b0: b85b 6ebc 3655 493c a34f 783c cb2d 8a3c
000003c0: 2624 a2bd cfe6 573d 3f0a 9a3c 953c 1fbd
000003d0: 2a82 81bd c1fd 95bd b3cf 4dbd 31dd 92bc
000003e0: 543a 63bd 35cd 593d 6409 2c3d 7ba5 9bbc
000003f0: 05df 5fbd 803a 033d 4660 66bd 3d8e 623d

fc.2.bias f4 [4]
-0.0073428927 -0.01914472 0.058470655 0.053344525
00000000: a69c f0bb 63d5 9cbc ed7e 6f3d ca7f 5a3d
