Models/score_56_model_175291.pt (torch, 12127 bytes, 4 tensors)

fc.0.weight f4 [156, 12]
0	0xbc7b8306	-0.015351063
1	0xbc5cf19f	-0.013485341
2	0x3e77c321	0.2419553
3	0x3dc1cee0	0.094632864
4	0x3e130d6d	0.1436059
5	0xbe48dd17	-0.19615589
6	0x3cc331ea	0.023827512
7	0x3e676935	0.22598727
8	0xbcdda5e5	-0.027056644
9	0xbd069d3d	-0.032864798
10	0xbd95ed36	-0.07320635
11	0x3e66a52c	0.22523946
12	0xbe335325	-0.17512186
13	0x3b649c67	0.0034883262
14	0xbe74d328	-0.23908675
15	0x3e768bff	0.24076842
16	0xbe8a22b5	-0.26979604
17	0xbdf8254a	-0.12116487
18	0xbe813251	-0.252337
19	0xbe83bd76	-0.25730485
20	0xbe805bd3	-0.25070056
21	0x3d45a5cf	0.04825383
22	0x3c37a359	0.011208379
23	0xbe448dc0	-0.19194698
24	0xbe729d2c	-0.23692769
25	0x3e6e0ea3	0.23247771
26	0xbbe9405f	-0.0071182693
27	0x3e4ec0d1	0.20190741
28	0x397582db	0.00023413768
29	0xbe6cce92	-0.23125675
30	0x3e016ef8	0.12639987
31	0x3e41b44b	0.18916433
32	0xbc07dfe7	-0.008293129
33	0xbce344c5	-0.027742753
34	0xbe88ab0f	-0.26693007
35	0x3d036b11	0.03208453
36	0xbdc90db7	-0.09817069
37	0x3e1eda45	0.1551295
38	0xbe8e317c	-0.2777213
39	0xbe0c98fe	-0.13730237
40	0x3e3885e0	0.1801982
41	0x3e84d8ea	0.25946742
42	0xbe448402	-0.19190982
43	0x3dc7f765	0.09763984
44	0x3d85195e	0.06498979
45	0x3e8a2893	0.2698408
46	0xbe571f86	-0.21008119
47	0xbe71cedf	-0.23614071
48	0x3e33a1e4	0.17542225
49	0xbe7bcbb1	-0.24589421
50	0xbd876d82	-0.06612684
51	0x3dc065ae	0.09394394
52	0xbb273e2f	-0.0025519242
53	0xbe8fbefb	-0.28075394
54	0xbca9ebf9	-0.020742403
55	0x3d6791da	0.05653558
56	0x3e092722	0.13393834
57	0xbd79af0c	-0.060957953
58	0x3e383808	0.17990124
59	0xbcbb503f	-0.022865413
60	0x3e7f5479	0.24934568
61	0x3e63ad2b	0.22234027
62	0xbe2ffe7a	-0.17186919
63	0xbe51b6e8	-0.2047993
64	0x3e084d9e	0.13310859
65	0xbcbb12b7	-0.022836072
66	0x3dcaeff6	0.0990905
67	0x3e2f506a	0.1712052
68	0xbe41be93	-0.18920355
69	0xbe847759	-0.25872305
70	0xbda79e8c	-0.08184537
71	0x3da84062	0.08215405
72	0x3e888ace	0.266684
73	0x3c3d3f3f	0.011550724
74	0x3dfe5c71	0.124199755
75	0x3cb9ea2e	0.022694673
76	0x3d0dfe28	0.03466621
77	0xbe8e6ebd	-0.27818862
78	0x3e6a5c8d	0.22886868
79	0xbe5d39a3	-0.21604018
80	0xbe6ca363	-0.23109202
81	0x3db0b8f8	0.0862903
82	0xbd900205	-0.07031635
83	0x3cb2ab91	0.021810325
84	0x3e6f9038	0.23394859
85	0x3e1c15d7	0.15242706
86	0x3e80f418	0.2518623
87	0x3e2a60c7	0.1663848
88	0xbe159ef0	-0.14611411
89	0x3bab7443	0.0052323653
90	0xbdd1bd72	-0.10241212
91	0x3d0a25ba	0.033727385
92	0x3e382ab8	0.17985046
93	0x3e80a9e0	0.25129604
94	0xbd214f0f	-0.039382037
95	0xbd850750	-0.064955354
96	0x3e766d29	0.24065079
97	0x3e881d8f	0.2658505
98	0x3e7d2205	0.24720009
99	0xbd82b886	-0.06382851
100	0xbe853053	-0.2601343
101	0x3cf9f5a9	0.030512648
102	0xbd588f75	-0.052871186
103	0x3e7f11d6	0.24909148
104	0x3e54751c	0.20747799
105	0x3e07e4d3	0.13270883
106	0x3c82cc61	0.015966596
107	0xbe8681c6	-0.26270884
108	0x3b71a46b	0.0036871682
109	0x3db8f91a	0.09031887
110	0x3cfaa429	0.030595856
111	0x3d800d83	0.06252577
112	0x3dc149f6	0.09437935
113	0x3df267b6	0.118361875
114	0x3e4ee234	0.20203477
115	0x3d732328	0.0593597
116	0xbe345829	-0.17611755
117	0x3e2d0ef7	0.1690024
118	0xbc756545	-0.014977758
119	0xbe34101c	-0.1758427
120	0xbcc3e8a9	-0.023914652
121	0x3e59a034	0.21252519
122	0x3dfb60e0	0.12274337
123	0x3e7c2064	0.24621731
124	0xbd76e3c4	-0.060275808
125	0x3e8a9473	0.27066383
126	0xbe40813d	-0.187993
127	0x3e0f3cb6	0.13988003
128	0xbe2cd941	-0.16879751
129	0x3e8e8853	0.27838382
130	0x3d3594e0	0.04433143
131	0x3e1cf12d	0.15326376
132	0xbdf9c0f6	-0.121950075
133	0x3cc89cc6	0.024488818
134	0x3e45d2c3	0.1931868
135	0x3b3ebad1	0.002910305
136	0xbd39ea92	-0.04538972
137	0xba480005	-0.00076293974
138	0xbdd1ba9c	-0.10240671
139	0x3d088fa8	0.033340126
140	0xbcf8f6e3	-0.030391162
141	0x3de424a9	0.11139805
142	0x3dae6e99	0.085171886
143	0x3e605a9e	0.21909568
144	0x3e066b1a	0.13126794
145	0x3a7cef08	0.00096486555
146	0xbe945dcb	-0.28977808
147	0x3e5fb77a	0.21847335
148	0x3cb4b0f7	0.02205704
149	0x3dbb8fab	0.09158262
150	0x3e1ac370	0.15113616
151	0xbe880f63	-0.2657424
152	0x3e452f68	0.19256365
153	0xbc8af5fe	-0.016963001
154	0xbe5246d1	-0.20534827
155	0xbe362f55	-0.17791493
156	0x3d8e1b12	0.06938757
157	0x3e8fcfe4	0.28088295
158	0x3e1c5be3	0.15269427
159	0x3d7fc30d	0.062441874
160	0x3dc040bd	0.09387348
161	0xbce9ff26	-0.028564047
162	0xbe0c2278	-0.13685024
163	0xbdc96b9b	-0.09834977
164	0xbe71dad2	-0.2361863
165	0xbddd06bc	-0.107923
166	0x3e09669b	0.13418047
167	0xbe4f102a	-0.2022101
168	0x3e27fb2f	0.16404413
169	0x3e0c805e	0.13720843
170	0x3df6bfe9	0.12048323
171	0x3cf7dcc4	0.030256636
172	0x3e36675c	0.17812866
173	0x3e48708c	0.19574183
174	0xbe856eb2	-0.26061016
175	0x3e1e95b3	0.15486793
176	0xbd7e724d	-0.062120724
177	0x3e03e3ae	0.12879822
178	0x3e0ec411	0.13941981
179	0xbe134b30	-0.1438415
180	0xbd0a6fed	-0.033798147
181	0xbd50b9d2	-0.050958462
182	0x3dc51179	0.09622473
183	0xbde29262	-0.110630766
184	0x3db3ff94	0.08788982
185	0x3e86bc19	0.26315382
186	0xbe813b98	-0.2524078
187	0x3d5fad6b	0.054608744
188	0xbe826ed0	-0.25475168
189	0x3cb9a097	0.022659583
190	0x3e67d675	0.22640403
191	0x3e7b0f56	0.24517569
192	0xbe1a7084	-0.15081984
193	0xbe0a9093	-0.13531713
194	0xbbcae1a0	-0.0061914474
195	0xbe1edbd5	-0.15513547
196	0xbe4339af	-0.19064973
197	0x3e8cb6d2	0.2748323
198	0x3e8c48d0	0.27399302
199	0x3e08ec40	0.13371372
200	0x3dd57602	0.10422899
201	0xbd165f62	-0.036712058
202	0xbe8075a8	-0.25089765
203	0x3d093c5d	0.033504833
204	0x3e687e40	0.2270441
205	0xbe8dea39	-0.2771776
206	0x3e0fddb3	0.14049415
207	0x3de21944	0.11039975
208	0x3e3efe11	0.18651606
209	0xbd1f8194	-0.038941935
210	0x3e381f6d	0.17980738
211	0x3ce12139	0.027481662
212	0x3e85c190	0.2612424
213	0xbb9e3940	-0.004828602
214	0x3e8e3dd6	0.27781552
215	0x3e444b9e	0.1916947
216	0xbc8494e6	-0.016184282
217	0xbe30eec8	-0.17278588
218	0x3d31dc17	0.043422785
219	0x3ce219be	0.027600165
220	0x3e3a5fc0	0.18200588
221	0xbc728dce	-0.014804317
222	0x3e362344	0.1778689
223	0xbe01ac9e	-0.12663504
224	0xbdd4e82a	-0.10395844
225	0xbe5b7470	-0.21431136
226	0x3e0e7da9	0.13915123
227	0x3db48ee2	0.08816315
228	0x3e4755d8	0.1946634
229	0x3e3abfa1	0.18237163
230	0xbd58755b	-0.052846294
231	0x3c0ab507	0.008466012
232	0xbde1263b	-0.1099362
233	0x3db88cbc	0.09011218
234	0x3c258396	0.010102173
235	0xbe5ecee9	-0.21758617
236	0x3e74a3f0	0.23890662
237	0x3bde8b59	0.006791514
238	0x3e58745c	0.21138138
239	0x3dc81dac	0.097712845
240	0xbe90f787	-0.28313848
241	0x3e048189	0.12940039
242	0x3e885ddd	0.26634112
243	0xbc4f496b	-0.012651782
244	0x3d916f28	0.071012795
245	0xbe861e4b	-0.26194987
246	0xbe875b06	-0.26436633
247	0x3c44748a	0.011990676
248	0x3df38e28	0.118923485
249	0x3df7f9a1	0.1210816
250	0xbd55bb84	-0.052180782
251	0xbd279f70	-0.040923536
252	0x3e521086	0.20514116
253	0x3e33455c	0.17506927
254	0x3dbc4895	0.091935314
255	0xbe84e254	-0.25953925

fc.0.bias f4 [156]
0	0xbbd2e9d1	-0.0064365645
1	0xbe04c4ba	-0.1296567
2	0xbe6d4acc	-0.23173064
3	0x3e496e32	0.19670942
4	0x3e5bc4a3	0.2146173
5	0x3e770565	0.24123152
6	0xbe7f5b8d	-0.24937268
7	0x3e863786	0.26214236
8	0x3e531d79	0.20616712
9	0x3e86bfac	0.2631811
10	0xbe911355	-0.28335062
11	0xbe07d1d9	-0.13263644
12	0x3d15fb55	0.036616642
13	0xbd857645	-0.06516699
14	0xbd959192	-0.07303156
15	0xbe825add	-0.25459948
16	0x3be3ffa2	0.006957964
17	0x3e231153	0.15924577
18	0x3d65fcd1	0.056149308
19	0xbc052134	-0.008125592
20	0x3cd3352e	0.025782194
21	0x3e8c2a38	0.2737596
22	0x3d99be96	0.075070545
23	0x3ceb5cab	0.028730711
24	0x3dba6d1a	0.09102841
25	0x3dc2b19e	0.09506534
26	0x3de16222	0.110050455
27	0xbe89612b	-0.26831946
28	0xbcadf55b	-0.021235159
29	0x3e4cb0b8	0.19989288
30	0xbe088b9f	-0.13334511
31	0x3d1f519b	0.038896184
32	0x3e65e873	0.22451954
33	0xbb7b7a1d	-0.0038372346
34	0xbb9b4731	-0.0047387113
35	0xbca66996	-0.02031402
36	0xbe39eb3f	-0.18156146
37	0xbdf47e21	-0.1193812
38	0xbdd6e404	-0.10492709
39	0xbc736958	-0.014856659
40	0x3d77102c	0.060318157
41	0x3d30c9e8	0.043161303
42	0x3d3a0ab5	0.045420367
43	0x3e8d9543	0.2765294
44	0x3e65b690	0.22432923
45	0xbe4a9b24	-0.19785744
46	0x3d3ac6ee	0.04559987
47	0x3d6e21a7	0.058137562
48	0x3e483e45	0.19555004
49	0xbc8a09a1	-0.016850295
50	0x3e19240e	0.1495516
51	0x3c8f1de6	0.017470311
52	0xbe65275b	-0.22378294
53	0xbcb6fc25	-0.022337029
54	0x3e74dbed	0.2391202
55	0xbe828a91	-0.25496343
56	0x3dbecf5d	0.09316895
57	0xbe8aa4b1	-0.27078775
58	0xbc30d984	-0.010794047
59	0xbd8ba8df	-0.06819319
60	0x3a9d82d6	0.0012017142
61	0x3e8cb434	0.27481234
62	0x3d8e6400	0.06952667
63	0xbe5fe140	-0.2186327
64	0xbbb1d8a4	-0.005427437
65	0xbe340a59	-0.17582072
66	0xbde85221	-0.1134379
67	0x3e651432	0.22370985
68	0x3cc1d07c	0.023658983
69	0x3d2f98c6	0.042870305
70	0xbd302d20	-0.043011785
71	0xbe84a62b	-0.25908026
72	0xbe88acaf	-0.26694247
73	0x3d439581	0.04775
74	0xbe2d1355	-0.16901906
75	0xbe6614ca	-0.22468868
76	0xbde0b64a	-0.10972269
77	0xbe25484e	-0.16140863
78	0x3e5bd753	0.21468858
79	0x3e8ba0b5	0.27271047
80	0x3e372747	0.17886077
81	0xbe0b492c	-0.13602132
82	0x3e3d0478	0.18458736
83	0xbe4f4228	-0.2024008
84	0xbcddeba3	-0.0270899
85	0xbe3e51af	-0.18585847
86	0x3e82dd9e	0.25559705
87	0x3e6f4793	0.23367147
88	0xbe8eacc6	-0.2786619
89	0x3e788183	0.24268155
90	0x3d992654	0.07478014
91	0xbe25b051	-0.1618054
92	0x3e60e79b	0.2196335
93	0x3e84e417	0.2595527
94	0x3e838fd4	0.2569567
95	0x3ddb9ed0	0.107236505
96	0x3e8b94b8	0.272619
97	0x3e57f82e	0.21090767
98	0x3e78199b	0.24228518
99	0x3da3f7ef	0.08006274
100	0x3e647780	0.2231121
101	0x3e5d2238	0.21595085
102	0x3e587f46	0.21142301
103	0xbdde9715	-0.1086866
104	0x3e03df2a	0.12878099
105	0xbe8d95e3	-0.27653417
106	0xbd2be26c	-0.04196398
107	0x3e56e7db	0.20986883
108	0xbe0710bc	-0.13189977
109	0xbc92b3e9	-0.017908053
110	0xbe3e8748	-0.18606293
111	0x3e1df6be	0.15426156
112	0x3e42b6ef	0.19015096
113	0x3e924a7b	0.2857245
114	0xbda65755	-0.08122126
115	0x3e5de2db	0.2166857
116	0xbe845bd0	-0.25851297
117	0x3e5cb3c8	0.21552956
118	0xbe44b4de	-0.1920962
119	0xbd2620b7	-0.040558543
120	0xbda98b45	-0.08278517
121	0xbdabc311	-0.08386815
122	0x3e800f8c	0.2501186
123	0x3e89d9f6	0.26924103
124	0x3e38f4a1	0.18062069
125	0x3e91636c	0.28396165
126	0x3e91ba22	0.2846232
127	0x3e3405cf	0.17580341
128	0xbe901031	-0.28137353
129	0x3d143c6d	0.03619044
130	0x3e8fa1ea	0.28053218
131	0x3e1ca976	0.15299019
132	0xbe485c89	-0.1956655
133	0xbd57e5d7	-0.052709427
134	0x3e93ffb7	0.28906032
135	0x3d8aa8ca	0.06770475
136	0x3d99a60c	0.07502374
137	0x3db07519	0.086160846
138	0xbdbe86c9	-0.09303052
139	0x3e6cbf6f	0.23119901
140	0x3e427292	0.18989018
141	0x3b6a0acb	0.0035712
142	0xbdb48df3	-0.08816137
143	0xbe5091f5	-0.20368178
144	0x3e185fe3	0.14880328
145	0x3e6b8ed9	0.23003711
146	0x3cf27969	0.029598908
147	0xbda8f2b9	-0.08249421
148	0x3e2c6f08	0.1683923
149	0x3d19f0ae	0.037583046
150	0x3e8bba10	0.27290392
151	0x3e6e1543	0.23250298
152	0x3e1d351f	0.15352295
153	0x3e1b6b9c	0.15177768
154	0xbe7902c9	-0.24317469
155	0x3d10126b	0.035173815

fc.2.weight f4 [4, 156]
0	0x3c9abc4b	0.018888613
1	0xbd8fe843	-0.07026722
2	0x3d4fbc02	0.050716408
3	0xbd9a0a80	-0.07521534
4	0xbc879e09	-0.01655485
5	0x3d0c5fdb	0.034271102
6	0xbc221372	-0.009892331
7	0x3da39a03	0.0798836
8	0xbc9d0b41	-0.019170405
9	0x3d43c40f	0.047794398
10	0x3d47d6d6	0.048788868
11	0x3d8c4b4e	0.06850301
12	0xbd4c1410	-0.04982382
13	0x3ce0a26f	0.027421204
14	0xbcd80c27	-0.026372982
15	0xbcf7beac	-0.030242287
16	0x3d88fe15	0.06689087
17	0x3c11bdcc	0.008895349
18	0x3d9ff338	0.07810062
19	0xbd45ff3b	-0.04833911
20	0x3c235364	0.009968612
21	0xbc253903	-0.010084393
22	0x3cc7b787	0.024379505
23	0xbd0ee80e	-0.034889273
24	0xbd9890d7	-0.07449501
25	0xbd882571	-0.066477664
26	0x3d4c527f	0.049883362
27	0x3d0402fe	0.032229416
28	0x3d0499e8	0.03237334
29	0xbd6256f4	-0.055258706
30	0x3d494ecc	0.049147412
31	0x3d9f0d1d	0.07766173
32	0xbcfeace1	-0.031088294
33	0x3d91a281	0.07111073
34	0x3d646a4c	0.055765435
35	0xbda8012f	-0.08203351
36	0x3c7228ae	0.014780207
37	0x3cc19216	0.02362923
38	0xbc8a60af	-0.016891805
39	0xbd25a1a2	-0.04043735
40	0x3d06508c	0.03279166
41	0x3cb8a91c	0.022541575
42	0x3cfc5d29	0.030806141
43	0x3da48734	0.080336004
44	0x3cde7699	0.027156161
45	0x3d2535b7	0.04033443
46	0x3c15da81	0.009146334
47	0xbc9426b5	-0.018084863
48	0x3c7d25dd	0.015450922
49	0xbd14cfb8	-0.03633091
50	0xbd6853fc	-0.05672072
51	0xbda1c679	-0.07899184
52	0xbd837362	-0.06418492
53	0x3c2de79e	0.010614304
54	0x3d83b090	0.06430161
55	0x3d60b2af	0.054857906
56	0x3a8af78a	0.0010602337
57	0xbd7f1bf1	-0.062282506
58	0xbd9bb4f2	-0.07602872
59	0x3d8db156	0.0691859
60	0xbc795b75	-0.015219559
61	0x3d505aee	0.050867967
62	0x3cd6e1e1	0.026230754
63	0xbcff21d2	-0.031144056
64	0x3b91c7c6	0.0044488637
65	0x3d360691	0.044439856
66	0xbd08ebc2	-0.03342796
67	0xbc852caf	-0.016256658
68	0xbd24de0a	-0.040250815
69	0x3d2f7d7c	0.04284428
70	0xbd45f741	-0.048331503
71	0xbd87e47c	-0.06635377
72	0xbb40cd3e	-0.002941921
73	0x3c7b6433	0.015343714
74	0xbd7a4c02	-0.061107643
75	0xbd5f7528	-0.05455509
76	0xbc72fb32	-0.014830397
77	0x3c769bc0	0.015051782
78	0x3d8552e3	0.0650995
79	0xbd9bc716	-0.07606332
80	0x3d9320d8	0.07183999
81	0x3d63615d	0.055512775
82	0xbd1f2dca	-0.038862027
83	0xbd9c0d9c	-0.07619783
84	0x3cd9b4d7	0.026575489
85	0x3d64effc	0.05589293
86	0x3b0753f7	0.0020649412
87	0x3b9bb94a	0.004752313
88	0x3cf30b9b	0.02966862
89	0x3caf2d01	0.021383764
90	0x3d24ffc4	0.04028298
91	0xba4091fe	-0.0007345973
92	0x3d772cb5	0.06034537
93	0x3aca25a2	0.0015422592
94	0xbce92ae7	-0.02846284
95	0xbd9c076c	-0.07618603
96	0x3d679a35	0.056543548
97	0x3cf4f0f2	0.029900048
98	0xbd0fc9a4	-0.03510441
99	0x3d43d1b0	0.047807395
100	0xbd8e23ec	-0.06940445
101	0xbd093327	-0.03349605
102	0x3bb61fe7	0.0055580023
103	0xbd921929	-0.07133705
104	0x3c594f76	0.013263574
105	0x3c716eb9	0.014735871
106	0x3c901eed	0.017592872
107	0x3beeb9fd	0.007285355
108	0xbd33edd1	-0.04392797
109	0xbd549c3f	-0.05190682
110	0xbd89aff9	-0.06723017
111	0x3bc1c1f6	0.0059130145
112	0x3cd111b3	0.025521135
113	0xbcb6ffed	-0.022338832
114	0xbd6429c4	-0.055703893
115	0xbda16b1c	-0.078817576
116	0x3b3346e1	0.002735548
117	0x3d41b407	0.047290828
118	0xbd8bfb19	-0.068350025
119	0x3d204328	0.039126545
120	0xbd14dc53	-0.03634293
121	0x3d08af2f	0.033370193
122	0x3d52aa33	0.051431846
123	0xbd217d50	-0.039426148
124	0xbab4d9d4	-0.0013797828
125	0xbd9702d6	-0.07373588
126	0xbc362fbc	-0.011119779
127	0xbd9ead21	-0.077478655
128	0x3cccf4b2	0.025019024
129	0xbd891c83	-0.06694891
130	0x3d3cc093	0.04608209
131	0xbcd33b4f	-0.025785116
132	0x3d8a0013	0.067382954
133	0x3d76f482	0.060291775
134	0x3da1cf04	0.07900813
135	0xbd8d4621	-0.06898142
136	0x3d9c6b35	0.076376356
137	0xbb9dcbb7	-0.0048155445
138	0xbce2a3b9	-0.02766596
139	0xbd4a19c9	-0.049340997
140	0x3d8782c2	0.06616737
141	0xbd027796	-0.031852327
142	0x3d8f80a7	0.0700696
143	0x3d80ad16	0.062830135
144	0xbd35a5e7	-0.04434767
145	0xbd61dde3	-0.05514325
146	0xbc97cb7d	-0.018529648
147	0xbd4e9712	-0.05043704
148	0x3c4de6db	0.012567247
149	0x3cf654f0	0.030069798
150	0x3cc04bb8	0.023473606
151	0xbc9921a0	-0.018692791
152	0xb95fd27d	-0.0002134535
153	0x3d0c526d	0.034258295
154	0x3b84bdef	0.004050962
155	0x3ca23b7d	0.019803757
156	0xbd976177	-0.07391637
157	0x3d35db5a	0.044398643
158	0x3c872f9b	0.016502192
159	0x3c08d229	0.008350887
160	0xbcd3f44b	-0.025873324
161	0x3cf7f05e	0.030265983
162	0xbcda5e07	-0.026656164
163	0x3ae9e764	0.0017845449
164	0xbd9ae91d	-0.07563994
165	0xbc23924e	-0.009983612
166	0xbceef325	-0.029168675
167	0xbbf385a3	-0.007431702
168	0x3d52c297	0.051455107
169	0xbd685b88	-0.056727916
170	0x3d19c1f9	0.037538502
171	0x3da1d65b	0.07902213
172	0x3b8ae955	0.004239241
173	0xbc1523ca	-0.009102771
174	0xbcf3dc1c	-0.029768042
175	0x3bbc3a71	0.0057442714
176	0x3d3b1e0f	0.045682963
177	0x3bbbe620	0.00573422
178	0x3d958634	0.07300988
179	0xbcf6c999	-0.030125426
180	0xbd156e16	-0.03648194
181	0xbc624161	-0.013809533
182	0x3d7e58c4	0.062096372
183	0x3ce70f6e	0.0282056
184	0x3d5eb971	0.05437607
185	0x3c49e508	0.012322672
186	0x3cbc43bb	0.022981515
187	0x3cebd548	0.028788224
188	0x3d08d4dd	0.033406127
189	0x3ac82f5a	0.0015272901
190	0xbd517fe1	-0.051147345
191	0x3c8ed211	0.017434152
192	0xbda1e01c	-0.079040736
193	0xbd61746b	-0.055042665
194	0x3aff3b19	0.0019472569
195	0xbbb53484	-0.005529942
196	0xbd42120d	-0.047380496
197	0xbcc24828	-0.023716047
198	0xbcc5efbc	-0.024162166
199	0xbd3e5dab	-0.046476047
200	0x3c07316d	0.00825153
201	0xbc8497c4	-0.016185649
202	0x3be7b681	0.0070713167
203	0x3bf4f46a	0.0074754255
204	0x3c91ddea	0.017806012
205	0x3b5804da	0.0032961876
206	0xbd9184d0	-0.0710541
207	0xbc831705	-0.016002188
208	0xbd3178b4	-0.043328002
209	0x3d9f6110	0.07782185
210	0x3da281f8	0.07934946
211	0xbb9eba8a	-0.0048440145
212	0x3d4bd8c9	0.04976729
213	0x3d802b73	0.06258287
214	0xbb27d4a9	-0.0025608933
215	0x3c7ca282	0.015419604
216	0xb9e35881	-0.00043362755
217	0x3d24007b	0.04003952
218	0x3c86b188	0.016442075
219	0x3d850d6f	0.06496703
220	0x3d0270ea	0.031845964
221	0x3ce29ef6	0.02766369
222	0x3cd955a5	0.026530096
223	0x3d20f614	0.03929718
224	0xbcf93f91	-0.030425819
225	0xbd86fad8	-0.065908134
226	0xbd2b4def	-0.04182237
227	0xbd8cc17d	-0.068728425
228	0xbd0423b0	-0.032260597
229	0xbd7912b8	-0.060808867
230	0xbd09415d	-0.0335096
231	0x3d23b687	0.039968994
232	0xbce4673d	-0.02788126
233	0x3d26c3f1	0.040714208
234	0x3b972bba	0.004613367
235	0xbd958446	-0.0730062
236	0xbc588e6b	-0.013217549
237	0x3c3891d3	0.011265236
238	0x3c6668bb	0.014063056
239	0x3c8168b7	0.015797002
240	0xbd9eed6d	-0.07760129
241	0x3d60384c	0.05474119
242	0x3c9ccba5	0.019140074
243	0xbd25c350	-0.040469468
244	0xbd822307	-0.06354337
245	0xbd95ec69	-0.07320482
246	0xbd4e77f7	-0.050407376
247	0xbc899852	-0.016796265
248	0xbd5dd89c	-0.054161653
249	0x3d561453	0.052265476
250	0x3d2a32f6	0.041552506
251	0xbc983968	-0.018582061
252	0xbd5dbf41	-0.054137472
253	0x3d01a1d6	0.03164848
254	0xbd699cc2	-0.05703426
255	0x3d63e014	0.05563362

fc.2.bias f4 [4]
0	0xbbe9f8e9	-0.007140268
1	0xbc9a0df2	-0.018805478
2	0x3d6f86d3	0.058478188
3	0x3d5b72ab	0.053576153
