Models/score_44_model_534012.pt (torch, 9695 bytes, 4 tensors)

fc.0.weight f4 [120, 12]
00000000: 12e4 893e fca7 da3d 7024 433d 1d00 1bbe
00000010: 0068 933c c350 1bbe 1c09 8c3d b8f0 2a3d
00000020: e41b 9b3d 77f9 39be 80b7 e63d 3803 07be
00000030: a022 0ebc 0a9c 56be 4537 663e fe3c 913d
00000040: e529 79be ecf7 cebd 5a66 fd3d 3fcf 6d3e
00000050: e062 4ebc f24e 3ebe 4722 2ebb 7cf3 d2bd
00000060: 9b04 0dbe 3873 b0bd d068 74bd 346e 84bd
00000070: c560 8abe 0b66 1bbe a922 293e 981d 58bd
00000080: ceeb 8d3e c84e d43d 37cf 863e 1b38 70be
00000090: d290 06be b785 6fbe 938c 29be 98fe 39bd
000000a0: aa67 1e3e f9a7 23be 08bc 853d f5c5 143e
000000b0: 7acc 96bd dd45 10be 947c 853e 8004 dfbb
000000c0: 494c 33be 3086 9ebd 7037 d53d 38bf 46be
000000d0: 2ac1 59be ea88 ac3d 2e10 7b3c bad9 f5bd
000000e0: 20f8 7bbe 9050 2c3d f864 69be d08b 42be
000000f0: 0342 883e d610 443e 20c6 8c3e d048 dabc
00000100: 1868 873e e622 fabd 24db 183e 70f5 77be
00000110: 50f4 64bd b090 a03d a754 11be 40cb 5b3d
00000120: 6012 4f3c 7eea c6bd 02eb 933d 0291 3f3e
00000130: 81c9 663e ee6d 0b3e a130 8d3e d833 743e
00000140: a815 02be 213d 923e 8339 70be 8d58 443e
00000150: 925a c3bd 43fd 2b3e 26dc 8c3e 2996 f4bc
00000160: 065f 813e 1bf1 44be 1098 b63c 1f7a 4cbe
00000170: 80e6 7dbb 0384 683e f8b9 b3bd 2ccd 943d
00000180: 706d b9bd f04e 82bc 40d3 4abd 85db 863e
00000190: 9e5a ad3d e5e8 9a3c 0f16 6ebe 6a32 57be
000001a0: 2363 7ebe a4c8 32be 0e92 e13d 74ac 06be
000001b0: c832 863e 4377 5abe 6539 713e 743d 823e
000001c0: 1f45 743e 70a9 473e b439 7f3d 0a81 b93d
000001d0: 4ae4 023e 47ad 7bbb c8e0 fd3d f834 91bd
000001e0: 3a8d 6ebe 802d 053b de88 6e3e a844 12bd
000001f0: 3c61 213d 1736 ac3c 2084 76bc 0cb4 41be
00000200: fc89 293e 3e6e 0dbe 52a2 dabd 4041 8a3e
00000210: f06d ff3d 3119 89be b36e 81be 40fb f03d
00000220: 2944 8cbe a6ca 8fbe 9ea6 e83d d003 0fbe
00000230: 8621 3d3e 12b7 27be aef4 14be 9c9c 69bd
00000240: b658 303e cd51 853e 0e79 883e 2281 ed3d
00000250: d870 633d bde8 3a3e b94b e6bc 13be 4e3e
00000260: 2b0c 7abe 097a 853e 207d 0d3c fc52 bb3d
00000270: ca1f e43d f081 413e fe68 2bbe 47da 72be
00000280: 3819 2fbd aa58 58be a202 95bd 3126 003e
00000290: 1ede b1bd 5016 863c 2870 0e3e 8ea2 b43d
000002a0: 3972 f7bc c516 303e 2068 40bd 9e39 043e
000002b0: 9418 90be e02d b4bc 96cb f3bd 58bf 083e
000002c0: 004a 71bc 0f47 353e 53b8 693e 828a 7abe
000002d0: 00ac 2d3c c84b 1d3e 4074 8c3d 923b 243e
000002e0: 0424 3d3e 99bd 603e b6a2 13be 7c26 0a3e
000002f0: 495a 7d3e 278d cf3c e083 1d3e dc98 06be
00000300: 80bd 7fbd 603b 503c 23c1 42be fc26 3f3e
00000310: 9088 d4bc 9929 01be 98ee 4ebd a7dc d83c
00000320: 400f cabc 6810 89bd 1ebd 17be 0020 673c
00000330: f5a0 533e 9261 893d add2 803e 0ec1 82bd
00000340: d0fa 1ebe 9585 05be 7c0e 7bbd 1203 c7bd
00000350: 22ff 6a3e afe5 11be 1c1a f4bd b82d 14be
00000360: 6efc e53d ab11 7dbe caee 193e 7fe0 68be
00000370: 9ea4 36be ec73 523d 50cf 4b3e 58fc 7e3e
00000380: 474d 7c3e 65e7 1cbe 98ac 95bd c228 df3d
00000390: a74b 3a3e eb7f 69be 14a0 a1bd 46d8 5ebe
000003a0: 64ed 5b3d ec1a 30be 5bdf 723e b8bd 4a3e
000003b0: a72f bb3c e74c 1ebe 1ac9 193e f2ac 90bd
000003c0: 00a3 b9bd 1116 21be b04c de3d 4c1b c6bd
000003d0: 35ee 763e 90ed ca3d bcaa b3bd cbe7 6abe
000003e0: 50ad efbc 434b 0f3e 3022 81be 82d9 84be
000003f0: b305 233e f0db 453d 4711 d93c 5718 57be
0.26931816 0.10676572 0.04764217 -0.15136762 0.017993927 -0.15167527 0.06837675 0.041733474
0.07573679 -0.1816157 0.112654686 -0.13184822 -0.008675247 -0.20957962 0.22482021 0.070917115
-0.24332388 -0.10105881 0.12373038 0.2322359 -0.012596816 -0.18584803 -0.0026570724 -0.10300347
-0.13771288 -0.08615726 -0.05967027 -0.06466332 -0.27026954 -0.15175645 0.16517128 -0.052762598
0.27718967 0.10366589 0.26329967 -0.23458903 -0.13141182 -0.23390852 -0.16557531 -0.045408815
0.15469232 -0.15982045 0.06530005 0.1452864 -0.073632196 -0.1408915 0.26071608 -0.0068059564
-0.17509569 -0.07740438 0.104109645 -0.19408882 -0.21265092 0.08424552 0.015323682 -0.12004419
-0.24606371 0.042069018 -0.22792423 -0.18998647 0.26612863 0.19147047 0.27494907 -0.026646048
0.26446605 -0.122136876 0.14927346 -0.2421472 -0.055897057 0.07840097 -0.14192449 0.05366063
0.012638658 -0.097126946 0.072225586 0.1870766 0.22537805 0.13616154 0.27576163 0.23847902
-0.12703574 0.28562263 -0.23459439 0.19174404 -0.09538759 0.1679583 0.2751171 -0.029856758
0.2526781 -0.192326 0.022289306 -0.1996846 -0.0038742125 0.22706608 -0.08775705 0.07265696
-0.09054077 -0.015906781 -0.04951787 0.26339355 0.084645495 0.01890988 -0.23250602 -0.21015325
-0.24842505 -0.17459351 0.11014186 -0.13151723 0.26210618 -0.21334557 0.2355705 0.2543751
0.23854493 0.19498229 0.06231089 0.090578154 0.12782398 -0.0038402842 0.12396389 -0.07090181
-0.23296061 0.002032131 0.23294398 -0.035710007 0.03939937 0.021021886 -0.0150461495 -0.18916339
0.16556543 -0.13811585 -0.106754914 0.27002907 0.12472141 -0.26777032 -0.2527977 0.11766672
-0.27395752 -0.28084296 0.11359905 -0.13966298 0.1846982 -0.1637843 -0.14546463 -0.05703412
0.1722134 0.26038972 0.26654857 0.11596896 0.055527538 0.18252845 -0.02811228 0.20189695
-0.24418704 0.26069668 0.008635789 0.091466874 0.11138876 0.18897223 -0.1673927 -0.23716079
-0.04274866 -0.21127573 -0.07275893 0.12514569 -0.086849436 0.016368061 0.13909972 0.08820067
-0.030205833 0.17196186 -0.0469743 0.12912604 -0.28143752 -0.021994531 -0.11904065 0.13354242
-0.014727116 0.17702888 0.2282422 -0.24466899 0.01060009 0.1536094 0.068581104 0.1603835
0.1847077 0.21947326 -0.14417538 0.13491243 0.24741472 0.025335861 0.15382338 -0.13144249
-0.06243658 0.012709469 -0.19018988 0.18667215 -0.025944024 -0.12613524 -0.05052051 0.026472403
-0.024665475 -0.06692582 -0.14818236 0.0141067505 0.20666869 0.06708063 0.25160733 -0.063844785
-0.15525365 -0.13039239 -0.06129311 -0.097173825 0.22948888 -0.14247774 -0.119190425 -0.14470565
0.11229788 -0.24713771 0.15032497 -0.22741888 -0.17836234 0.051380083 0.19903302 0.24900949
0.24638854 -0.15322645 -0.0730831 0.10896446 0.18192922 -0.22802703 -0.078918606 -0.2176219
0.05369319 -0.1719777 0.23718016 0.19798934 0.02284987 -0.15459023 0.1501812 -0.07064237
-0.09064293 -0.15731074 0.10854471 -0.09673175 0.24114306 0.09908593 -0.087727994 -0.22939985
-0.029257447 0.13993554 -0.25221395 -0.25947195 0.15920143 0.048305452 0.026497496 -0.21005379

fc.0.bias f4 [120]
00000000: c218 ef3d b576 423e d89a 59be d8a3 0a3e
00000010: 0cb7 40bd 6a24 a63d 1c77 d9bd e88b 3f3e
00000020: ed66 203e 6ec8 69be 14c7 b2bd b512 4fbe
00000030: 01b5 90be ecd8 7fbe 7081 b0bd 7fae 3ebe
00000040: a80e 68be eb99 82be a901 cebc 6890 073e
00000050: d248 9dbd 3759 67be 0050 4639 ccc6 053d
00000060: 60a0 133c 0eba 403e 49fa bdbc 9926 81be
00000070: b09a 433d 9f72 5dbe 074d 8c3c 609e 5ebe
00000080: 6095 353c 9b29 7abe d714 89be 1c99 413e
00000090: 8dd9 83be 9019 923d aafb 933e e0b0 4bbd
000000a0: 7c93 333d e4ad f53d acb3 e9bd 2686 1abe
000000b0: 444f a63d 50f1 103d 46df e6bd 34b8 4abd
000000c0: b88a 613d d3fe 8cbe 0780 6ebe 2639 7dbe
000000d0: f4b7 253d cf9c 363e 2d21 88be 2e61 013e
000000e0: 068f 0cbe 4cf5 4dbe e7a1 c73c c21a e1bd
000000f0: 5a59 14be 7632 dabd fcfd cbbd 7355 433e
00000100: 488f bfbd a93a 4a3e 2299 ebbc a461 95bd
00000110: ac1a 4d3d ded9 fc3c ca28 70be 0d5a 6e3e
00000120: bc9b 663d 945c 853d 51ec 603e 8f23 93be
00000130: a275 323e 3a0a 08be b2c1 633e a64a f73d
00000140: 38a0 bc3d 3828 e7bd 2014 623e 0397 533e
00000150: e00c 3d3c 4458 9abd 42c1 50be 3e57 a43d
00000160: 78a7 dd3d 0f20 083e 6fc6 233e fa24 873d
00000170: e0ca de3d e954 64be 71fc 7f3e fde8 173e
00000180: c22e 93be 2ee1 863d 7eed c93d 6e02 533e
00000190: 002a 08be 6fd2 46be 866f 26be 86f9 b43d
000001a0: ccf8 7ebe 8542 06be ee64 cabd c923 7b3e
000001b0: 1fa8 7b3e 7669 be3d dce7 473d 99db d2bc
000001c0: 1018 8ebd 74bf bbbd ab8f 023e e8f0 90be
000001d0: 4ba8 533e 220e 07be c9b9 69be 9ee2 b4bd
0.11674644 0.18990596 -0.21250474 0.13539064 -0.047049567 0.08112414 -0.106184214 0.18705714
0.15664263 -0.22830364 -0.087293774 -0.2022198 -0.28263095 -0.24985093 -0.08618438 -0.18621252
-0.22661841 -0.25508055 -0.025147276 0.1323868 -0.07679905 -0.22592627 0.00018912554 0.03266029
0.009010404 0.18820974 -0.023190634 -0.2522476 0.047754943 -0.21625756 0.017126573 -0.21740103
0.011082977 -0.24429934 -0.26773712 0.18906063 -0.25751916 0.07133782 0.28902942 -0.049729228
0.043841824 0.11996058 -0.11411223 -0.15090236 0.081205875 0.035386384 -0.11273055 -0.049492076
0.055063933 -0.27538165 -0.23291026 -0.24728832 0.040458634 0.17833255 -0.2658781 0.12634727
-0.13726434 -0.20113105 0.024369193 -0.10991432 -0.1448721 -0.10654156 -0.09960553 0.19075565
-0.093535006 0.1974894 -0.028759543 -0.07294014 0.050074264 0.030865606 -0.2345306 0.23276539
0.056300864 0.065117985 0.21965148 -0.28738067 0.17427686 -0.13285151 0.22241858 0.12074785
0.09210247 -0.11286968 0.2207799 0.20663075 0.011538714 -0.075363666 -0.20386222 0.080244526
0.10822958 0.1329348 0.15993665 0.065988496 0.10878539 -0.22298016 0.24998643 0.14834972
-0.2874661 0.06585918 0.09859751 0.20606396 -0.13297272 -0.19416212 -0.1625348 0.08836655
-0.24899596 -0.13111313 -0.09882532 0.2452537 0.24575852 0.09297459 0.048805103 -0.025739478
-0.06938183 -0.09167376 0.12750117 -0.28308797 0.20669667 -0.13188985 -0.22824778 -0.08832286

fc.2.weight f4 [4, 120]
00000000: 507d 943d 13ae 80bd e860 6d3c 9c3d ae3c
00000010: a866 123c 9b48 d63c 2789 11bd 605d 363b
00000020: e025 483d 5be9 b7bd 08af 4dbc 6281 b03d
00000030: e1ac 12bd f8e5 b33d 207f 713c dc7f 2a3d
00000040: 6847 76bd ba46 ab3d 2b37 d33c 80bc 4b3c
00000050: 0806 96bd 5519 90bd 5742 a9bd 0009 aabc
00000060: c05a f5bb 8044 57bc 39b8 97bd cbfd 8bbd
00000070: 520e b0bd 4a09 3fbd 6b8a 82bd 44db aabd
00000080: 9a41 963d f0c5 4e3d b8b6 8ebc 3a32 913d
00000090: 46df b63d bb37 913c b08b 153d c43e aa3c
000000a0: 8073 1d3d a043 563c 2b07 55bd 9063 ab3d
000000b0: 0004 47bc d8c0 a5bc 30c4 9fbd 20cc df3b
000000c0: 1196 8cbc 20cd 79bc e6b2 913d c679 ae3d
000000d0: 80ba 3a3b c34a 9cbd 7b28 64bd 9082 423c
000000e0: f8cc 733d 9186 a5bd 74eb dbbb b57a 99bd
000000f0: 6a47 40bd c085 e63a 1202 86bd 1a74 993d
00000100: 2828 783c 9e5e 31bd 2866 6a3d 60ce 573d
00000110: fca6 853d c600 95bd 2ac9 a8bd 3076 6a3d
00000120: 6cf0 1d3d 67d2 f63c 348e 4fbd 8894 713d
00000130: 5c9c b23d 6dad a2bd a883 7a3d 00d2 a3b9
00000140: 3e2f 72bd 57a9 cf3c 609e 353c d4fe fe3c
00000150: 7859 9c3d 4385 27bd 0080 93b8 2c73 59bd
00000160: 1c2d b73c 906a 5a3d 38c9 df3c baf1 9a3d
00000170: 84c5 983d ecec 903b 20c5 b53b 5f8b 43bd
00000180: 2460 17bd 2c45 3dbd 6470 9d3d 884e a7bc
00000190: 444a 99bc a24a 863d 5377 0dbd 00fa 303b
000001a0: 5058 703c 9821 b2bd e476 553d 688f a5bd
000001b0: 7fc1 97bd 4c36 d9bc e0fc 5ebb fae0 82bd
000001c0: 3a42 a3bd 8414 803d 5891 90bd e841 913d
000001d0: 8010 a33b 0de9 85bd a3cb 1bbd b843 333c
000001e0: 881f 4bbd 4481 983d 07a5 a4bd 4016 853b
000001f0: 6ef7 723c 0eb2 b9bd 1264 5cbd 0088 4fbd
00000200: 8ca8 fd3c 5e9f 043d b074 8f3c 3021 87bd
00000210: c0eb d0ba 8cfd 9c3d d8cc 57bc 2099 593c
00000220: 7462 193d 0cfa 4abd 3248 3bbd 8873 b23d
00000230: 80c0 82bb 87ac af3c ac54 7d3d 349c 003d
00000240: c2d0 40bc 64f5 50bd 70e3 ee3b 2834 7f3d
00000250: e27c 94bd fda3 71bd f0c5 f43b b6ee 6fbd
00000260: 3bd5 4bbd 3066 3ebc d037 653d 003f eabc
00000270: f0a7 75bc 2841 96bd 1aeb 61bc f8cd 3c3d
00000280: ba6a b43d 801b 45bd 70d8 8dbd cec1 813d
00000290: 6087 b03d 5c68 72bd 5b29 b0bd 4c2a 6c3d
000002a0: 80c8 0d3a cded 81bd 1b89 f53c b8fc 443d
000002b0: 09de 8fbd b01e a6bc c814 5d3d c8ae 913d
000002c0: 947f 323d 8dd9 e9bc 10c3 a83b cb1d bebc
000002d0: 8cfc e5bc 3e6b 5bbd 9eff e73c 4c3f a6bd
000002e0: 1069 2e3d f8be 363d 1ddb 4ebd aa4b 1dbd
000002f0: f400 09bd 9666 3fbd 2074 9d3d 5b16 fb3c
00000300: 6499 e5bc 24c9 113d c815 a93d cc2a 84bd
00000310: 806d c63b 6ff7 efbc 8257 9fbd ac93 863d
00000320: 78ad 643d 44c6 363d f8e1 0fbc 804c 303b
00000330: c08a a33d a886 8b3d 749a 773d b4cd 02bd
00000340: 0179 c3bc c043 133b 343c 2b3d 1083 96bd
00000350: 6273 a93d 68bb 263d 17ab 68bd 0049 fa39
00000360: 2c34 533d 10f5 4d3c 43fe 8bbd 8e61 0bbd
00000370: 8fc9 89bd 303f c8bb 3057 a73d 3839 393c
00000380: 6203 b1bd 181b 913d e839 eabc 3262 4fbc
00000390: 88f1 98bd af3b e53c 46e5 b1bd 4044 e33b
000003a0: c6b5 46bd f08e 883c 8061 9bba 2c78 a43d
000003b0: 8078 b33c d394 f03c c04f 8bbb 0c28 413d
000003c0: b796 85bd 1a12 9f3d 8ae1 6cbd 8875 15bc
000003d0: 204d 09bc c0f8 463c 60ef 69bb 0c73 523d
000003e0: 66e4 b83d 7ae0 e93c 50bd e23c 8117 54bd
000003f0: 00f1 d43c cece 913d e2d7 acbd 8937 99bd
0.07250464 -0.06283202 0.014488436 0.021269612 0.008935608 0.026157668 -0.03553119 0.0027826652
0.048864245 -0.08980056 -0.012553938 0.08618428 -0.0358094 0.087840974 0.014739782 0.041625842
-0.060126692 0.083630994 0.025783142 0.012435079 -0.07325369 -0.07036082 -0.082646064 -0.020756245
-0.007487625 -0.01313889 -0.074081846 -0.068355165 -0.085964814 -0.046639718 -0.063740574 -0.08342603
0.07336731 0.050481737 -0.017421111 0.07089658 0.08929305 0.01772677 0.03651017 0.020781882
0.038440228 0.0130776465 -0.05200879 0.083685994 -0.01214695 -0.020233557 -0.07801092 0.0068297535
-0.017161401 -0.0152466595 0.071142 0.0851932 0.002849251 -0.07631447 -0.055702668 0.011871949
0.059521645 -0.08082307 -0.006711418 -0.07494108 -0.046943106 0.0017587468 -0.06543364 0.07492848
0.015146293 -0.043303125 0.05722633 0.05268705 0.0652599 -0.07275538 -0.08241494 0.05724162
0.038559362 0.030129625 -0.050672725 0.05897954 0.087212294 -0.079432346 0.061160713 -0.00031246245
-0.059127085 0.025349302 0.011085123 0.03112737 0.07634252 -0.040898573 -7.033348e-05 -0.053088352
0.022360377 0.053324282 0.027317628 0.07565637 0.07459548 0.0044227745 0.005547181 -0.047740337
-0.03695692 -0.046208546 0.076874524 -0.020423189 -0.01871217 0.06557204 -0.034537625 0.002700448
0.014669493 -0.08697814 0.052115336 -0.08083993 -0.07409953 -0.026515149 -0.0034025237 -0.06390567
-0.07971616 0.06253913 -0.07058972 0.07092649 0.004976332 -0.065385915 -0.038036 0.010941438
-0.049590617 0.074465305 -0.08039289 0.0040614903 0.0148295 -0.09067164 -0.053806372 -0.05066681
0.030964158 0.032378547 0.017511696 -0.06598127 -0.00159394 0.07665548 -0.013171397 0.013281137
0.037447408 -0.04955487 -0.045723148 0.08713442 -0.003990233 0.021444572 0.061848328 0.031398967
-0.011768522 -0.051015273 0.0072902963 0.0623056 -0.07250382 -0.058994282 0.007469885 -0.058577262
-0.0497639 -0.011621043 0.05596143 -0.028594494 -0.014993653 -0.07336646 -0.013788963 0.046094865
0.08809419 -0.04812193 -0.06926048 0.063357934 0.08619571 -0.059181556 -0.08601638 0.057657525
0.00054086 -0.06344185 0.029972604 0.048092574 -0.07024772 -0.020278305 0.053974897 0.07113415
0.0435787 -0.02854612 0.0051502064 -0.023207566 -0.028074525 -0.05356907 0.02832013 -0.08117542
0.042580664 0.044615716 -0.05050193 -0.038402237 -0.033448175 -0.046728693 0.07688165 0.030650308
-0.028027244 0.035592213 0.082561076 -0.06453475 0.006055534 -0.02929279 -0.07780363 0.06571135
0.055829495 0.044622675 -0.0087819025 0.0026901066 0.07985449 0.06812793 0.060450032 -0.031934455
-0.02386141 0.0022470802 0.04180546 -0.07349217 0.08273961 0.04070607 -0.05680379 0.00047738105
0.051563427 0.0125706345 -0.06835606 -0.034028582 -0.067278974 -0.006111048 0.081709266 0.011305146
-0.08643223 0.07085246 -0.028592065 -0.012657689 -0.074679434 0.02798256 -0.086863086 0.0069356263
-0.048513196 0.01666972 -0.0011854619 0.080307335 0.021908045 0.02936784 -0.0042514503 0.047157332
-0.06522887 0.077671245 -0.05783228 -0.00912226 -0.008380204 0.012144268 -0.0035695657 0.05137925
0.090279385 0.028549422 0.027678162 -0.051780228 0.025993824 0.07119523 -0.08439614 -0.074812956

fc.2.bias f4 [4]
00000000: a040 e93b 9ce7 1d3d 9ce0 3cbd 202e 8ebd
0.0071182996 0.038550958 -0.04611264 -0.069423914
