Models/score_40_model_460926.pt (torch, 9695 bytes, 4 tensors)

fc.0.weight f4 [120, 12]
000000 48 fe 89 3e d8 10 db 3d 00 81 41 3d 8b 34 1b be
       0.26951814 0.10696572 0.047242165 -0.15156762
000010 6e 0b 95 3c 31 85 1b be 1c 09 8c 3d 00 1f 2a 3d
       0.018193927 -0.15187527 0.06837675 0.04153347
000020 08 b3 9a 3d ae 13 3a be 12 83 e6 3d 6f 1d 07 be
       0.07553679 -0.1817157 0.112554684 -0.13194822
000030 a0 22 0e bc 78 d0 56 be 45 37 66 3e 90 08 91 3d
       -0.008675247 -0.20977962 0.22482021 0.07081711
000040 e5 29 79 be 5a 2c cf bd ec 31 fd 3d d1 9a 6d 3e
       -0.24332388 -0.10115881 0.123630375 0.23203589
000050 e0 62 4e bc 29 69 3e be 00 b0 34 bb 0e bf d2 bd
       -0.012596816 -0.18594803 -0.0027570724 -0.10290347
000060 e5 a1 0d be cc ad b1 bd d0 68 74 bd 34 6e 84 bd
       -0.13831289 -0.08675727 -0.05967027 -0.06466332
000070 16 88 8a be b0 b4 1b be 72 08 29 3e bc b4 57 bd
       -0.2705695 -0.15205646 0.16507128 -0.052662596
000080 98 d1 8d 3e 80 20 d5 3d b0 8d 86 3e 52 52 70 be
       0.2769897 0.104065895 0.26279974 -0.23468903
000090 d2 90 06 be 01 23 70 be 93 8c 29 be 2c 39 3b bd
       -0.13141182 -0.23450853 -0.16557531 -0.04570882
0000a0 3c 33 1e 3e 9e f6 23 be 9a 87 85 3d 87 91 14 3e
       0.15449232 -0.16012046 0.065200046 0.1450864
0000b0 56 35 97 bd 14 60 10 be 79 6f 85 3e 80 04 df bb
       -0.0738322 -0.14099151 0.2606161 -0.0068059564
0000c0 49 4c 33 be 30 86 9e bd 4c a0 d5 3d 38 bf 46 be
       -0.17509569 -0.07740438 0.10430965 -0.19408882
0000d0 cf 0f 5a be ea 88 ac 3d c0 6c 79 3c ba d9 f5 bd
       -0.21295093 0.08424552 0.015223682 -0.12004419
0000e0 fc 60 7c be d8 7e 2b 3d f8 64 69 be 75 da 42 be
       -0.24646372 0.041869015 -0.22792423 -0.19028647
0000f0 cd 27 88 3e 9f f6 43 3e ea ab 8c 3e d0 48 da bc
       0.26592866 0.19137047 0.2747491 -0.026646048
000100 c7 40 87 3e 0c 29 fb bd 24 db 18 3e ba 92 78 be
       0.2641661 -0.122636884 0.14927346 -0.24274722
000110 08 c6 65 bd 1e c5 a0 3d a7 54 11 be 1c 34 5c 3d
       -0.05609706 0.07850097 -0.14192449 0.053760633
000120 60 12 4f 3c 7e ea c6 bd 94 b6 93 3d 94 5c 3f 3e
       0.012638658 -0.097126946 0.072125584 0.1868766
000130 6e 46 66 3e b7 53 0b 3e 1a ef 8c 3e 33 e5 73 3e
       0.22487804 0.13606153 0.2752617 0.23817901
000140 84 7e 02 be 06 30 92 3e f1 6d 70 be e8 09 44 3e
       -0.12743574 0.28552264 -0.2347944 0.19144404
000150 6e c3 c3 bd 7a 17 2c 3e 9f 9a 8c 3e e0 67 f5 bc
       -0.0955876 0.1680583 0.27461717 -0.029956758
000160 9a 2a 81 3e 65 8e 45 be 10 98 b6 3c c4 c8 4c be
       0.25227815 -0.192926 0.022289306 -0.19998461
000170 c7 58 77 bb 5e 35 68 3e 66 ee b3 bd be 98 94 3d
       -0.0037742124 0.22676608 -0.08785705 0.07255696
000180 ba 0a ba bd f0 4e 82 bc d4 0d 4c bd 6a ce 86 3e
       -0.09084077 -0.015906781 -0.049817875 0.26329356
000190 30 26 ad 3d 77 45 99 3c eb 7e 6e be d8 66 57 be
       0.08454549 0.018709881 -0.23290603 -0.21035326
0001a0 91 97 7e be a4 c8 32 be 7c c6 e1 3d 87 2f 07 be
       -0.24862505 -0.17459351 0.11024186 -0.13201724
0001b0 41 f1 85 3e 1f e0 5a be 89 d0 70 3e ed fb 81 3e
       0.26160625 -0.21374558 0.2351705 0.25387517
0001c0 c2 24 73 3e 02 75 47 3e 20 ff 7d 3d 0a 81 b9 3d
       0.2374449 0.19478229 0.062010884 0.090578154
0001d0 a5 95 02 3e 80 1d 81 bb 5a ac fd 3d f8 34 91 bd
       0.12752397 -0.0039402843 0.12386389 -0.07090181
0001e0 a8 c1 6e be 80 2d 05 3b cb 05 6e 3e cc db 11 bd
       -0.23316061 0.002032131 0.23244397 -0.035610005
0001f0 3c 61 21 3d 60 64 ab 3c 20 84 76 bc 9e 7f 41 be
       0.03939937 0.020921886 -0.0150461495 -0.18896338
000200 8e 55 29 3e 51 f1 0d be e4 6d da bd ef 19 8a 3e
       0.16536543 -0.13861586 -0.10665491 0.2697291
000210 5e a2 ff 3d 67 33 89 be 04 96 81 be 88 29 f0 3d
       0.12482141 -0.2679703 -0.25309765 0.117266715
000220 7a 6b 8c be dc e4 8f be 30 72 e8 3d 3e 38 0f be
       -0.27425748 -0.28104293 0.113499045 -0.13986298
000230 86 21 3d 3e 25 3a 28 be e5 0e 15 be 9c 9c 69 bd
       0.1846982 -0.1642843 -0.14556463 -0.05703412
000240 ed 72 30 3e 03 6c 85 3e 6c 2a 88 3e d8 e3 ec 3d
       0.1723134 0.2605897 0.26594865 0.11566895
000250 20 9f 62 3d 18 9a 3a 3e 70 1d e7 bc a5 89 4e 3e
       0.055327535 0.18222845 -0.02821228 0.20169695
000260 d0 5a 7a be 16 04 85 3e 20 7d 0d 3c b2 b5 ba 3d
       -0.24448705 0.2597968 0.008635789 0.09116687
000270 80 82 e3 3d 4b 33 41 3e 6c 9d 2b be ec 28 73 be
       0.11108875 0.18867223 -0.1675927 -0.23746079
000280 14 82 2f bd 18 8d 58 be 10 37 95 bd fa 0b 00 3e
       -0.04284866 -0.21147573 -0.07285893 0.12504569
000290 fa 46 b2 bd 50 16 86 3c ba 3b 0e 3e 8e a2 b4 3d
       -0.08704944 0.016368061 0.13889971 0.08820067
0002a0 f0 43 f8 bc 20 c8 2f 3e 44 ff 3f bd 30 05 04 3e
       -0.030305833 0.17166185 -0.0468743 0.12892604
0002b0 94 18 90 be e0 2d b4 bc 04 00 f4 bd 8f d9 08 3e
       -0.28143752 -0.021994531 -0.119140655 0.13364242
0002c0 00 4a 71 bc d8 2c 35 3e ae 69 69 3e b9 a4 7a be
       -0.014727116 0.17692888 0.2279422 -0.24476899
0002d0 00 ac 2d 3c c8 4b 1d 3e d2 3f 8c 3d ed ec 23 3e
       0.01060009 0.1536094 0.0684811 0.16008349
0002e0 cd 09 3d 3e 4f 20 60 3e 7f 88 13 be 7c 26 0a 3e
       0.1846077 0.21887325 -0.14407538 0.13491243
0002f0 6d f1 7c 3e 70 bb ce 3c cd 00 1d 3e 81 e7 06 be
       0.24701472 0.025235862 0.15332337 -0.13174249
000300 9c 47 80 bd 60 3b 50 3c ff 29 43 be c5 0c 3f 3e
       -0.062636584 0.012709469 -0.19058989 0.18657215
000310 90 88 d4 bc 99 29 01 be e0 1c 4e bd f0 0a d8 3c
       -0.025944024 -0.12613524 -0.050320506 0.026372403
000320 40 0f ca bc fa db 88 bd 1e bd 17 be 00 20 67 3c
       -0.024665475 -0.06682582 -0.14818236 0.0141067505
000330 87 6c 53 3e 24 2d 89 3d 5c ab 80 3e ea 29 83 bd
       0.20646869 0.06698063 0.25130737 -0.06404479
000340 07 15 1f be 95 85 05 be 34 e0 7b bd 80 37 c7 bd
       -0.15535365 -0.13039239 -0.061493114 -0.09727383
000350 b4 ca 6a 3e 1d 1a 12 be b0 54 f5 bd 26 62 14 be
       0.22928888 -0.14267774 -0.119790435 -0.14490566
000360 6e fc e5 3d 2c c9 7d be ca ee 19 3e ed 14 69 be
       0.11229788 -0.24783772 0.15032497 -0.22761889
000370 0c d9 36 be 10 0b 52 3d cf 17 4b 3e 58 fc 7e 3e
       -0.17856234 0.05128008 0.19833301 0.24900949
000380 10 33 7c 3e 0a 36 1d be 98 ac 95 bd c2 28 df 3d
       0.24628854 -0.15352646 -0.0730831 0.10896446
000390 02 fd 39 3e 6c 37 6a be f0 08 a2 bd eb 26 5f be
       0.18162921 -0.22872704 -0.07911861 -0.2179219
0003a0 f4 49 5a 3d 91 69 30 be 48 5c 72 3e a5 3a 4a 3e
       0.053293183 -0.1722777 0.23668015 0.19748934
0003b0 5e 01 bc 3c 1e 67 1e be bf 17 1a 3e f2 ac 90 bd
       0.02294987 -0.15469024 0.15048121 -0.07064237
0003c0 6e d7 b9 bd 48 30 21 be f8 7a dd 3d de e6 c5 bd
       -0.09074293 -0.15741074 0.1081447 -0.09663175
0003d0 59 85 76 3e 22 b9 ca 3d bc aa b3 bd 39 1c 6b be
       0.24074306 0.098985925 -0.087727994 -0.22959985
0003e0 50 ad ef bc 7a 65 0f 3e 66 3c 81 be 09 1b 85 be
       -0.029257447 0.14003554 -0.25241393 -0.2599719
0003f0 0e b7 22 3e 38 0a 45 3d 90 3f d8 3c 8e 32 57 be
       0.15890142 0.04810545 0.026397496 -0.21015379

fc.0.bias f4 [120]
000000 c2 18 ef 3d 10 28 42 3e eb 1d 5a be 6a 6f 0a 3e
       0.11674644 0.18960595 -0.21300475 0.13519064
000010 e8 1f 41 bd fc ef a5 3d 8a ab d9 bd 43 3d 3f 3e
       -0.04714957 0.08102414 -0.106284216 0.18675713
000020 b6 4c 20 3e 13 17 6a be f0 2f b3 bd ec 2c 4f be
       0.15654263 -0.22860365 -0.08749378 -0.2023198
000030 52 dc 90 be fe 2d 80 be 70 81 b0 bd 7f ae 3e be
       -0.2829309 -0.2503509 -0.08618438 -0.18621252
000040 f2 ab 68 be 06 a7 82 be 60 d3 ce bc e7 d8 06 3e
       -0.22721842 -0.25518054 -0.025247276 0.13168679
000050 64 14 9d bd dc a7 67 be 00 50 46 39 cc c6 05 3d
       -0.07669905 -0.22622627 0.00018912554 0.03266029
000060 60 a0 13 3c a0 85 40 3e 00 cc be bc 99 26 81 be
       0.009010404 0.18800974 -0.023290634 -0.2522476
000070 f8 c8 42 3d d6 8c 5d be 50 7b 8b 3c e1 55 5f be
       0.04755494 -0.21635756 0.017026573 -0.21810104
000080 60 95 35 3c 09 5e 7a be 43 49 89 be 77 4a 41 3e
       0.011082977 -0.24449934 -0.26813707 0.18876062
000090 8d d9 83 be 90 19 92 3d aa fb 93 3e 98 82 4c bd
       -0.25751916 0.07133782 0.28902942 -0.04992923
0000a0 e8 58 32 3d 76 79 f5 3d ac b3 e9 bd 02 ef 1a be
       0.04354182 0.119860575 -0.11411223 -0.15130237
0000b0 20 b8 a6 3d 50 f1 10 3d d8 aa e6 bd 34 b8 4a bd
       0.08140588 0.035386384 -0.112630546 -0.049492076
0000c0 b8 8a 61 3d 75 4d 8d be 1a 03 6f be 5d 53 7d be
       0.055063933 -0.27598158 -0.23341027 -0.24738832
0000d0 18 4f 25 3d 2a 4e 36 3e 48 2e 88 be f7 46 01 3e
       0.040358633 0.17803255 -0.2659781 0.12624727
0000e0 cf 74 0c be 4c f5 4d be 30 d0 c6 3c 30 4f e1 bd
       -0.13716434 -0.20113105 0.024269193 -0.11001432
0000f0 c8 8d 14 be 52 9b da bd 46 9b cc bd 97 ec 42 3e
       -0.1450721 -0.10674156 -0.099905536 0.19035564
000100 da 5a bf bd 3b 06 4a 3e 90 3c ed bc a4 61 95 bd
       -0.093435004 0.19728939 -0.028959543 -0.07294014
000110 ac 1a 4d 3d 70 36 fb 3c a6 91 70 be d6 3f 6e 3e
       0.050074264 0.030665606 -0.2349306 0.23266539
000120 bc 9b 66 3d 02 91 85 3d bf 20 61 3e 31 72 93 be
       0.056300864 0.06521799 0.21985148 -0.2879806
000130 6b 5b 32 3e 95 bb 07 be b2 c1 63 3e ee 78 f6 3d
       0.17417686 -0.1325515 0.22241858 0.12034784
000140 ca 6b bc 3d a6 5c e7 bd 20 14 62 3e cc 7c 53 3e
       0.09200247 -0.11296968 0.2207799 0.20653075
000150 4e b0 3e 3c 20 c1 9a bd 1e 2a 51 be 3e 57 a4 3d
       0.011638714 -0.07556367 -0.20426223 0.080244526
000160 54 10 de 3d a1 eb 07 3e ca 77 23 3e 68 59 87 3d
       0.10842958 0.13273479 0.15963665 0.0660885
000170 e0 ca de 3d c5 bd 64 be 5e 79 7f 3e fd e8 17 3e
       0.10878539 -0.22338016 0.24948642 0.14834972
000180 dd 3b 93 be 52 78 86 3d ec 21 ca 3d 92 99 52 3e
       -0.2875661 0.06565918 0.09869751 0.20566395
000190 00 2a 08 be 14 21 47 be bd 89 26 be 18 c5 b4 3d
       -0.13297272 -0.19446212 -0.1626348 0.08826655
0001a0 a8 61 7f be bc 5c 06 be 38 02 cb bd ed ba 7a 3e
       -0.24939597 -0.13121313 -0.099125326 0.24485369
0001b0 1f a8 7b 3e 2c cc bd 3d 00 7f 47 3d 50 ad d3 bc
       0.24575852 0.09267458 0.0487051 -0.025839478
0001c0 ec 80 8e bd 98 56 bb bd 74 75 02 3e 6f 32 91 be
       -0.06958184 -0.09147376 0.12740117 -0.2835879
0001d0 38 25 53 3e c7 5c 07 be 5b 85 69 be 7a 4b b5 bd
       0.20619667 -0.13218985 -0.22804777 -0.08852287

fc.2.weight f4 [4, 120]
000000 50 7d 94 3d a7 e8 81 bd e8 60 6d 3c 9c 3d ae 3c
       0.07250464 -0.06343203 0.014488436 0.021269612
000010 a8 66 12 3c e4 76 d5 3c 03 f2 11 bd 60 5d 36 3b
       0.008935608 0.026057668 -0.03563119 0.0027826652
000020 e0 25 48 3d ed b4 b7 bd 08 af 4d bc f4 4c b0 3d
       0.048864245 -0.08970056 -0.012553938 0.08608428
000030 e1 ac 12 bd d4 4e b4 3d 20 7f 71 3c b8 e8 2a 3d
       -0.0358094 0.08804098 0.014739782 0.041725844
000040 8c de 75 bd 28 7b ab 3d 2b 37 d3 3c 80 bc 4b 3c
       -0.06002669 0.083730996 0.025783142 0.012435079
000050 08 06 96 bd c3 4d 90 bd 7b d9 a8 bd 00 09 aa bc
       -0.07325369 -0.07046082 -0.08244606 -0.020756245
000060 c0 5a f5 bb 12 a1 55 bc a7 ec 97 bd cb fd 8b bd
       -0.007487625 -0.01303889 -0.07418185 -0.068355165
000070 9c ab b0 bd 4a 09 3f bd 6b 8a 82 bd 44 db aa bd
       -0.08626482 -0.046639718 -0.063740574 -0.08342603
000080 9a 41 96 3d 38 f4 4d 3d b8 b6 8e bc 14 2c 90 3d
       0.07336731 0.050281733 -0.017421111 0.07039657
000090 d8 aa b6 3d 04 66 90 3c f8 b9 14 3d c4 3e aa 3c
       0.089193046 0.01762677 0.036310166 0.020781882
0000a0 a4 0a 1d 3d a0 43 56 3c 2b 07 55 bd 90 63 ab 3d
       0.038340226 0.0130776465 -0.05200879 0.083685994
0000b0 00 04 47 bc d8 c0 a5 bc 54 5b 9f bd 20 cc df 3b
       -0.01214695 -0.020233557 -0.07781091 0.0068297535
0000c0 11 96 8c bc b2 29 78 bc 0a 4a 91 3d 7c dc ad 3d
       -0.017161401 -0.01514666 0.070942 0.0848932
0000d0 80 ba 3a 3b 55 16 9c bd e7 ed 62 bd 90 82 42 3c
       0.002849251 -0.07621447 -0.055402663 0.011871949
0000e0 88 29 72 3d ff ba a5 bd 50 32 df bb 91 e3 99 bd
       0.05912164 -0.08092307 -0.0068114176 -0.07514108
0000f0 b2 75 3f bd c0 85 e6 3a 12 02 86 bd 3e 0b 99 3d
       -0.046743102 0.0017587468 -0.06543364 0.074728474
000100 28 28 78 3c 7a c7 31 bd 70 94 69 3d 60 ce 57 3d
       0.015146293 -0.043403126 0.057026327 0.05268705
000110 20 3e 85 3d c6 00 95 bd 06 32 a9 bd 54 0d 6a 3d
       0.0650599 -0.07275538 -0.08261494 0.057141617
000120 90 87 1d 3d b0 00 f6 3c ec 5f 50 bd 88 94 71 3d
       0.03845936 0.030029625 -0.05087273 0.05897954
000130 ee 67 b2 3d b7 4a a3 bd cc 1a 7a 3d 00 d2 a3 b9
       0.08711229 -0.07973235 0.06106071 -0.00031246245
000140 1a 98 72 bd a0 d7 ce 3c 60 9e 35 3c d4 fe fe 3c
       -0.059227087 0.025249302 0.011085123 0.03112737
000150 e6 8d 9c 3d 1f ee 27 bd 00 80 93 b8 50 0a 59 bd
       0.076442525 -0.040998574 -7.033348e-05 -0.05298835
000160 d3 fe b7 3c b4 01 5a 3d 38 c9 df 3c de 88 9a 3d
       0.022460377 0.05322428 0.027317628 0.075456366
000170 f2 f9 98 3d 10 a6 8d 3b d8 52 bc 3b 3b f4 43 bd
       0.07469548 0.0043227747 0.0057471804 -0.04784034
000180 24 60 17 bd e4 16 3e bd d2 a4 9d 3d 88 4e a7 bc
       -0.03695692 -0.04640855 0.076974526 -0.020423189
000190 44 4a 99 bc 7e b3 86 3d 53 77 0d bd 00 fa 30 3b
       -0.01871217 0.06577204 -0.034537625 0.002700448
0001a0 50 58 70 3c e2 be b2 bd 08 0e 55 3d d6 c3 a5 bd
       0.014669493 -0.08727814 0.052015334 -0.08093993
0001b0 ed f5 97 bd 95 64 d8 bc e0 fc 5e bb 8c ac 82 bd
       -0.074199535 -0.026415149 -0.0034025237 -0.06380567
0001c0 f2 13 a4 bd f2 48 80 3d 58 91 90 bd e8 41 91 3d
       -0.08011617 0.06263913 -0.07058972 0.07092649
0001d0 80 10 a3 3b 7b 1d 86 bd a3 cb 1b bd b8 43 33 3c
       0.004976332 -0.06548592 -0.038036 0.010941438
0001e0 88 1f 4b bd 8c af 97 3d 75 d9 a4 bd 40 16 85 3b
       -0.049590617 0.0740653 -0.08049289 0.0040614903
0001f0 00 54 71 3c 32 49 b9 bd ee cc 5c bd 94 c2 50 bd
       0.0147295 -0.09047164 -0.053906374 -0.050966814
000200 8c a8 fd 3c 3a 08 05 3d 67 46 90 3c 0c 8a 87 bd
       0.030964158 0.03247855 0.017611695 -0.06618127
000210 c0 eb d0 ba 1e c9 9c 3d d8 cc 57 bc 20 99 59 3c
       -0.00159394 0.076555476 -0.013171397 0.013281137
000220 50 cb 19 3d e8 62 4b bd 7a 76 3a bd 1a 3f b2 3d
       0.03754741 -0.04965487 -0.045523144 0.08703442
000230 80 c0 82 bb d0 da ae 3c f4 82 7c 3d 58 33 00 3d
       -0.003990233 0.021344572 0.061648324 0.031298965
000240 30 74 42 bc 64 f5 50 bd 70 e3 ee 3b 28 34 7f 3d
       -0.011868522 -0.051015273 0.0072902963 0.0623056
000250 e2 7c 94 bd fd a3 71 bd f0 c5 f4 3b 4a 29 71 bd
       -0.07250382 -0.058994282 0.007469885 -0.058877267
000260 f3 a6 4c bd 30 66 3e bc ac a0 65 3d 00 3f ea bc
       -0.049963903 -0.011621043 0.05606143 -0.028594494
000270 82 04 74 bc 72 de 96 bd 88 8e 63 bc 1c 65 3c 3d
       -0.014893653 -0.07366647 -0.013888963 0.045994863
000280 de 01 b4 3d a4 b2 44 bd 70 d8 8d bd 16 f0 80 3d
       0.08789419 -0.048021927 -0.06926048 0.06295793
000290 84 1e b0 3d 5c 68 72 bd 37 92 b0 bd 4c 2a 6c 3d
       0.085995704 -0.059181556 -0.08621638 0.057657525
0002a0 80 c8 0d 3a a9 56 82 bd 64 b7 f4 3c b8 fc 44 3d
       0.00054086 -0.06364185 0.029872604 0.048092574
0002b0 e5 46 90 bd b0 1e a6 bc c8 14 5d 3d 5a 7a 91 3d
       -0.07044772 -0.020278305 0.053974897 0.07103415
0002c0 94 7f 32 3d 44 ab ea bc 10 c3 a8 3b f0 92 c0 bc
       0.0435787 -0.028646119 0.0051502064 -0.023507565
0002d0 8c fc e5 bc 62 02 5b bd 30 5c e6 3c ba 73 a6 bd
       -0.028074525 -0.05346907 0.02812013 -0.08127542
0002e0 34 00 2e 3d 1c 56 36 3d 1d db 4e bd 62 1d 1e bd
       0.042480662 0.044515714 -0.05050193 -0.03860224
0002f0 d0 69 09 bd 72 cf 3f bd 8e a8 9d 3d a4 44 fa 3c
       -0.033548176 -0.046828695 0.07698165 0.030550309
000300 64 99 e5 bc 48 60 11 3d 5a e1 a8 3d 5e f6 83 bd
       -0.028027244 0.03549221 0.082461074 -0.06443475
000310 80 6d c6 3b 6f f7 ef bc 5e c0 9f bd 62 f6 85 3d
       0.006055534 -0.02929279 -0.07800363 0.065411344
000320 9c 44 64 3d 20 2f 37 3d f8 e1 0f bc 80 4c 30 3b
       0.055729493 0.044722676 -0.0087819025 0.0026901066
000330 52 56 a3 3d 84 ef 8b 3d 50 03 78 3d fc fb 01 bd
       0.07975449 0.06832793 0.060550034 -0.03173445
000340 b8 4a c4 bc c0 43 13 3b 34 3c 2b 3d 10 83 96 bd
       -0.02396141 0.0022470802 0.04180546 -0.07349217
000350 62 73 a9 3d 8c 52 26 3d f3 13 69 bd 00 49 fa 39
       0.08273961 0.040606067 -0.05690379 0.00047738105
000360 08 9d 53 3d 10 f5 4d 3c 8d 9b 8c bd 8e 61 0b bd
       0.05166343 0.0125706345 -0.068656065 -0.034028582
000370 fd fd 89 bd 30 3f c8 bb c2 22 a7 3d 38 39 39 3c
       -0.067378975 -0.006111048 0.081609264 0.011305146
000380 d0 37 b1 bd aa e6 90 3d e8 39 ea bc a0 05 51 bc
       -0.086532235 0.07075246 -0.028592065 -0.012757689
000390 1a bd 98 bd f8 69 e4 3c 22 4e b2 bd 40 44 e3 3b
       -0.07457943 0.027882561 -0.08706309 0.0069356263
0003a0 ea 4c 46 bd f0 8e 88 3c 80 61 9b ba 2c 78 a4 3d
       -0.048413195 0.01666972 -0.0011854619 0.080307335
0003b0 80 78 b3 3c 1c c3 ef 3c c0 4f 8b bb 30 bf 40 3d
       0.021908045 0.02926784 -0.0042514503 0.04705733
0003c0 01 34 86 bd 88 46 9f 3d 66 4a 6d bd 88 75 15 bc
       -0.06552888 0.07777125 -0.05793228 -0.00912226
0003d0 20 4d 09 bc 2e 9c 48 3c 60 ef 69 bb e8 db 52 3d
       -0.008380204 0.012244267 -0.0035695657 0.05147925
0003e0 d4 18 b9 3d 0c 3d e8 3c 50 bd e2 3c 81 17 54 bd
       0.09037939 0.028349422 0.027678162 -0.051780228
0003f0 00 f1 d4 3c 3c 03 92 3d be 40 ad bd f7 6b 99 bd
       0.025993824 0.07129523 -0.08459614 -0.07491296

fc.2.bias f4 [4]
000000 a0 40 e9 3b c0 7e 1d 3d 9c e0 3c bd 20 2e 8e bd
       0.0071182996 0.038450956 -0.04611264 -0.069423914
