Models/score_40_model_92742.pt (torch, 9695 bytes, 4 tensors)

fc.0.weight f4 [120, 12]
0.26931816 0.10676572 0.047242165 -0.15146762 0.018093927 -0.15187527 0.06857675 0.04153347
0.07573679 -0.1819157 0.112554684 -0.13214822 -0.008675247 -0.20997962 0.2245202 0.070917115
-0.24352388 -0.10105881 0.12383038 0.23203589 -0.012596816 -0.18604803 -0.0027570724 -0.103203475
-0.13821289 -0.08665727 -0.05967027 -0.06456332 -0.27076948 -0.15175645 0.16497128 -0.052562594
0.2770897 0.10396589 0.26289973 -0.23498903 -0.13131182 -0.23420852 -0.16557531 -0.04560882
0.15449232 -0.16012046 0.065200046 0.1451864 -0.0737322 -0.1408915 0.2605161 -0.0068059564
-0.17499569 -0.07750438 0.10420965 -0.19398881 -0.21305093 0.084045514 0.015223682 -0.12004419
-0.24636371 0.041969016 -0.22782423 -0.19038647 0.26542872 0.19117047 0.27444914 -0.026646048
0.2641661 -0.12253688 0.14917345 -0.24244721 -0.05609706 0.07850097 -0.14192449 0.053760633
0.012638658 -0.097126946 0.072225586 0.1869766 0.22497804 0.13616154 0.2752617 0.23817901
-0.12723574 0.2857226 -0.23469439 0.19164404 -0.09538759 0.16825831 0.27471715 -0.029856758
0.2526781 -0.192926 0.022289306 -0.19998461 -0.0038742125 0.22666608 -0.088057056 0.072456956
-0.09084077 -0.015906781 -0.049917877 0.26319358 0.08454549 0.018609881 -0.23300603 -0.21045326
-0.24872506 -0.17459351 0.11014186 -0.13191724 0.26170623 -0.21354558 0.2351705 0.25387517
0.2374449 0.19448228 0.062010884 0.090578154 0.12752397 -0.0038402842 0.124063894 -0.07100181
-0.23296061 0.002032131 0.23264398 -0.035710007 0.03929937 0.020921886 -0.0150461495 -0.18906339
0.16556543 -0.13831586 -0.106854916 0.26962912 0.12482141 -0.26827025 -0.25299767 0.117266715
-0.27425748 -0.28114292 0.11339904 -0.13986298 0.1845982 -0.1642843 -0.14556463 -0.05693412
0.1721134 0.26028973 0.26614863 0.11566895 0.055327535 0.18252845 -0.02821228 0.20159695
-0.24448705 0.26029673 0.008635789 0.091466874 0.111188754 0.18907224 -0.1674927 -0.23736079
-0.04284866 -0.21157573 -0.072658926 0.124945685 -0.08704944 0.016368061 0.13899972 0.08840068
-0.030305833 0.17176186 -0.0468743 0.12912604 -0.2816375 -0.021994531 -0.11924066 0.13374242
-0.014727116 0.17672887 0.2281422 -0.24456899 0.01060009 0.1535094 0.0684811 0.1603835
0.1845077 0.21907325 -0.14417538 0.13461243 0.24711472 0.025235862 0.15322337 -0.13154249
-0.062736586 0.012709469 -0.19048989 0.18647215 -0.025844024 -0.12623525 -0.05052051 0.026372403
-0.024665475 -0.06692582 -0.14838237 0.0141067505 0.20676869 0.06688063 0.25160733 -0.06414479
-0.15555365 -0.13039239 -0.061393112 -0.09727383 0.22908887 -0.14287774 -0.11969043 -0.14490566
0.112197876 -0.24763772 0.15012497 -0.22771889 -0.17876235 0.051380083 0.19873302 0.24900949
0.24608853 -0.15352646 -0.073183104 0.10896446 0.18182921 -0.22872704 -0.07911861 -0.2181219
0.053393185 -0.1722777 0.23668015 0.19738933 0.022749871 -0.15449023 0.1502812 -0.07074237
-0.09084293 -0.15721074 0.1081447 -0.09673175 0.24074306 0.09878592 -0.087727994 -0.22959985
-0.029157447 0.14003554 -0.25251392 -0.2599719 0.15890142 0.04810545 0.026397496 -0.21025379
00000000: 12e4 893e fca7 da3d 0081 413d 541a 1bbe
00000010: b739 943c 3185 1bbe f871 8c3d 001f 2a3d
00000020: e41b 9b3d 1c48 3abe 1283 e63d dd51 07be
00000030: a022 0ebc e604 57be a0e8 653e fe3c 913d
00000040: 535e 79be ecf7 cebd c89a fd3d d19a 6d3e
00000050: e062 4ebc 6083 3ebe 00b0 34bb 585c d3bd
00000060: ae87 0dbe 5e79 b1bd d068 74bd c639 84bd
00000070: 4ca2 8abe 0b66 1bbe 3bee 283e e04b 57bd
00000080: b3de 8d3e 12ec d43d cb9a 863e f7a0 70be
00000090: 9b76 06be 5cd4 6fbe 938c 29be 50d0 3abd
000000a0: 3c33 1e3e 9ef6 23be 9a87 853d beab 143e
000000b0: e800 97bd dd45 10be 5e62 853e 8004 dfbb
000000c0: 1232 33be 9eba 9ebd de6b d53d 01a5 46be
000000d0: 062a 5abe 0e20 ac3d c06c 793c bad9 f5bd
000000e0: c546 7cbe b4e7 2b3d c14a 69be acf4 42be
000000f0: 46e6 873e 31c2 433e 9984 8c3e d048 dabc
00000100: c740 873e 9ef4 fabd edc0 183e 1544 78be
00000110: 08c6 65bd 1ec5 a03d a754 11be 1c34 5c3d
00000120: 6012 4f3c 7eea c6bd 02eb 933d cb76 3f3e
00000130: a560 663e ee6d 0b3e 1aef 8c3e 33e5 733e
00000140: 164a 02be 3c4a 923e ba53 70be 563e 443e
00000150: 925a c3bd e84b 2c3e baa7 8c3e 2996 f4bc
00000160: 065f 813e 658e 45be 1098 b63c c4c8 4cbe
00000170: 80e6 7dbb 271b 683e 4257 b4bd 5064 943d
00000180: ba0a babd f04e 82bc b076 4cbd 4fc1 863e
00000190: 3026 ad3d c073 983c 2299 6ebe 0f81 57be
000001a0: c8b1 7ebe a4c8 32be 0e92 e13d 5015 07be
000001b0: 5cfe 853e b1ab 5abe 89d0 703e edfb 813e
000001c0: c224 733e 5d26 473e 20ff 7d3d 0a81 b93d
000001d0: a595 023e 47ad 7bbb 3615 fe3d 6669 91bd
000001e0: 3a8d 6ebe 802d 053b 393a 6e3e a844 12bd
000001f0: 60f8 203d 6064 ab3c 2084 76bc d599 41be
00000200: fc89 293e aca2 0dbe c0d6 dabd d40c 8a3e
00000210: 5ea2 ff3d b85a 89be e988 81be 8829 f03d
00000220: 7a6b 8cbe f7f1 8fbe c23d e83d 3e38 0fbe
00000230: 4f07 3d3e 253a 28be e50e 15be c033 69bd
00000240: 7f3e 303e b244 853e a244 883e d8e3 ec3d
00000250: 209f 623d bde8 3a3e 701d e7bc 6e6f 4e3e
00000260: d05a 7abe 9d45 853e 207d 0d3c fc52 bb3d
00000270: eeb6 e33d 279c 413e 3583 2bbe b50e 73be
00000280: 1482 2fbd 4fa7 58be 34ce 94bd 86e3 ff3d
00000290: fa46 b2bd 5016 863c f155 0e3e 6a0b b53d
000002a0: f043 f8bc 57e2 2f3e 44ff 3fbd 9e39 043e
000002b0: ca32 90be e02d b4bc 7234 f4bd c6f3 083e
000002c0: 004a 71bc 6af8 343e 1c9e 693e 4b70 7abe
000002d0: 00ac 2d3c 9131 1d3e d23f 8c3d 923b 243e
000002e0: 96ef 3c3e bd54 603e b6a2 13be d7d7 093e
000002f0: a40b 7d3e 70bb ce3c 96e6 1c3e 13b3 06be
00000300: 0a7c 80bd 603b 503c c80f 43be 8ef2 3e3e
00000310: d9b6 d3bc d043 01be 98ee 4ebd f00a d83c
00000320: 400f cabc 6810 89bd 8cf1 17be 0020 673c
00000330: 2cbb 533e b6f8 883d add2 803e 585e 83bd
00000340: 7549 1fbe 9585 05be 5877 7bbd 8037 c7bd
00000350: 4696 6a3e 8b4e 12be 4220 f5bd 2662 14be
00000360: 00c8 e53d be94 7dbe 5cba 193e 242f 69be
00000370: 7a0d 37be ec73 523d ab80 4b3e 58fc 7e3e
00000380: a2fe 7b3e 0a36 1dbe 06e1 95bd c228 df3d
00000390: 7031 3a3e 6c37 6abe f008 a2bd 595b 5fbe
000003a0: d0b2 5a3d 9169 30be 485c 723e 6e20 4a3e
000003b0: f05d ba3c b032 1ebe 51e3 193e 60e1 90bd
000003c0: dc0b babd dafb 20be f87a dd3d 4c1b c6bd
000003d0: 5985 763e 4650 ca3d bcaa b3bd 391c 6bbe
000003e0: 99db eebc 7a65 0f3e 8149 81be 091b 85be
000003f0: 0eb7 223e 380a 453d 903f d83c c54c 57be

fc.0.bias f4 [120]
0.11674644 0.18960595 -0.21280475 0.13529064 -0.04714957 0.08102414 -0.106184214 0.18685713
0.15654263 -0.22860365 -0.08759378 -0.2025198 -0.28273094 -0.2502509 -0.08618438 -0.18631253
-0.22721842 -0.25518054 -0.025247276 0.1318868 -0.07679905 -0.22622627 0.00018912554 0.03256029
0.009010404 0.18790974 -0.023290634 -0.2522476 0.04755494 -0.21655756 0.017026573 -0.21800104
0.011082977 -0.24409933 -0.26813707 0.18866062 -0.25731918 0.071637824 0.28882945 -0.04992923
0.04354182 0.119860575 -0.11411223 -0.15140237 0.08130588 0.035386384 -0.11273055 -0.049392074
0.055163935 -0.2758816 -0.23331027 -0.24758832 0.040358633 0.17803255 -0.26567814 0.12614727
-0.13706434 -0.20093104 0.024269193 -0.11001432 -0.1450721 -0.10654156 -0.099805534 0.19035564
-0.093435004 0.19718939 -0.028959543 -0.07304014 0.049974263 0.030665606 -0.2348306 0.2328654
0.056400865 0.06521799 0.21995148 -0.2879806 0.17427686 -0.1325515 0.22251858 0.120547846
0.091902465 -0.11286968 0.2208799 0.20653075 0.011538714 -0.07546367 -0.20436223 0.080244526
0.108129576 0.1329348 0.15983665 0.0660885 0.10878539 -0.22338016 0.24948642 0.14834972
-0.2875661 0.06565918 0.09859751 0.20576395 -0.13317272 -0.19456212 -0.1626348 0.08826655
-0.24929596 -0.13131313 -0.099025324 0.24465369 0.24575852 0.09267458 0.0487051 -0.025839478
-0.06958184 -0.09177376 0.12720117 -0.28348792 0.20629667 -0.13218985 -0.22864778 -0.08832286
00000000: c218 ef3d 1028 423e 7de9 59be a189 0a3e
00000010: e81f 41bd fcef a53d 1c77 d9bd 7a57 3f3e
00000020: b64c 203e 1317 6abe 5e64 b3bd 5a61 4fbe
00000030: 1cc2 90be e320 80be 7081 b0bd b6c8 3ebe
00000040: f2ab 68be 06a7 82be 60d3 cebc 550d 073e
00000050: d248 9dbd dca7 67be 0050 4639 f05d 053d
00000060: 60a0 133c 696b 403e 00cc bebc 9926 81be
00000070: f8c8 423d 44c1 5dbe 507b 8b3c aa3b 5fbe
00000080: 6095 353c 2df5 79be 4349 89be 4030 413e
00000090: 57bf 83be dab6 923d 74e1 933e 9882 4cbd
000000a0: e858 323d 7679 f53d acb3 e9bd 3909 1bbe
000000b0: b283 a63d 50f1 103d 46df e6bd 584f 4abd
000000c0: 94f3 613d 5a40 8dbe e3e8 6ebe cb87 7dbe
000000d0: 184f 253d 2a4e 363e f706 88be c02c 013e
000000e0: 985a 0cbe dec0 4dbe 30d0 c63c 304f e1bd
000000f0: c88d 14be 7632 dabd d866 ccbd 97ec 423e
00000100: da5a bfbd 04ec 493e 903c edbc 1296 95bd
00000110: d0b1 4c3d 7036 fb3c 6f77 70be 4474 6e3e
00000120: 9804 673d 0291 853d f63a 613e 3172 93be
00000130: a275 323e 95bb 07be e9db 633e cae1 f63d
00000140: 5c37 bc3d 3828 e7bd 572e 623e cc7c 533e
00000150: e00c 3d3c b28c 9abd 5544 51be 3e57 a43d
00000160: 0a73 dd3d 0f20 083e 38ac 233e 6859 873d
00000170: e0ca de3d c5bd 64be 5e79 7f3e fde8 173e
00000180: dd3b 93be 5278 863d 7eed c93d c9b3 523e
00000190: 6e5e 08be 4b3b 47be bd89 26be 18c5 b43d
000001a0: 7147 7fbe f376 06be cacd cabd 7f86 7a3e
000001b0: 1fa8 7b3e 2ccc bd3d 007f 473d 50ad d3bc
000001c0: ec80 8ebd e2f3 bbbd 0641 023e 5425 91be
000001d0: 6f3f 533e c75c 07be a522 6abe 9ee2 b4bd

fc.2.weight f4 [4, 120]
0.07240464 -0.06343203 0.014488436 0.021269612 0.008935608 0.026057668 -0.03563119 0.0027826652
0.048864245 -0.08980056 -0.012553938 0.08608428 -0.0358094 0.08804098 0.014739782 0.041625842
-0.060126692 0.083831 0.025683142 0.012435079 -0.07325369 -0.07046082 -0.08244606 -0.020756245
-0.007387625 -0.01303889 -0.07428185 -0.068355165 -0.08616482 -0.046539716 -0.06364057 -0.08352603
0.073467314 0.050381735 -0.017421111 0.070496574 0.089193046 0.01762677 0.036410168 0.020781882
0.038340226 0.0130776465 -0.051908787 0.083685994 -0.01214695 -0.020033557 -0.07811092 0.0068297535
-0.017161401 -0.0152466595 0.071142 0.084793195 0.002849251 -0.07601447 -0.055602666 0.011971949
0.05912164 -0.081023075 -0.0068114176 -0.07524108 -0.046743102 0.0017587468 -0.06543364 0.074828476
0.015146293 -0.043403126 0.057026327 0.05268705 0.0650599 -0.07275538 -0.082714945 0.05724162
0.038559362 0.030029625 -0.050772727 0.05897954 0.08701229 -0.07973235 0.061160713 -0.00031246245
-0.059227087 0.025249302 0.011085123 0.03112737 0.076442525 -0.041098576 -7.033348e-05 -0.053088352
0.022460377 0.05312428 0.027317628 0.07555637 0.07469548 0.0043227747 0.0056471806 -0.04784034
-0.037056923 -0.04640855 0.076974526 -0.020423189 -0.01871217 0.06557204 -0.034537625 0.002700448
0.014669493 -0.08727814 0.052115336 -0.08123994 -0.074199535 -0.026515149 -0.0034025237 -0.06380567
-0.080016166 0.06253913 -0.07058972 0.070726484 0.004976332 -0.06568592 -0.037936 0.010941438
-0.049590617 0.0740653 -0.08049289 0.0040614903 0.0147295 -0.09057164 -0.053906374 -0.050866812
0.030964158 0.032378547 0.017511696 -0.06608127 -0.00159394 0.076555476 -0.013171397 0.013281137
0.03754741 -0.04965487 -0.045623146 0.08693442 -0.003990233 0.021444572 0.061648324 0.031398967
-0.011868522 -0.051015273 0.0072902963 0.0623056 -0.07250382 -0.058994282 0.007569885 -0.058877267
-0.0498639 -0.011621043 0.05596143 -0.028594494 -0.014793653 -0.07366647 -0.013888963 0.045994863
0.087794185 -0.04812193 -0.06916048 0.06305793 0.086095706 -0.059181556 -0.08611638 0.057557523
0.00054086 -0.06384186 0.029872604 0.048092574 -0.07024772 -0.020178305 0.053974897 0.07093415
0.043478698 -0.02854612 0.005250206 -0.023507565 -0.028074525 -0.05356907 0.02812013 -0.08117542
0.042480662 0.044515714 -0.05050193 -0.03850224 -0.033448175 -0.046728693 0.07698165 0.030550309
-0.027927244 0.03549221 0.08226107 -0.06443475 0.006055534 -0.02939279 -0.07820363 0.065411344
0.055829495 0.044622675 -0.0087819025 0.0026901066 0.079654485 0.06832793 0.060550034 -0.031934455
-0.02396141 0.0022470802 0.04180546 -0.073292166 0.082639605 0.040606067 -0.05690379 0.00047738105
0.051563427 0.0125706345 -0.06835606 -0.03392858 -0.06747898 -0.006111048 0.08150926 0.011305146
-0.08633223 0.07085246 -0.028492065 -0.012757689 -0.07457943 0.027882561 -0.08716309 0.0069356263
-0.048513196 0.01666972 -0.0011854619 0.080307335 0.021908045 0.02936784 -0.0042514503 0.047157332
-0.06552888 0.07777125 -0.05803228 -0.00912226 -0.008380204 0.012144268 -0.0035695657 0.05137925
0.090179384 0.028349422 0.027678162 -0.05188023 0.025993824 0.07119523 -0.08459614 -0.07501296
00000000: e248 943d a7e8 81bd e860 6d3c 9c3d ae3c
00000010: a866 123c e476 d53c 03f2 11bd 605d 363b
00000020: e025 483d 5be9 b7bd 08af 4dbc f44c b03d
00000030: e1ac 12bd d44e b43d 207f 713c dc7f 2a3d
00000040: 6847 76bd 96af ab3d 7465 d23c 80bc 4b3c
00000050: 0806 96bd c34d 90bd 7bd9 a8bd 0009 aabc
00000060: e413 f2bb 12a1 55bc 1521 98bd cbfd 8bbd
00000070: 2e77 b0bd 6ea0 3ebd fd55 82bd b20f abbd
00000080: 0876 963d 145d 4e3d b8b6 8ebc 8260 903d
00000090: d8aa b63d 0466 903c d422 153d c43e aa3c
000000a0: a40a 1d3d a043 563c 4f9e 54bd 9063 ab3d
000000b0: 0004 47bc 6a1d a4bc 9ef8 9fbd 20cc df3b
000000c0: 1196 8cbc 20cd 79bc e6b2 913d 0ea8 ad3d
000000d0: 80ba 3a3b 79ad 9bbd 9fbf 63bd fe25 443c
000000e0: 8829 723d 6def a5bd 5032 dfbb ff17 9abd
000000f0: b275 3fbd c085 e63a 1202 86bd ac3f 993d
00000100: 2828 783c 7ac7 31bd 7094 693d 60ce 573d
00000110: 203e 853d c600 95bd 7466 a9bd 3076 6a3d
00000120: 6cf0 1d3d b000 f63c 10f7 4fbd 8894 713d
00000130: 8033 b23d b74a a3bd a883 7a3d 00d2 a3b9
00000140: 1a98 72bd a0d7 ce3c 609e 353c d4fe fe3c
00000150: e68d 9c3d fb56 28bd 0080 93b8 2c73 59bd
00000160: d3fe b73c d898 593d 38c9 df3c 4cbd 9a3d
00000170: f2f9 983d 10a6 8d3b fc0b b93b 3bf4 43bd
00000180: 00c9 17bd e416 3ebd d2a4 9d3d 884e a7bc
00000190: 444a 99bc a24a 863d 5377 0dbd 00fa 303b
000001a0: 5058 703c e2be b2bd e476 553d 2061 a6bd
000001b0: edf5 97bd 4c36 d9bc e0fc 5ebb 8cac 82bd
000001c0: 84df a3bd 8414 803d 5891 90bd 0cd9 903d
000001d0: 8010 a33b 5786 86bd c762 1bbd b843 333c
000001e0: 881f 4bbd 8caf 973d 75d9 a4bd 4016 853b
000001f0: 0054 713c a07d b9bd eecc 5cbd b859 50bd
00000200: 8ca8 fd3c 5e9f 043d b074 8f3c 9e55 87bd
00000210: c0eb d0ba 1ec9 9c3d d8cc 57bc 2099 593c
00000220: 50cb 193d e862 4bbd 56df 3abd ac0a b23d
00000230: 80c0 82bb 87ac af3c f482 7c3d 349c 003d
00000240: 3074 42bc 64f5 50bd 70e3 ee3b 2834 7f3d
00000250: e27c 94bd fda3 71bd cc0c f83b 4a29 71bd
00000260: 173e 4cbd 3066 3ebc d037 653d 003f eabc
00000270: 1461 72bc 72de 96bd 888e 63bc 1c65 3c3d
00000280: 70cd b33d 801b 45bd 02a4 8dbd 8424 813d
00000290: f252 b03d 5c68 72bd c95d b0bd 70c1 6b3d
000002a0: 80c8 0d3a 85bf 82bd 64b7 f43c b8fc 443d
000002b0: 09de 8fbd f94c a5bc c814 5d3d ec45 913d
000002c0: b816 323d 8dd9 e9bc ec09 ac3b f092 c0bc
000002d0: 8cfc e5bc 3e6b 5bbd 305c e63c 4c3f a6bd
000002e0: 3400 2e3d 1c56 363d 1ddb 4ebd 86b4 1dbd
000002f0: f400 09bd 9666 3fbd 8ea8 9d3d a444 fa3c
00000300: adc7 e4bc 4860 113d 7e78 a83d 5ef6 83bd
00000310: 806d c63b 26c9 f0bc 3a29 a0bd 62f6 853d
00000320: 78ad 643d 44c6 363d f8e1 0fbc 804c 303b
00000330: e421 a33d 84ef 8b3d 5003 783d b4cd 02bd
00000340: b84a c4bc c043 133b 343c 2b3d 341a 96bd
00000350: f43e a93d 8c52 263d f313 69bd 0049 fa39
00000360: 2c34 533d 10f5 4d3c 43fe 8bbd b2f8 0abd
00000370: 6b32 8abd 303f c8bb 54ee a63d 3839 393c
00000380: f4ce b0bd 181b 913d 3168 e9bc a005 51bc
00000390: 1abd 98bd f869 e43c 9082 b2bd 4044 e33b
000003a0: c6b5 46bd f08e 883c 8061 9bba 2c78 a43d
000003b0: 8078 b33c d394 f03c c04f 8bbb 0c28 413d
000003c0: 0134 86bd 8846 9f3d 42b3 6dbd 8875 15bc
000003d0: 204d 09bc c0f8 463c 60ef 69bb 0c73 523d
000003e0: f8af b83d 0c3d e83c 50bd e23c 5d80 54bd
000003f0: 00f1 d43c cece 913d be40 adbd 65a0 99bd

fc.2.bias f4 [4]
0.0071182996 0.038550958 -0.04601264 -0.06932391
00000000: a040 e93b 9ce7 1d3d c077 3cbd b2f9 8dbd
