Models/score_40_model_757342.pt (torch, 9695 bytes, 4 tensors)

fc.0.weight f4 [120, 12]
000000 c1 bc 89 3e 8e 73 da 3d b8 52 42 3d 1d 00 1b be
       0.2690182 0.106665716 0.047442168 -0.15136762
000010 b7 39 94 3c fa 6a 1b be 1c 09 8c 3d b8 f0 2a 3d
       0.018093927 -0.15177527 0.06837675 0.041733474
000020 76 e7 9a 3d ae 13 3a be ee eb e6 3d a6 37 07 be
       0.07563679 -0.1817157 0.11275469 -0.13204822
000030 a0 22 0e bc 41 b6 56 be 0e 1d 66 3e 6c 71 91 3d
       -0.008675247 -0.20967962 0.22472021 0.07101712
000040 e5 29 79 be 7e c3 ce bd 36 cf fd 3d 9a 80 6d 3e
       -0.24332388 -0.10095881 0.12393038 0.23193589
000050 e0 62 4e bc 60 83 3e be 00 b0 34 bb 7c f3 d2 bd
       -0.012596816 -0.18604803 -0.0027570724 -0.10300347
000060 e5 a1 0d be 5e 79 b1 bd d0 68 74 bd 34 6e 84 bd
       -0.13831289 -0.08665727 -0.05967027 -0.06466332
000070 67 af 8a be 42 80 1b be 3b ee 28 3e bc b4 57 bd
       -0.27086946 -0.15185645 0.16497128 -0.052662596
000080 ce eb 8d 3e 36 83 d4 3d 37 cf 86 3e c0 86 70 be
       0.27718967 0.10376589 0.26329967 -0.23488903
000090 09 ab 06 be 5c d4 6f be 01 c1 29 be 2c 39 3b bd
       -0.13151182 -0.23420852 -0.16577531 -0.04570882
0000a0 05 19 1e 3e f9 a7 23 be 9a 87 85 3d 50 77 14 3e
       0.15439232 -0.15982045 0.065200046 0.14498639
0000b0 56 35 97 bd 4b 7a 10 be 28 48 85 3e 80 04 df bb
       -0.0738322 -0.14109151 0.26031613 -0.0068059564
0000c0 6d e3 32 be 9e ba 9e bd ba d4 d5 3d ca 8a 46 be
       -0.17469569 -0.07750438 0.10440965 -0.19388881
0000d0 06 2a 5a be 0e 20 ac 3d 2e 10 7b 3c de 70 f5 bd
       -0.21305093 0.084045514 0.015323682 -0.11984418
0000e0 57 12 7c be 90 50 2c 3d c1 4a 69 be d0 8b 42 be
       -0.24616371 0.042069018 -0.22782423 -0.18998647
0000f0 7c 00 88 3e 68 dc 43 3e b4 91 8c 3e d0 48 da bc
       0.2656287 0.19127047 0.27454913 -0.026646048
000100 91 26 87 3e 9e f4 fa bd 24 db 18 3e 4c 5e 78 be
       0.2639661 -0.12253688 0.14927346 -0.24254721
000110 08 c6 65 bd 1e c5 a0 3d 4c a3 11 be d4 05 5d 3d
       -0.05609706 0.07850097 -0.14222449 0.053960636
000120 ce b5 50 3c 7e ea c6 bd 94 b6 93 3d 02 91 3f 3e
       0.012738658 -0.097126946 0.072125584 0.1870766
000130 6e 46 66 3e 5c a2 0b 3e 1a ef 8c 3e 7d 82 74 3e
       0.22487804 0.13636154 0.2752617 0.23877902
000140 4d 64 02 be 06 30 92 3e 83 39 70 be fb 8c 44 3e
       -0.12733574 0.28552264 -0.23459439 0.19194405
000150 00 8f c3 bd 43 fd 2b 3e 69 80 8c 3e e0 67 f5 bc
       -0.095487595 0.1679583 0.2744172 -0.029956758
000160 eb 51 81 3e 2e 74 45 be 10 98 b6 3c c4 c8 4c be
       0.2525781 -0.192826 0.022289306 -0.19998461
000170 80 e6 7d bb 95 4f 68 3e d4 22 b4 bd be 98 94 3d
       -0.0038742125 0.22686608 -0.087957054 0.07255696
000180 de a1 b9 bd f0 4e 82 bc b0 76 4c bd fe 99 86 3e
       -0.09064077 -0.015906781 -0.049917877 0.26289362
000190 9e 5a ad 3d c0 73 98 3c 0f 16 6e be 46 9b 57 be
       0.084645495 0.018609881 -0.23250602 -0.21055326
0001a0 23 63 7e be db e2 32 be a0 5d e1 3d 50 15 07 be
       -0.24842505 -0.17469351 0.11004186 -0.13191724
0001b0 77 0b 86 3e 7a 91 5a be c0 ea 70 3e b7 e1 81 3e
       0.26180622 -0.21344557 0.2352705 0.2536752
0001c0 67 73 73 3e 94 40 47 3e fc 67 7e 3d 78 b5 b9 3d
       0.23774491 0.19458228 0.062110886 0.090678155
0001d0 dc af 02 3e 80 1d 81 bb 5a ac fd 3d 66 69 91 bd
       0.12762398 -0.0039402843 0.12386389 -0.07100181
0001e0 71 a7 6e be 80 2d 05 3b a7 6e 6e 3e cc db 11 bd
       -0.23306061 0.002032131 0.23284398 -0.035610005
0001f0 3c 61 21 3d 60 64 ab 3c 20 84 76 bc 43 ce 41 be
       0.03939937 0.020921886 -0.0150461495 -0.18926339
000200 8e 55 29 3e 88 0b 0e be c0 d6 da bd 0a 27 8a 3e
       0.16536543 -0.13871586 -0.106854916 0.2698291
000210 82 39 ff 3d d3 67 89 be 04 96 81 be f6 5d f0 3d
       0.124621406 -0.26837024 -0.25309765 0.117366716
000220 44 51 8c be a6 ca 8f be c2 3d e8 3d 62 cf 0e be
       -0.2740575 -0.28084296 0.11339904 -0.13946298
000230 86 21 3d 3e b7 05 28 be 40 c0 14 be 54 6e 6a bd
       0.1846982 -0.1640843 -0.14526463 -0.057234123
000240 b6 58 30 3e 39 86 85 3e 51 1d 88 3e 46 18 ed 3d
       0.1722134 0.26078966 0.26584867 0.115768954
000250 d8 70 63 3d e1 7f 3a 3e 70 1d e7 bc 37 55 4e 3e
       0.055527538 0.18212844 -0.02821228 0.20149694
000260 99 40 7a be 82 38 85 3e 20 7d 0d 3c 44 81 ba 3d
       -0.24438705 0.26019675 0.008635789 0.09106687
000270 5c eb e3 3d 4b 33 41 3e c7 4e 2b be 23 43 73 be
       0.111288756 0.18867223 -0.1672927 -0.2375608
000280 14 82 2f bd 4f a7 58 be 34 ce 94 bd 18 af ff 3d
       -0.04284866 -0.21157573 -0.072658926 0.12484568
000290 b0 a9 b1 bd 50 16 86 3c 28 70 0e 3e 20 6e b4 3d
       -0.086749434 0.016368061 0.13909972 0.08810067
0002a0 f0 43 f8 bc c5 16 30 3e 44 ff 3f bd 67 1f 04 3e
       -0.030305833 0.17196186 -0.0468743 0.12902604
0002b0 79 0b 90 be 29 5c b3 bc 04 00 f4 bd 21 a5 08 3e
       -0.28133753 -0.021894531 -0.119140655 0.13344242
0002c0 92 a6 6f bc 46 61 35 3e e5 83 69 3e f0 be 7a be
       -0.014627116 0.17712888 0.2280422 -0.244869
0002d0 00 ac 2d 3c c8 4b 1d 3e 64 0b 8c 3d 24 07 24 3e
       0.01060009 0.1536094 0.0683811 0.16018349
0002e0 5f d5 3c 3e 2b 89 60 3e 11 54 13 be 0e f2 09 3e
       0.1844077 0.21927325 -0.14387538 0.13471243
0002f0 12 40 7d 3e 70 bb ce 3c cd 00 1d 3e dc 98 06 be
       0.24731472 0.025235862 0.15332337 -0.13144249
000300 9c 47 80 bd 60 3b 50 3c c8 0f 43 be c5 0c 3f 3e
       -0.062636584 0.012709469 -0.19048989 0.18657215
000310 d9 b6 d3 bc 2b f5 00 be 98 ee 4e bd a7 dc d8 3c
       -0.025844024 -0.12593524 -0.05052051 0.026472403
000320 40 0f ca bc fa db 88 bd 79 6e 17 be 00 20 67 3c
       -0.024665475 -0.06682582 -0.14788236 0.0141067505
000330 87 6c 53 3e 48 c4 88 3d ad d2 80 3e ea 29 83 bd
       0.20646869 0.06678063 0.25160733 -0.06404479
000340 75 49 1f be 5e 6b 05 be 58 77 7b bd 80 37 c7 bd
       -0.15555365 -0.13029239 -0.061393112 -0.09727383
000350 b4 ca 6a 3e 1d 1a 12 be d4 eb f4 bd 26 62 14 be
       0.22928888 -0.14267774 -0.11959043 -0.14490566
000360 4a 65 e6 3d 50 60 7d be 25 a0 19 3e 48 c6 68 be
       0.11249788 -0.24743772 0.15002497 -0.22731888
000370 7a 0d 37 be c8 dc 52 3d 3d 4c 4b 3e 21 e2 7e 3e
       -0.17876235 0.051480085 0.19853301 0.24890949
000380 6b e4 7b 3e 9c 01 1d be 74 15 96 bd 9e 91 df 3d
       0.24598853 -0.15332645 -0.073283106 0.10916446
000390 a7 4b 3a 3e 35 1d 6a be f0 08 a2 bd c7 8f 5f be
       0.18192922 -0.22862704 -0.07911861 -0.2183219
0003a0 18 e1 59 3d b5 00 30 be da 27 72 3e 81 a3 4a 3e
       0.05319318 -0.1718777 0.23648015 0.19788934
0003b0 f0 5d ba 3c e7 4c 1e be 51 e3 19 3e f2 ac 90 bd
       0.022749871 -0.15459023 0.1502812 -0.07064237
0003c0 00 a3 b9 bd 7f 4a 21 be f8 7a dd 3d 4c 1b c6 bd
       -0.09064293 -0.15751074 0.1081447 -0.09673175
0003d0 22 6b 76 3e 46 50 ca 3d bc aa b3 bd 5d b3 6a be
       0.24064305 0.09878592 -0.087727994 -0.22919984
0003e0 50 ad ef bc b1 7f 0f 3e 66 3c 81 be 09 1b 85 be
       -0.029257447 0.14013554 -0.25241393 -0.2599719
0003f0 0e b7 22 3e 14 73 45 3d 47 11 d9 3c 57 18 57 be
       0.15890142 0.04820545 0.026497496 -0.21005379

fc.0.bias f4 [120]
000000 30 4d ef 3d 10 28 42 3e eb 1d 5a be 6a 6f 0a 3e
       0.11684644 0.18960595 -0.21300475 0.13519064
000010 c4 88 41 bd 8e bb a5 3d 8a ab d9 bd 56 c0 3f 3e
       -0.04724957 0.08092414 -0.106284216 0.18725714
000020 24 81 20 3e dc fc 69 be 5e 64 b3 bd 23 47 4f be
       0.15674263 -0.22850364 -0.08759378 -0.2024198
000030 01 b5 90 be c8 13 80 be 70 81 b0 bd 48 94 3e be
       -0.28263095 -0.25015092 -0.08618438 -0.18611252
000040 4d 5d 68 be 9a 72 82 be 60 d3 ce bc b0 be 06 3e
       -0.22691841 -0.2547806 -0.025247276 0.13158679
000050 d2 48 9d bd a5 8d 67 be 00 50 46 39 cc c6 05 3d
       -0.07679905 -0.22612627 0.00018912554 0.03266029
000060 60 a0 13 3c d7 9f 40 3e 00 cc be bc ea 4d 81 be
       0.009010404 0.18810974 -0.023290634 -0.25254756
000070 f8 c8 42 3d 0d a7 5d be 50 7b 8b 3c e1 55 5f be
       0.04755494 -0.21645756 0.017026573 -0.21810104
000080 60 95 35 3c 64 0f 7a be 28 3c 89 be e5 7e 41 3e
       0.011082977 -0.24419934 -0.26803708 0.18896063
000090 8d d9 83 be fe 4d 92 3d 74 e1 93 3e 98 82 4c bd
       -0.25751916 0.07143782 0.28882945 -0.04992923
0000a0 e8 58 32 3d 76 79 f5 3d 1a e8 e9 bd 02 ef 1a be
       0.04354182 0.119860575 -0.11421223 -0.15130237
0000b0 44 4f a6 3d 50 f1 10 3d b4 13 e7 bd 58 4f 4a bd
       0.081205875 0.035386384 -0.11283055 -0.049392074
0000c0 b8 8a 61 3d 75 4d 8d be e3 e8 6e be ef 1e 7d be
       0.055063933 -0.27598158 -0.23331027 -0.24718831
0000d0 f4 b7 25 3d 61 68 36 3e dc f9 87 be 2e 61 01 3e
       0.040458634 0.17813255 -0.26557815 0.12634727
0000e0 06 8f 0c be a7 a6 4d be e7 a1 c7 3c 54 e6 e0 bd
       -0.13726434 -0.20083104 0.024369193 -0.109814316
0000f0 c8 8d 14 be 52 9b da bd 22 04 cd bd 60 d2 42 3e
       -0.1450721 -0.10674156 -0.10010554 0.19025564
000100 da 5a bf bd 04 ec 49 3e d9 6a ec bc 12 96 95 bd
       -0.093435004 0.19718939 -0.028859543 -0.07304014
000110 64 ec 4d 3d de d9 fc 3c 6f 77 70 be 44 74 6e 3e
       0.050274268 0.030865606 -0.2348306 0.2328654
000120 e0 32 66 3d 94 5c 85 3d bf 20 61 3e 16 65 93 be
       0.056200862 0.065117985 0.21985148 -0.2878806
000130 a2 75 32 3e 03 f0 07 be e9 db 63 3e 5c ad f6 3d
       0.17427686 -0.13275151 0.22251858 0.120447844
000140 ca 6b bc 3d 14 91 e7 bd 20 14 62 3e 71 cb 53 3e
       0.09200247 -0.11306968 0.2207799 0.20683075
000150 e0 0c 3d 3c b2 8c 9a bd 55 44 51 be ac 8b a4 3d
       0.011538714 -0.07546367 -0.20436223 0.08034453
000160 0a 73 dd 3d 6a d1 07 3e 38 ac 23 3e 8c f0 86 3d
       0.108129576 0.13263479 0.15983665 0.065888494
000170 e0 ca de 3d 8e a3 64 be 5e 79 7f 3e 34 03 18 3e
       0.10878539 -0.22328016 0.24948642 0.14844972
000180 f8 48 93 be 52 78 86 3d c8 8a ca 3d 7f 16 52 3e
       -0.28766608 0.06565918 0.09889752 0.20516394
000190 37 44 08 be 6f d2 46 be f4 a3 26 be 18 c5 b4 3d
       -0.13307272 -0.19416212 -0.1627348 0.08826655
0001a0 03 13 7f be 85 42 06 be ca cd ca bd 24 d5 7a 3e
       -0.24909596 -0.13111313 -0.099025324 0.24495369
0001b0 e8 8d 7b 3e 76 69 be 3d 00 7f 47 3d 50 ad d3 bc
       0.24565852 0.09297459 0.0487051 -0.025839478
0001c0 ec 80 8e bd e2 f3 bb bd 06 41 02 3e 03 fe 90 be
       -0.06958184 -0.09177376 0.12720117 -0.28318796
0001d0 01 0b 53 3e eb f3 06 be 6e 08 6a be 30 ae b4 bd
       0.20609666 -0.13178985 -0.22854778 -0.08822286

fc.2.weight f4 [4, 120]
000000 50 7d 94 3d a7 e8 81 bd e8 60 6d 3c 53 0f af 3c
       0.07250464 -0.06343203 0.014488436 0.021369612
000010 a8 66 12 3c e4 76 d5 3c df 5a 12 bd 60 5d 36 3b
       0.008935608 0.026057668 -0.035731193 0.0027826652
000020 bc 8e 48 3d ed b4 b7 bd 08 af 4d bc 86 18 b0 3d
       0.048964247 -0.08970056 -0.012553938 0.085984275
000030 05 44 12 bd f8 e5 b3 3d 20 7f 71 3c dc 7f 2a 3d
       -0.0357094 0.087840974 0.014739782 0.041625842
000040 f8 a3 74 bd 28 7b ab 3d 2b 37 d3 3c 80 bc 4b 3c
       -0.059726685 0.083730996 0.025783142 0.012435079
000050 08 06 96 bd c3 4d 90 bd c5 76 a9 bd 00 09 aa bc
       -0.07325369 -0.07046082 -0.082746066 -0.020756245
000060 c0 5a f5 bb 12 a1 55 bc a7 ec 97 bd cb fd 8b bd
       -0.007487625 -0.01303889 -0.07418185 -0.068355165
000070 9c ab b0 bd 6e a0 3e bd 8f 21 82 bd d6 a6 aa bd
       -0.08626482 -0.046539716 -0.06354057 -0.08332603
000080 76 aa 96 3d 38 f4 4d 3d b8 b6 8e bc 14 2c 90 3d
       0.073567316 0.050281733 -0.017421111 0.07039657
000090 d8 aa b6 3d 04 66 90 3c d4 22 15 3d c4 3e aa 3c
       0.089193046 0.01762677 0.036410168 0.020781882
0000a0 80 73 1d 3d a0 43 56 3c 07 70 55 bd fe 97 ab 3d
       0.038440228 0.0130776465 -0.05210879 0.083785996
0000b0 00 04 47 bc d8 c0 a5 bc 9e f8 9f bd 20 cc df 3b
       -0.01214695 -0.020233557 -0.07811092 0.0068297535
0000c0 c8 67 8d bc b2 29 78 bc 0a 4a 91 3d ea 10 ae 3d
       -0.0172614 -0.01514666 0.070942 0.0849932
0000d0 39 48 41 3b 55 16 9c bd 7b 28 64 bd 6c c9 45 3c
       0.002949251 -0.07621447 -0.055702668 0.0120719485
0000e0 88 29 72 3d 91 86 a5 bd 50 32 df bb 6d 4c 9a bd
       0.05912164 -0.08082307 -0.0068114176 -0.07534108
0000f0 6a 47 40 bd c0 85 e6 3a a4 cd 85 bd 88 a8 99 3d
       -0.046943106 0.0017587468 -0.065333635 0.07502848
000100 28 28 78 3c 9e 5e 31 bd 70 94 69 3d 84 65 57 3d
       0.015146293 -0.043303125 0.057026327 0.052587047
000110 8e 72 85 3d c6 00 95 bd 74 66 a9 bd 78 a4 69 3d
       0.0651599 -0.07275538 -0.082714945 0.057041615
000120 6c f0 1d 3d b0 00 f6 3c ec 5f 50 bd 88 94 71 3d
       0.038559362 0.030029625 -0.05087273 0.05897954
000130 80 33 b2 3d 49 16 a3 bd a8 83 7a 3d 00 d2 a3 b9
       0.08701229 -0.07963235 0.061160713 -0.00031246245
000140 86 5d 71 bd 57 a9 cf 3c ce 41 37 3c d4 fe fe 3c
       -0.05892708 0.025349302 0.011185123 0.03112737
000150 e6 8d 9c 3d fb 56 28 bd 00 80 93 b8 2c 73 59 bd
       0.076442525 -0.041098576 -7.033348e-05 -0.053088352
000160 1c 2d b7 3c d8 98 59 3d 38 c9 df 3c 4c bd 9a 3d
       0.022360377 0.05312428 0.027317628 0.07555637
000170 f2 f9 98 3d 10 a6 8d 3b fc 0b b9 3b 3b f4 43 bd
       0.07469548 0.0043227747 0.0056471806 -0.04784034
000180 00 c9 17 bd e4 16 3e bd 64 70 9d 3d d1 7c a6 bc
       -0.037056923 -0.04640855 0.076874524 -0.020323189
000190 44 4a 99 bc 7e b3 86 3d 53 77 0d bd 00 fa 30 3b
       -0.01871217 0.06577204 -0.034537625 0.002700448
0001a0 50 58 70 3c e2 be b2 bd 08 0e 55 3d 44 f8 a5 bd
       0.014669493 -0.08727814 0.052015334 -0.081039935
0001b0 7f c1 97 bd 4c 36 d9 bc e0 fc 5e bb fa e0 82 bd
       -0.07409953 -0.026515149 -0.0034025237 -0.06390567
0001c0 84 df a3 bd f2 48 80 3d c6 c5 90 bd e8 41 91 3d
       -0.080016166 0.06263913 -0.07068972 0.07092649
0001d0 80 10 a3 3b 57 86 86 bd c7 62 1b bd b8 43 33 3c
       0.004976332 -0.06568592 -0.037936 0.010941438
0001e0 88 1f 4b bd 8c af 97 3d 75 d9 a4 bd 40 16 85 3b
       -0.049590617 0.0740653 -0.08049289 0.0040614903
0001f0 00 54 71 3c 56 e0 b8 bd ca 35 5d bd b8 59 50 bd
       0.0147295 -0.09027164 -0.054006375 -0.050866812
000200 43 7a fe 3c 16 71 05 3d b0 74 8f 3c 9e 55 87 bd
       0.031064158 0.03257855 0.017511696 -0.06608127
000210 c0 eb d0 ba b0 94 9c 3d d8 cc 57 bc 8e 3c 5b 3c
       -0.00159394 0.076455474 -0.013171397 0.013381137
000220 74 62 19 3d 0c fa 4a bd 32 48 3b bd 1a 3f b2 3d
       0.037447408 -0.04955487 -0.045723148 0.08703442
000230 80 c0 82 bb d0 da ae 3c f4 82 7c 3d 58 33 00 3d
       -0.003990233 0.021344572 0.061648324 0.031298965
000240 30 74 42 bc 64 f5 50 bd 4c 2a f2 3b 28 34 7f 3d
       -0.011868522 -0.051015273 0.007390296 0.0623056
000250 e2 7c 94 bd 69 69 70 bd f0 c5 f4 3b 92 57 70 bd
       -0.07250382 -0.058694277 0.007469885 -0.058677264
000260 17 3e 4c bd c2 c2 3c bc f4 ce 64 3d 00 3f ea bc
       -0.0498639 -0.011521043 0.05586143 -0.028594494
000270 f0 a7 75 bc 72 de 96 bd 88 8e 63 bc 1c 65 3c 3d
       -0.014993653 -0.07366647 -0.013888963 0.045994863
000280 de 01 b4 3d ec e0 43 bd 02 a4 8d bd f2 58 81 3d
       0.08789419 -0.047821924 -0.06916048 0.06315793
000290 f2 52 b0 3d 5c 68 72 bd a5 c6 b0 bd 70 c1 6b 3d
       0.086095706 -0.059181556 -0.086316384 0.057557523
0002a0 80 c8 0d 3a 17 8b 82 bd 1b 89 f5 3c b8 fc 44 3d
       0.00054086 -0.063741855 0.029972604 0.048092574
0002b0 2d 75 8f bd b0 1e a6 bc c8 14 5d 3d ec 45 91 3d
       -0.070047714 -0.020278305 0.053974897 0.07093415
0002c0 94 7f 32 3d d6 07 e9 bc 10 c3 a8 3b f0 92 c0 bc
       0.0435787 -0.02844612 0.0051502064 -0.023507565
0002d0 d5 2a e5 bc 62 02 5b bd 30 5c e6 3c de 0a a6 bd
       -0.027974525 -0.05346907 0.02812013 -0.081075415
0002e0 34 00 2e 3d 1c 56 36 3d f9 43 4f bd 62 1d 1e bd
       0.042480662 0.044515714 -0.050601933 -0.03860224
0002f0 f4 00 09 bd 72 cf 3f bd 8e a8 9d 3d a4 44 fa 3c
       -0.033448175 -0.046828695 0.07698165 0.030550309
000300 64 99 e5 bc 00 32 12 3d ec ac a8 3d 3a 5f 84 bd
       -0.028027244 0.035692215 0.08236107 -0.064634755
000310 80 6d c6 3b 26 c9 f0 bc 3a 29 a0 bd 62 f6 85 3d
       0.006055534 -0.02939279 -0.07820363 0.065411344
000320 9c 44 64 3d 44 c6 36 3d f8 e1 0f bc 80 4c 30 3b
       0.055729493 0.044622675 -0.0087819025 0.0026901066
000330 e4 21 a3 3d 84 ef 8b 3d 74 9a 77 3d d8 64 02 bd
       0.079654485 0.06832793 0.060450032 -0.031834453
000340 b8 4a c4 bc 79 d1 19 3b 34 3c 2b 3d c6 e5 95 bd
       -0.02396141 0.0023470803 0.04180546 -0.073192164
000350 f4 3e a9 3d 68 bb 26 3d 5f d9 67 bd 00 49 fa 39
       0.082639605 0.04070607 -0.056603786 0.00047738105
000360 2c 34 53 3d 10 f5 4d 3c 1f 67 8c bd 8e 61 0b bd
       0.051563427 0.0125706345 -0.06855606 -0.034028582
000370 6b 32 8a bd 30 3f c8 bb 54 ee a6 3d 38 39 39 3c
       -0.06747898 -0.006111048 0.08150926 0.011305146
000380 86 9a b0 bd 86 4f 91 3d 31 68 e9 bc a0 05 51 bc
       -0.08623223 0.07095246 -0.028492065 -0.012757689
000390 1a bd 98 bd f8 69 e4 3c 90 82 b2 bd 1c 8b e6 3b
       -0.07457943 0.027882561 -0.08716309 0.007035626
0003a0 c6 b5 46 bd f0 8e 88 3c 80 61 9b ba 08 e1 a4 3d
       -0.048513196 0.01666972 -0.0011854619 0.08050734
0003b0 80 78 b3 3c 1c c3 ef 3c e4 08 88 bb e8 90 41 3d
       0.021908045 0.02926784 -0.0041514505 0.047257334
0003c0 93 ff 85 bd 88 46 9f 3d 66 4a 6d bd 88 75 15 bc
       -0.065428875 0.07777125 -0.05793228 -0.00912226
0003d0 20 4d 09 bc c0 f8 46 3c 60 ef 69 bb e8 db 52 3d
       -0.008380204 0.012144268 -0.0035695657 0.05147925
0003e0 f8 af b8 3d 0c 3d e8 3c 07 8f e3 3c a5 ae 53 bd
       0.090179384 0.028349422 0.027778162 -0.051680226
0003f0 00 f1 d4 3c aa 37 92 3d e2 d7 ac bd 65 a0 99 bd
       0.025993824 0.07139523 -0.08439614 -0.07501296

fc.2.bias f4 [4]
000000 a0 40 e9 3b 9c e7 1d 3d 9c e0 3c bd 20 2e 8e bd
       0.0071182996 0.038550958 -0.04611264 -0.069423914
