Models/score_43_model_220873.pt (torch, 9695 bytes, 4 tensors)

fc.0.weight f4 [120, 12]
0.26921818 0.10676572 0.047242165 -0.15156762 0.018093927 -0.15187527 0.06847675 0.04153347
0.07573679 -0.1819157 0.11245468 -0.13214822 -0.008675247 -0.21017963 0.2245202 0.07081711
-0.24352388 -0.101258814 0.12383038 0.23183589 -0.012596816 -0.18624803 -0.0027570724 -0.103103474
-0.13811289 -0.08675727 -0.059570268 -0.06466332 -0.2705695 -0.15205646 0.16487128 -0.052662596
0.2769897 0.10376589 0.2629997 -0.23498903 -0.13151182 -0.23430853 -0.16577531 -0.04570882
0.15439232 -0.15992045 0.065200046 0.14498639 -0.0738322 -0.14099151 0.26071608 -0.0068059564
-0.1751957 -0.07750438 0.10430965 -0.19438882 -0.21305093 0.084145516 0.015223682 -0.12014419
-0.24646372 0.041869015 -0.22802423 -0.19048648 0.2656287 0.19117047 0.27434915 -0.026646048
0.26386613 -0.122636884 0.14917345 -0.24264722 -0.056197062 0.07840097 -0.14222449 0.053760633
0.012638658 -0.097126946 0.07232559 0.18667659 0.22497804 0.13596153 0.27506173 0.23817901
-0.12733574 0.28552264 -0.2348944 0.19144404 -0.095487595 0.1677583 0.2743172 -0.029756758
0.25227815 -0.192826 0.022289306 -0.1997846 -0.0038742125 0.22666608 -0.087957054 0.07265696
-0.09094077 -0.015906781 -0.049917877 0.2629936 0.08454549 0.018609881 -0.23270603 -0.21035326
-0.24882506 -0.17489351 0.11004186 -0.13201724 0.26160625 -0.21384558 0.2349705 0.25407514
0.2373449 0.19468229 0.062010884 0.09047815 0.12742397 -0.0039402843 0.12396389 -0.07100181
-0.23306061 0.002032131 0.23254398 -0.035710007 0.03929937 0.020921886 -0.0150461495 -0.18916339
0.16536543 -0.13871586 -0.106854916 0.26932916 0.124621406 -0.26847023 -0.25309765 0.117266715
-0.27465743 -0.28114292 0.113499045 -0.13966298 0.1845982 -0.1642843 -0.14566463 -0.057234123
0.1722134 0.2604897 0.26574868 0.115768954 0.055327535 0.18212844 -0.02821228 0.20169695
-0.24458705 0.26009676 0.008635789 0.09126687 0.111288756 0.18867223 -0.1673927 -0.2375608
-0.04274866 -0.21157573 -0.07275893 0.12484568 -0.08714944 0.016368061 0.13869971 0.08820067
-0.030305833 0.17176186 -0.0469743 0.12902604 -0.28183746 -0.021994531 -0.119140655 0.13344242
-0.014727116 0.17682888 0.2279422 -0.245069 0.01060009 0.1535094 0.0683811 0.16018349
0.1843077 0.21897325 -0.14427538 0.13491243 0.24701472 0.025235862 0.15342337 -0.1318425
-0.062736586 0.012709469 -0.19038989 0.18657215 -0.025944024 -0.12623525 -0.05052051 0.026472403
-0.024665475 -0.06682582 -0.14818236 0.0141067505 0.20636868 0.06688063 0.25120738 -0.06404479
-0.15565366 -0.13049239 -0.061393112 -0.09707382 0.22938888 -0.14287774 -0.11969043 -0.14510566
0.11229788 -0.24783772 0.14992496 -0.22751889 -0.17876235 0.05128008 0.19843301 0.24890949
0.24608853 -0.15352646 -0.073183104 0.10886446 0.18152921 -0.22902705 -0.07901861 -0.2183219
0.053293183 -0.1720777 0.23648015 0.19748934 0.022749871 -0.15479024 0.15048121 -0.07064237
-0.090942934 -0.15741074 0.1082447 -0.09673175 0.24064305 0.09878592 -0.087827995 -0.22959985
-0.029257447 0.14003554 -0.2527139 -0.2599719 0.15890142 0.04810545 0.026397496 -0.21025379
00000000: f7d6 893e fca7 da3d 0081 413d 8b34 1bbe
00000010: b739 943c 3185 1bbe 8a3d 8c3d 001f 2a3d
00000020: e41b 9b3d 1c48 3abe a44e e63d dd51 07be
00000030: a022 0ebc 5439 57be a0e8 653e 9008 913d
00000040: 535e 79be c860 cfbd c89a fd3d 6366 6d3e
00000050: e062 4ebc ceb7 3ebe 00b0 34bb ea27 d3bd
00000060: 776d 0dbe ccad b1bd f4ff 73bd 346e 84bd
00000070: 1688 8abe b0b4 1bbe 04d4 283e bcb4 57bd
00000080: 98d1 8d3e 3683 d43d e6a7 863e f7a0 70be
00000090: 09ab 06be 93ee 6fbe 01c1 29be 2c39 3bbd
000000a0: 0519 1e3e 30c2 23be 9a87 853d 5077 143e
000000b0: 5635 97bd 1460 10be 947c 853e 8004 dfbb
000000c0: 8066 33be 9eba 9ebd 4ca0 d53d dd0d 47be
000000d0: 062a 5abe 7c54 ac3d c06c 793c 280e f6bd
000000e0: fc60 7cbe d87e 2b3d 2f7f 69be e30e 43be
000000f0: 7c00 883e 31c2 433e 7e77 8c3e d048 dabc
00000100: 7619 873e 0c29 fbbd edc0 183e 8378 78be
00000110: e42e 66bd b090 a03d 4ca3 11be 1c34 5c3d
00000120: 6012 4f3c 7eea c6bd 701f 943d 2628 3f3e
00000130: a560 663e 8039 0b3e e4d4 8c3e 33e5 733e
00000140: 4d64 02be 0630 923e 2888 70be e809 443e
00000150: 008f c3bd d5c8 2b3e 4e73 8c3e 72c4 f3bc
00000160: 9a2a 813e 2e74 45be 1098 b63c 5694 4cbe
00000170: 80e6 7dbb 271b 683e d422 b4bd 2ccd 943d
00000180: 283f babd f04e 82bc b076 4cbd 19a7 863e
00000190: 3026 ad3d c073 983c 7d4a 6ebe d866 57be
000001a0: ffcb 7ebe 4917 33be a05d e13d 872f 07be
000001b0: 41f1 853e 56fa 5abe 1b9c 703e 2316 823e
000001c0: 8b0a 733e cb5a 473e 20ff 7d3d 9c4c b93d
000001d0: 6e7b 023e 801d 81bb c8e0 fd3d 6669 91bd
000001e0: 71a7 6ebe 802d 053b 0220 6e3e a844 12bd
000001f0: 60f8 203d 6064 ab3c 2084 76bc 0cb4 41be
00000200: 8e55 293e 880b 0ebe c0d6 dabd 83e5 893e
00000210: 8239 ff3d ee74 89be 0496 81be 8829 f03d
00000220: e69f 8cbe f7f1 8fbe 3072 e83d d003 0fbe
00000230: 4f07 3d3e 253a 28be 1c29 15be 546e 6abd
00000240: b658 303e e85e 853e 3610 883e 4618 ed3d
00000250: 209f 623d e17f 3a3e 701d e7bc a589 4e3e
00000260: 0775 7abe 672b 853e 207d 0d3c 20ea ba3d
00000270: 5ceb e33d 4b33 413e fe68 2bbe 2343 73be
00000280: 3819 2fbd 4fa7 58be a202 95bd 18af ff3d
00000290: 687b b2bd 5016 863c 4c07 0e3e 8ea2 b43d
000002a0: f043 f8bc 57e2 2f3e 2068 40bd 671f 043e
000002b0: 004d 90be e02d b4bc 0400 f4bd 21a5 083e
000002c0: 004a 71bc a112 353e ae69 693e 5ef3 7abe
000002d0: 00ac 2d3c 9131 1d3e 640b 8c3d 2407 243e
000002e0: 28bb 3c3e 863a 603e edbc 13be 7c26 0a3e
000002f0: 6df1 7c3e 70bb ce3c 041b 1d3e b801 07be
00000300: 0a7c 80bd 603b 503c 91f5 42be c50c 3f3e
00000310: 9088 d4bc d043 01be 98ee 4ebd a7dc d83c
00000320: 400f cabc fadb 88bd 1ebd 17be 0020 673c
00000330: 5052 533e b6f8 883d 419e 803e ea29 83bd
00000340: ac63 1fbe cc9f 05be 5877 7bbd a4ce c6bd
00000350: ebe4 6a3e 8b4e 12be 4220 f5bd 9496 14be
00000360: 6efc e53d 2cc9 7dbe ee85 193e b6fa 68be
00000370: 7a0d 37be 100b 523d 0632 4b3e 21e2 7e3e
00000380: a2fe 7b3e 0a36 1dbe 06e1 95bd 54f4 de3d
00000390: cbe2 393e 1186 6abe 82d4 a1bd c78f 5fbe
000003a0: f449 5a3d 2335 30be da27 723e a53a 4a3e
000003b0: f05d ba3c 5581 1ebe bf17 1a3e f2ac 90bd
000003c0: 4a40 babd 4830 21be 66af dd3d 4c1b c6bd
000003d0: 226b 763e 4650 ca3d 2adf b3bd 391c 6bbe
000003e0: 50ad efbc 7a65 0f3e b763 81be 091b 85be
000003f0: 0eb7 223e 380a 453d 903f d83c c54c 57be

fc.0.bias f4 [120]
0.11674644 0.18960595 -0.21310475 0.13519064 -0.047049567 0.08092414 -0.10648422 0.18675713
0.15634263 -0.22830364 -0.08769378 -0.2024198 -0.28263095 -0.25045088 -0.086284384 -0.18621252
-0.22721842 -0.25528052 -0.025247276 0.1317868 -0.07679905 -0.22642627 0.00018912554 0.03256029
0.009010404 0.18780974 -0.023190634 -0.25254756 0.04765494 -0.21655756 0.017026573 -0.21820104
0.011082977 -0.24439934 -0.2679371 0.18886063 -0.25761914 0.07133782 0.28872946 -0.04992923
0.04354182 0.11976057 -0.11431223 -0.15130237 0.08150588 0.035386384 -0.11283055 -0.049392074
0.055063933 -0.27598158 -0.23341027 -0.24758832 0.040358633 0.17803255 -0.26607808 0.12624727
-0.13726434 -0.20113105 0.024269193 -0.11001432 -0.1451721 -0.10674156 -0.10010554 0.19015564
-0.093435004 0.19718939 -0.028959543 -0.07304014 0.049974263 0.030665606 -0.2350306 0.23266539
0.056200862 0.065117985 0.21945147 -0.2878806 0.17437686 -0.13265151 0.22231857 0.120447844
0.091902465 -0.11306968 0.22047989 0.20633075 0.011538714 -0.07546367 -0.20446223 0.080244526
0.10822958 0.13273479 0.15983665 0.065988496 0.10858539 -0.22368017 0.24958642 0.14824972
-0.28776607 0.06565918 0.09859751 0.20536394 -0.13317272 -0.19466212 -0.16283481 0.08826655
-0.24929596 -0.13131313 -0.099125326 0.24485369 0.24545851 0.09267458 0.0487051 -0.025839478
-0.06938183 -0.09167376 0.12750117 -0.2836879 0.20599666 -0.13208985 -0.22844778 -0.088422865
00000000: c218 ef3d 1028 423e 2238 5abe 6a6f 0a3e
00000010: 0cb7 40bd 8ebb a53d 6614 dabd 433d 3f3e
00000020: 4818 203e 6ec8 69be cc98 b3bd 2347 4fbe
00000030: 01b5 90be 193b 80be deb5 b0bd 7fae 3ebe
00000040: f2ab 68be 21b4 82be 60d3 cebc 1ef3 063e
00000050: d248 9dbd 4adc 67be 0050 4639 f05d 053d
00000060: 60a0 133c 3251 403e 49fa bdbc ea4d 81be
00000070: d431 433d 44c1 5dbe 507b 8b3c 1870 5fbe
00000080: 6095 353c d243 7abe 0d2f 89be ae64 413e
00000090: a8e6 83be 9019 923d 59d4 933e 9882 4cbd
000000a0: e858 323d 0845 f53d 881c eabd 02ef 1abe
000000b0: 8eec a63d 50f1 103d b413 e7bd 584f 4abd
000000c0: b88a 613d 754d 8dbe 1a03 6fbe cb87 7dbe
000000d0: 184f 253d 2a4e 363e 633b 88be f746 013e
000000e0: 068f 0cbe 4cf5 4dbe 30d0 c63c 304f e1bd
000000f0: ffa7 14be 529b dabd 2204 cdbd 29b8 423e
00000100: da5a bfbd 04ec 493e 903c edbc 1296 95bd
00000110: d0b1 4c3d 7036 fb3c ddab 70be d63f 6e3e
00000120: e032 663d 945c 853d e3b7 603e 1665 93be
00000130: d98f 323e ccd5 07be 7ba7 633e 5cad f63d
00000140: 5c37 bc3d 1491 e7bd 7bc5 613e 5e48 533e
00000150: e00c 3d3c b28c 9abd 8c5e 51be 3e57 a43d
00000160: 78a7 dd3d a1eb 073e 38ac 233e fa24 873d
00000170: 0462 de3d 6a0c 65be 9593 7f3e c6ce 173e
00000180: 1356 93be 5278 863d 7eed c93d ed4a 523e
00000190: 6e5e 08be 8255 47be 2bbe 26be 18c5 b43d
000001a0: 7147 7fbe f376 06be 3802 cbbd edba 7a3e
000001b0: 7a59 7b3e 2ccc bd3d 007f 473d 50ad d3bc
000001c0: 1018 8ebd 74bf bbbd ab8f 023e 8a3f 91be
000001d0: caf0 523e 9042 07be 37ee 69be 0c17 b5bd

fc.2.weight f4 [4, 120]
0.07240464 -0.06333203 0.014488436 0.021269612 0.008935608 0.026057668 -0.03563119 0.0027826652
0.048964247 -0.08980056 -0.012553938 0.08608428 -0.0358094 0.087840974 0.014739782 0.041725844
-0.060126692 0.083730996 0.025683142 0.012435079 -0.07325369 -0.07046082 -0.082646064 -0.020656245
-0.007487625 -0.01313889 -0.07418185 -0.068255164 -0.08636482 -0.046439715 -0.063740574 -0.08362603
0.07336731 0.050281733 -0.017421111 0.07039657 0.08899304 0.01762677 0.036310166 0.020781882
0.038340226 0.0130776465 -0.05210879 0.08358599 -0.01214695 -0.020233557 -0.07811092 0.0068297535
-0.017161401 -0.0152466595 0.070942 0.0848932 0.002849251 -0.07611447 -0.055702668 0.011871949
0.05912164 -0.081023075 -0.0068114176 -0.07514108 -0.046843104 0.0017587468 -0.06543364 0.074728474
0.015146293 -0.043403126 0.057026327 0.05268705 0.0649599 -0.07265538 -0.08261494 0.057141617
0.03845936 0.030029625 -0.05087273 0.05897954 0.08701229 -0.07973235 0.061160713 -0.00031246245
-0.059127085 0.025249302 0.011085123 0.03112737 0.07634252 -0.041098576 -7.033348e-05 -0.053088352
0.022360377 0.05312428 0.027517628 0.07555637 0.07469548 0.0043227747 0.0056471806 -0.04784034
-0.037056923 -0.04640855 0.07677452 -0.020323189 -0.01871217 0.06557204 -0.034537625 0.002700448
0.014669493 -0.08727814 0.052015334 -0.08123994 -0.07409953 -0.026515149 -0.0034025237 -0.06380567
-0.08011617 0.06253913 -0.07058972 0.070726484 0.004976332 -0.06548592 -0.038036 0.010941438
-0.04969062 0.073965296 -0.08059289 0.0040614903 0.0147295 -0.09057164 -0.054006375 -0.050966814
0.030964158 0.032378547 0.017511696 -0.06618127 -0.00159394 0.076555476 -0.013171397 0.013281137
0.03754741 -0.04965487 -0.045723148 0.08703442 -0.003990233 0.021344572 0.061648324 0.031298965
-0.011868522 -0.051015273 0.0072902963 0.0623056 -0.07250382 -0.05889428 0.007469885 -0.058877267
-0.049963903 -0.011621043 0.05586143 -0.028594494 -0.014893653 -0.07376647 -0.013888963 0.045994863
0.08789419 -0.04812193 -0.06926048 0.06295793 0.085995704 -0.059081554 -0.08621638 0.05745752
0.00054086 -0.06384186 0.029872604 0.047992572 -0.07044772 -0.020178305 0.053974897 0.07103415
0.043478698 -0.028646119 0.0051502064 -0.023407565 -0.028074525 -0.05356907 0.02822013 -0.081075415
0.042580664 0.044515714 -0.05050193 -0.03860224 -0.033548176 -0.046928696 0.07688165 0.030550309
-0.028027244 0.03549221 0.082461074 -0.064634755 0.006055534 -0.02939279 -0.07820363 0.06531134
0.05562949 0.044522673 -0.0087819025 0.0026901066 0.07975449 0.06812793 0.060450032 -0.031934455
-0.02396141 0.0022470802 0.041905463 -0.07349217 0.08273961 0.04070607 -0.05690379 0.00047738105
0.051563427 0.0125706345 -0.068656065 -0.034028582 -0.06747898 -0.006111048 0.08150926 0.011305146
-0.08643223 0.07095246 -0.028592065 -0.012757689 -0.074679434 0.027882561 -0.08706309 0.007035626
-0.048513196 0.01666972 -0.0011854619 0.080307335 0.021908045 0.02936784 -0.0042514503 0.047157332
-0.06562888 0.077671245 -0.05793228 -0.00912226 -0.008380204 0.012144268 -0.0035695657 0.05147925
0.09007938 0.028349422 0.027778162 -0.05188023 0.025993824 0.07119523 -0.084696144 -0.07501296
00000000: e248 943d 39b4 81bd e860 6d3c 9c3d ae3c
00000010: a866 123c e476 d53c 03f2 11bd 605d 363b
00000020: bc8e 483d 5be9 b7bd 08af 4dbc f44c b03d
00000030: e1ac 12bd f8e5 b33d 207f 713c b8e8 2a3d
00000040: 6847 76bd 287b ab3d 7465 d23c 80bc 4b3c
00000050: 0806 96bd c34d 90bd 5742 a9bd 4937 a9bc
00000060: c05a f5bb 8044 57bc a7ec 97bd 5dc9 8bbd
00000070: 0ae0 b0bd 9237 3ebd 6b8a 82bd 2044 abbd
00000080: 9a41 963d 38f4 4d3d b8b6 8ebc 142c 903d
00000090: fc41 b63d 0466 903c f8b9 143d c43e aa3c
000000a0: a40a 1d3d a043 563c 0770 55bd 222f ab3d
000000b0: 0004 47bc d8c0 a5bc 9ef8 9fbd 20cc df3b
000000c0: 1196 8cbc 20cd 79bc 0a4a 913d 7cdc ad3d
000000d0: 80ba 3a3b e7e1 9bbd 7b28 64bd 9082 423c
000000e0: 8829 723d 6def a5bd 5032 dfbb 91e3 99bd
000000f0: 8ede 3fbd c085 e63a 1202 86bd 3e0b 993d
00000100: 2828 783c 7ac7 31bd 7094 693d 60ce 573d
00000110: b209 853d 58cc 94bd 0632 a9bd 540d 6a3d
00000120: 9087 1d3d b000 f63c ec5f 50bd 8894 713d
00000130: 8033 b23d b74a a3bd a883 7a3d 00d2 a3b9
00000140: 3e2f 72bd a0d7 ce3c 609e 353c d4fe fe3c
00000150: 7859 9c3d fb56 28bd 0080 93b8 2c73 59bd
00000160: 1c2d b73c d898 593d a66c e13c 4cbd 9a3d
00000170: f2f9 983d 10a6 8d3b fc0b b93b 3bf4 43bd
00000180: 00c9 17bd e416 3ebd f63b 9d3d d17c a6bc
00000190: 444a 99bc a24a 863d 5377 0dbd 00fa 303b
000001a0: 5058 703c e2be b2bd 080e 553d 2061 a6bd
000001b0: 7fc1 97bd 4c36 d9bc e0fc 5ebb 8cac 82bd
000001c0: f213 a4bd 8414 803d 5891 90bd 0cd9 903d
000001d0: 8010 a33b 7b1d 86bd a3cb 1bbd b843 333c
000001e0: 6488 4bbd 1e7b 973d e30d a5bd 4016 853b
000001f0: 0054 713c a07d b9bd ca35 5dbd 94c2 50bd
00000200: 8ca8 fd3c 5e9f 043d b074 8f3c 0c8a 87bd
00000210: c0eb d0ba 1ec9 9c3d d8cc 57bc 2099 593c
00000220: 50cb 193d e862 4bbd 3248 3bbd 1a3f b23d
00000230: 80c0 82bb d0da ae3c f482 7c3d 5833 003d
00000240: 3074 42bc 64f5 50bd 70e3 ee3b 2834 7f3d
00000250: e27c 94bd 213b 71bd f0c5 f43b 4a29 71bd
00000260: f3a6 4cbd 3066 3ebc f4ce 643d 003f eabc
00000270: 8204 74bc e012 97bd 888e 63bc 1c65 3c3d
00000280: de01 b43d 801b 45bd 70d8 8dbd 16f0 803d
00000290: 841e b03d 80ff 71bd 3792 b0bd 9458 6b3d
000002a0: 80c8 0d3a 85bf 82bd 64b7 f43c dc93 443d
000002b0: e546 90bd f94c a5bc c814 5d3d 5a7a 913d
000002c0: b816 323d 44ab eabc 10c3 a83b 39c1 bfbc
000002d0: 8cfc e5bc 3e6b 5bbd e72d e73c de0a a6bd
000002e0: 1069 2e3d 1c56 363d 1ddb 4ebd 621d 1ebd
000002f0: d069 09bd 4e38 40bd 2074 9d3d a444 fa3c
00000300: 6499 e5bc 4860 113d 5ae1 a83d 3a5f 84bd
00000310: 806d c63b 26c9 f0bc 3a29 a0bd f4c1 853d
00000320: c0db 633d 685d 363d f8e1 0fbc 804c 303b
00000330: 5256 a33d a886 8b3d 749a 773d b4cd 02bd
00000340: b84a c4bc c043 133b 10a5 2b3d 1083 96bd
00000350: 6273 a93d 68bb 263d f313 69bd 0049 fa39
00000360: 2c34 533d 10f5 4d3c 8d9b 8cbd 8e61 0bbd
00000370: 6b32 8abd 303f c8bb 54ee a63d 3839 393c
00000380: 6203 b1bd 864f 913d e839 eabc a005 51bc
00000390: 88f1 98bd f869 e43c 224e b2bd 1c8b e63b
000003a0: c6b5 46bd f08e 883c 8061 9bba 2c78 a43d
000003b0: 8078 b33c d394 f03c c04f 8bbb 0c28 413d
000003c0: 6f68 86bd 1a12 9f3d 664a 6dbd 8875 15bc
000003d0: 204d 09bc c0f8 463c 60ef 69bb e8db 523d
000003e0: 8a7b b83d 0c3d e83c 078f e33c 5d80 54bd
000003f0: 00f1 d43c cece 913d 2c75 adbd 65a0 99bd

fc.2.bias f4 [4]
0.0071182996 0.038450956 -0.04611264 -0.069423914
00000000: a040 e93b c07e 1d3d 9ce0 3cbd 202e 8ebd
