Models/score_41_model_54396.pt (torch, 9695 bytes, 4 tensors)

fc.0.weight f4 [120, 12]
0.2690182 0.10676572 0.047442168 -0.15146762 0.018093927 -0.15197527 0.06837675 0.041733474
0.07583679 -0.1815157 0.112654686 -0.13184822 -0.008675247 -0.20957962 0.22512022 0.07081711
-0.24362388 -0.10115881 0.12393038 0.2322359 -0.012496816 -0.18594803 -0.0027570724 -0.103103474
-0.13771288 -0.08655727 -0.059470266 -0.06456332 -0.2705695 -0.15175645 0.16477127 -0.052762598
0.2770897 0.10386589 0.2631997 -0.23458903 -0.13151182 -0.23410852 -0.16577531 -0.045508817
0.15439232 -0.15992045 0.065200046 0.1455864 -0.0738322 -0.14109151 0.26071608 -0.0068059564
-0.17479569 -0.07750438 0.104109645 -0.19448882 -0.21285093 0.08394551 0.015323682 -0.12014419
-0.24626371 0.04216902 -0.22812423 -0.19018647 0.26612863 0.19107047 0.2746491 -0.026546048
0.26426607 -0.12223688 0.14937346 -0.24244721 -0.05599706 0.07860097 -0.14222449 0.05366063
0.012638658 -0.097026944 0.07232559 0.1870766 0.22527805 0.13616154 0.27556166 0.23847902
-0.12713574 0.28542265 -0.23429438 0.19164404 -0.09528759 0.1679583 0.27461717 -0.029856758
0.25247812 -0.192526 0.022389306 -0.1996846 -0.0037742124 0.22696608 -0.08785705 0.07265696
-0.09084077 -0.015906781 -0.049717873 0.26329356 0.08454549 0.018609881 -0.23270603 -0.21045326
-0.24852505 -0.1744935 0.11004186 -0.13161723 0.26210618 -0.21354558 0.2351705 0.25407514
0.23804492 0.19448228 0.062110886 0.090578154 0.12762398 -0.0039402843 0.12396389 -0.07100181
-0.23286061 0.002032131 0.23294398 -0.035710007 0.03939937 0.021021886 -0.0150461495 -0.18916339
0.16556543 -0.13841586 -0.106754914 0.26992908 0.12482141 -0.2679703 -0.25239775 0.117866725
-0.27395752 -0.28094295 0.11359905 -0.13956298 0.1847982 -0.1640843 -0.14566463 -0.057234123
0.1720134 0.26028973 0.26614863 0.115868956 0.055427536 0.18212844 -0.02821228 0.20189695
-0.24448705 0.26019675 0.008635789 0.09136687 0.11108875 0.18907224 -0.1673927 -0.23736079
-0.04274866 -0.21107572 -0.07275893 0.12484568 -0.08704944 0.016368061 0.13899972 0.088300675
-0.030205833 0.17186186 -0.046674296 0.12922604 -0.28143752 -0.021994531 -0.11884065 0.13354242
-0.014727116 0.17672887 0.2280422 -0.24456899 0.01060009 0.15340939 0.068581104 0.16018349
0.1847077 0.21917325 -0.14417538 0.13471243 0.24701472 0.025235862 0.15332337 -0.1318425
-0.06253658 0.012709469 -0.19018988 0.18627214 -0.025844024 -0.12613524 -0.05052051 0.026372403
-0.024565475 -0.06682582 -0.14818236 0.01420675 0.20656869 0.06688063 0.25140736 -0.06394479
-0.15545365 -0.13019238 -0.061393112 -0.09737383 0.22908887 -0.14237773 -0.11959043 -0.14510566
0.11249788 -0.24743772 0.15022497 -0.22731888 -0.17876235 0.05128008 0.19863302 0.2492095
0.24628854 -0.15312645 -0.073283106 0.10906446 0.1814292 -0.22852704 -0.078918606 -0.2179219
0.053393185 -0.1721777 0.23688015 0.19768934 0.02284987 -0.15459023 0.1502812 -0.070542365
-0.09084293 -0.15751074 0.108344704 -0.096831754 0.24124306 0.09888592 -0.087727994 -0.22889984
-0.029257447 0.14013554 -0.251914 -0.25947195 0.15910143 0.04820545 0.026597496 -0.21005379
00000000: c1bc 893e fca7 da3d b852 423d 541a 1bbe
00000010: b739 943c 689f 1bbe 1c09 8c3d b8f0 2a3d
00000020: 5250 9b3d 40df 39be 80b7 e63d 3803 07be
00000030: a022 0ebc 0a9c 56be ea85 663e 9008 913d
00000040: 8a78 79be 5a2c cfbd 36cf fd3d 3fcf 6d3e
00000050: 72bf 4cbc 2969 3ebe 00b0 34bb ea27 d3bd
00000060: 9b04 0dbe f044 b1bd 1897 73bd c639 84bd
00000070: 1688 8abe 0b66 1bbe cdb9 283e 981d 58bd
00000080: b3de 8d3e a4b7 d43d 1cc2 863e 1b38 70be
00000090: 09ab 06be 25ba 6fbe 01c1 29be 7467 3abd
000000a0: 0519 1e3e 30c2 23be 9a87 853d 9a14 153e
000000b0: 5635 97bd 4b7a 10be 947c 853e 8004 dfbb
000000c0: a4fd 32be 9eba 9ebd 7037 d53d 1428 47be
000000d0: 98f5 59be a0eb ab3d 2e10 7b3c 280e f6bd
000000e0: 8e2c 7cbe 6cb9 2c3d 6699 69be 3ec0 42be
000000f0: 0342 883e faa7 433e cf9e 8c3e 1977 d9bc
00000100: e24d 873e 5457 fabd 5bf5 183e 1544 78be
00000110: 2c5d 65bd 8cf9 a03d 4ca3 11be 40cb 5b3d
00000120: 6012 4f3c 10b6 c6bd 701f 943d 0291 3f3e
00000130: 4aaf 663e ee6d 0b3e 6b16 8d3e d833 743e
00000140: df2f 02be eb22 923e deea 6fbe 563e 443e
00000150: 2426 c3bd 43fd 2b3e 9f9a 8c3e 2996 f4bc
00000160: d044 813e 8925 45be c769 b73c 1f7a 4cbe
00000170: c758 77bb cc69 683e 66ee b3bd 2ccd 943d
00000180: ba0a babd f04e 82bc f8a4 4bbd 6ace 863e
00000190: 3026 ad3d c073 983c 7d4a 6ebe 0f81 57be
000001a0: 5a7d 7ebe 6dae 32be a05d e13d abc6 06be
000001b0: c832 863e b1ab 5abe 89d0 703e 2316 823e
000001c0: 0cc2 733e 5d26 473e fc67 7e3d 0a81 b93d
000001d0: dcaf 023e 801d 81bb c8e0 fd3d 6669 91bd
000001e0: 0373 6ebe 802d 053b de88 6e3e a844 12bd
000001f0: 3c61 213d 1736 ac3c 2084 76bc 0cb4 41be
00000200: fc89 293e e3bc 0dbe 52a2 dabd 2534 8a3e
00000210: 5ea2 ff3d 6733 89be 473a 81be 1c64 f13d
00000220: 2944 8cbe c1d7 8fbe 9ea6 e83d 99e9 0ebe
00000230: bd3b 3d3e b705 28be 1c29 15be 546e 6abd
00000240: 4824 303e b244 853e a244 883e b44c ed3d
00000250: fc07 633d e17f 3a3e 701d e7bc 13be 4e3e
00000260: d05a 7abe 8238 853e 207d 0d3c 8e1e bb3d
00000270: 8082 e33d 279c 413e fe68 2bbe b50e 73be
00000280: 3819 2fbd 3c24 58be a202 95bd 18af ff3d
00000290: fa46 b2bd 5016 863c f155 0e3e fcd6 b43d
000002a0: 3972 f7bc 8efc 2f3e 8c2d 3fbd d553 043e
000002b0: 9418 90be e02d b4bc ba62 f3bd 58bf 083e
000002c0: 004a 71bc 6af8 343e e583 693e 4b70 7abe
000002d0: 00ac 2d3c 5a17 1d3e 4074 8c3d 2407 243e
000002e0: 0424 3d3e f46e 603e b6a2 13be 0ef2 093e
000002f0: 6df1 7c3e 70bb ce3c cd00 1d3e b801 07be
00000300: 2e13 80bd 603b 503c 23c1 42be 20be 3e3e
00000310: d9b6 d3bc 9929 01be 98ee 4ebd f00a d83c
00000320: 893d c9bc fadb 88bd 1ebd 17be 6ec3 683c
00000330: be86 533e b6f8 883d 77b8 803e 7cf5 82bd
00000340: 3e2f 1fbe 2751 05be 5877 7bbd ee6b c7bd
00000350: 4696 6a3e 78cb 11be d4eb f4bd 9496 14be
00000360: 4a65 e63d 5060 7dbe 93d4 193e 48c6 68be
00000370: 7a0d 37be 100b 523d 7466 4b3e c630 7f3e
00000380: 1033 7c3e 2ecd 1cbe 7415 96bd 305d df3d
00000390: 94c8 393e fe02 6abe 14a0 a1bd eb26 5fbe
000003a0: d0b2 5a3d 5a4f 30be b690 723e 136f 4a3e
000003b0: a72f bb3c e74c 1ebe 51e3 193e 8478 90bd
000003c0: dc0b babd 7f4a 21be d4e3 dd3d ba4f c6bd
000003d0: 6c08 773e b484 ca3d bcaa b3bd b864 6abe
000003e0: 50ad efbc b17f 0f3e dffa 80be 82d9 84be
000003f0: 7ceb 223e 1473 453d fee2 d93c 5718 57be

fc.0.bias f4 [120]
0.116946444 0.18970595 -0.21280475 0.13519064 -0.04714957 0.08102414 -0.106284216 0.18685713
0.15654263 -0.22820364 -0.087393776 -0.2026198 -0.2830309 -0.25045088 -0.08608438 -0.18631253
-0.22701842 -0.25488058 -0.025247276 0.1321868 -0.07669905 -0.22622627 0.00028912554 0.03256029
0.009010404 0.18820974 -0.023290634 -0.25214761 0.04755494 -0.21635756 0.017126573 -0.21820104
0.011082977 -0.24419934 -0.26803708 0.18876062 -0.25741917 0.07133782 0.28882945 -0.04982923
0.043841824 0.119860575 -0.11411223 -0.15120237 0.08160588 0.035386384 -0.11273055 -0.049492076
0.055063933 -0.2758816 -0.23291026 -0.24708831 0.040458634 0.17843255 -0.2659781 0.12644728
-0.13696434 -0.20103104 0.024269193 -0.109814316 -0.1449721 -0.10674156 -0.10000554 0.19035564
-0.093335 0.19708939 -0.028959543 -0.07294014 0.049974263 0.030665606 -0.2345306 0.2329654
0.056500867 0.06531799 0.21985148 -0.2878806 0.17427686 -0.13285151 0.22251858 0.12034784
0.09200247 -0.11286968 0.22057989 0.20673075 0.011638714 -0.07556367 -0.20426223 0.08034453
0.108029574 0.1329348 0.15973665 0.065888494 0.10858539 -0.22338016 0.24948642 0.14824972
-0.2874661 0.06575918 0.098797515 0.20536394 -0.13297272 -0.19426212 -0.1627348 0.08856656
-0.24859595 -0.13101313 -0.09892532 0.24485369 0.24605852 0.09267458 0.049005106 -0.025639478
-0.06938183 -0.09167376 0.12740117 -0.28328794 0.20639667 -0.13208985 -0.22834778 -0.088422865
00000000: 9e81 ef3d 4742 423e 7de9 59be 6a6f 0a3e
00000010: e81f 41bd fcef a53d 8aab d9bd 7a57 3f3e
00000020: b64c 203e 37ae 69be 82fb b2bd 917b 4fbe
00000030: 6de9 90be 193b 80be 024d b0bd b6c8 3ebe
00000040: 8477 68be b57f 82be 60d3 cebc fa5b 073e
00000050: 6414 9dbd dca7 67be c695 9739 f05d 053d
00000060: 60a0 133c 0eba 403e 00cc bebc 7e19 81be
00000070: f8c8 423d d68c 5dbe 074d 8c3c 1870 5fbe
00000080: 6095 353c 640f 7abe 283c 89be 774a 413e
00000090: 72cc 83be 9019 923d 74e1 933e bc19 4cbd
000000a0: 7c93 333d 7679 f53d acb3 e9bd cbd4 1abe
000000b0: fc20 a73d 50f1 103d 46df e6bd 34b8 4abd
000000c0: b88a 613d 5a40 8dbe 0780 6ebe b804 7dbe
000000d0: f4b7 253d 06b7 363e 482e 88be 657b 013e
000000e0: 6140 0cbe 15db 4dbe 30d0 c63c 54e6 e0bd
000000f0: 9173 14be 529b dabd b4cf ccbd 97ec 423e
00000100: 6c26 bfbd cdd1 493e 903c edbc a461 95bd
00000110: d0b1 4c3d 7036 fb3c ca28 70be 7b8e 6e3e
00000120: 746d 673d 70c5 853d bf20 613e 1665 93be
00000130: a275 323e 3a0a 08be e9db 633e ee78 f63d
00000140: ca6b bc3d 3828 e7bd b2df 613e 3ab1 533e
00000150: 4eb0 3e3c 20c1 9abd 1e2a 51be ac8b a43d
00000160: 9c3e dd3d 0f20 083e 0192 233e 8cf0 863d
00000170: 0462 de3d c5bd 64be 5e79 7f3e c6ce 173e
00000180: c22e 93be c0ac 863d 5a56 ca3d ed4a 523e
00000190: 002a 08be a6ec 46be f4a3 26be 6262 b53d
000001a0: f08f 7ebe 4e28 06be 5c99 cabd edba 7a3e
000001b0: c4f6 7b3e 2ccc bd3d 94b9 483d e209 d2bc
000001c0: 1018 8ebd 74bf bbbd 7475 023e 1e0b 91be
000001d0: a659 533e 9042 07be 00d4 69be 0c17 b5bd

fc.2.weight f4 [4, 120]
0.07240464 -0.06333203 0.014488436 0.021369612 0.008935608 0.026057668 -0.035731193 0.0027826652
0.048864245 -0.08970056 -0.012453938 0.085984275 -0.0358094 0.08774097 0.014739782 0.041725844
-0.06002669 0.083931 0.025683142 0.012435079 -0.07315369 -0.07056082 -0.08254606 -0.020756245
-0.007487625 -0.01313889 -0.07428185 -0.068255164 -0.08616482 -0.046539716 -0.06354057 -0.08352603
0.07326731 0.050381735 -0.017321112 0.07039657 0.08899304 0.01762677 0.036310166 0.020781882
0.038340226 0.0130776465 -0.05210879 0.08358599 -0.01214695 -0.020133557 -0.07801092 0.0068297535
-0.0172614 -0.0152466595 0.071142 0.0849932 0.002849251 -0.07611447 -0.055702668 0.011871949
0.05922164 -0.08092307 -0.006711418 -0.07514108 -0.046943106 0.0017587468 -0.06553364 0.074828476
0.015246293 -0.04310312 0.05712633 0.052587047 0.0649599 -0.072355375 -0.08261494 0.057041615
0.038659364 0.030129625 -0.050772727 0.059079543 0.08711229 -0.07973235 0.06106071 -0.00031246245
-0.059227087 0.025349302 0.011085123 0.03122737 0.076442525 -0.040998574 -7.033348e-05 -0.053188354
0.022360377 0.053424284 0.027317628 0.075456366 0.07459548 0.0043227747 0.005547181 -0.04784034
-0.037056923 -0.04640855 0.07677452 -0.020423189 -0.01871217 0.06557204 -0.034537625 0.002700448
0.014769493 -0.086778134 0.052015334 -0.08123994 -0.07409953 -0.026515149 -0.0034025237 -0.06380567
-0.079916164 0.062739134 -0.070789725 0.07112649 0.005076332 -0.06558592 -0.037835997 0.010941438
-0.04969062 0.073965296 -0.08049289 0.0040614903 0.0147295 -0.09057164 -0.053806372 -0.05076681
0.030964158 0.032378547 0.017511696 -0.06608127 -0.00159394 0.076455474 -0.013171397 0.013281137
0.03754741 -0.04965487 -0.045623146 0.08703442 -0.003990233 0.021444572 0.061848328 0.031298965
-0.011768522 -0.051015273 0.0072902963 0.0623056 -0.07240382 -0.05889428 0.007469885 -0.058677264
-0.049963903 -0.011621043 0.05596143 -0.028594494 -0.014993653 -0.07366647 -0.013888963 0.046094865
0.087794185 -0.048021927 -0.069060475 0.06315793 0.08629571 -0.059181556 -0.08611638 0.057657525
0.00054086 -0.063741855 0.030072603 0.048092574 -0.07034772 -0.020278305 0.053974897 0.07103415
0.043478698 -0.02854612 0.0051502064 -0.023207566 -0.028074525 -0.05346907 0.02822013 -0.08127542
0.042480662 0.044515714 -0.05040193 -0.03860224 -0.033448175 -0.046928696 0.07708165 0.030650308
-0.027927244 0.035592213 0.08236107 -0.06443475 0.006055534 -0.02929279 -0.07800363 0.065511346
0.055729493 0.044722676 -0.0087819025 0.0027901067 0.07985449 0.06832793 0.060650036 -0.031934455
-0.02386141 0.0022470802 0.04180546 -0.073292166 0.0825396 0.04090607 -0.05690379 0.00047738105
0.05176343 0.0125706345 -0.06855606 -0.03392858 -0.06757898 -0.006111048 0.081709266 0.011305146
-0.08643223 0.07095246 -0.028492065 -0.012757689 -0.074679434 0.02798256 -0.08706309 0.0069356263
-0.048513196 0.01666972 -0.0011854619 0.08040734 0.021908045 0.02936784 -0.0042514503 0.047157332
-0.06522887 0.07787125 -0.05793228 -0.00912226 -0.008380204 0.012144268 -0.0035695657 0.05137925
0.090179384 0.028349422 0.027678162 -0.051780228 0.025993824 0.07139523 -0.08459614 -0.07491296
00000000: e248 943d 39b4 81bd e860 6d3c 530f af3c
00000010: a866 123c e476 d53c df5a 12bd 605d 363b
00000020: e025 483d edb4 b7bd 9a0b 4cbc 8618 b03d
00000030: e1ac 12bd 8ab1 b33d 207f 713c b8e8 2a3d
00000040: 8cde 75bd 04e4 ab3d 7465 d23c 80bc 4b3c
00000050: 9ad1 95bd 3182 90bd e90d a9bd 0009 aabc
00000060: c05a f5bb 8044 57bc 1521 98bd 5dc9 8bbd
00000070: 2e77 b0bd 6ea0 3ebd 8f21 82bd b20f abbd
00000080: 2c0d 963d 145d 4e3d 01e5 8dbc 142c 903d
00000090: fc41 b63d 0466 903c f8b9 143d c43e aa3c
000000a0: a40a 1d3d a043 563c 0770 55bd 222f ab3d
000000b0: 0004 47bc 21ef a4bc 30c4 9fbd 20cc df3b
000000c0: c867 8dbc 20cd 79bc e6b2 913d ea10 ae3d
000000d0: 80ba 3a3b e7e1 9bbd 7b28 64bd 9082 423c
000000e0: 6492 723d ffba a5bd 74eb dbbb 91e3 99bd
000000f0: 6a47 40bd c085 e63a 8036 86bd ac3f 993d
00000100: 96cb 793c e68c 30bd 4cfd 693d 8465 573d
00000110: b209 853d 0e2f 94bd 0632 a9bd 78a4 693d
00000120: 4859 1e3d 67d2 f63c 10f7 4fbd 64fd 713d
00000130: ee67 b23d b74a a3bd cc1a 7a3d 00d2 a3b9
00000140: 1a98 72bd 57a9 cf3c 609e 353c 8bd0 ff3c
00000150: e68d 9c3d 1fee 27bd 0080 93b8 08dc 59bd
00000160: 1c2d b73c 6cd3 5a3d 38c9 df3c de88 9a3d
00000170: 84c5 983d 10a6 8d3b 20c5 b53b 3bf4 43bd
00000180: 00c9 17bd e416 3ebd f63b 9d3d 884e a7bc
00000190: 444a 99bc a24a 863d 5377 0dbd 00fa 303b
000001a0: befb 713c bcb8 b1bd 080e 553d 2061 a6bd
000001b0: 7fc1 97bd 4c36 d9bc e0fc 5ebb 8cac 82bd
000001c0: 16ab a3bd 607d 803d 34fa 90bd c4aa 913d
000001d0: 5c57 a63b e951 86bd ebf9 1abd b843 333c
000001e0: 6488 4bbd 1e7b 973d 75d9 a4bd 4016 853b
000001f0: 0054 713c a07d b9bd 1264 5cbd dcf0 4fbd
00000200: 8ca8 fd3c 5e9f 043d b074 8f3c 9e55 87bd
00000210: c0eb d0ba b094 9c3d d8cc 57bc 2099 593c
00000220: 50cb 193d e862 4bbd 56df 3abd 1a3f b23d
00000230: 80c0 82bb 87ac af3c ac54 7d3d 5833 003d
00000240: c2d0 40bc 64f5 50bd 70e3 ee3b 2834 7f3d
00000250: 7448 94bd 213b 71bd f0c5 f43b 9257 70bd
00000260: f3a6 4cbd 3066 3ebc d037 653d 003f eabc
00000270: f0a7 75bc 72de 96bd 888e 63bc f8cd 3c3d
00000280: 70cd b33d a4b2 44bd 946f 8dbd f258 813d
00000290: cebb b03d 5c68 72bd c95d b0bd 4c2a 6c3d
000002a0: 80c8 0d3a 178b 82bd d25a f63c b8fc 443d
000002b0: 7712 90bd b01e a6bc c814 5d3d 5a7a 913d
000002c0: b816 323d 8dd9 e9bc 10c3 a83b cb1d bebc
000002d0: 8cfc e5bc 6202 5bbd e72d e73c ba73 a6bd
000002e0: 3400 2e3d 1c56 363d 4172 4ebd 621d 1ebd
000002f0: f400 09bd 4e38 40bd fcdc 9d3d 5b16 fb3c
00000300: adc7 e4bc 24c9 113d ecac a83d 5ef6 83bd
00000310: 806d c63b 6ff7 efbc 5ec0 9fbd d02a 863d
00000320: 9c44 643d 202f 373d f8e1 0fbc 39da 363b
00000330: c08a a33d 84ef 8b3d 2c6c 783d b4cd 02bd
00000340: 0179 c3bc c043 133b 343c 2b3d 341a 96bd
00000350: 860a a93d 208d 273d f313 69bd 0049 fa39
00000360: e405 543d 10f5 4d3c 1f67 8cbd b2f8 0abd
00000370: d966 8abd 303f c8bb 3057 a73d 3839 393c
00000380: 6203 b1bd 864f 913d 3168 e9bc a005 51bc
00000390: 88f1 98bd af3b e53c 224e b2bd 4044 e33b
000003a0: c6b5 46bd f08e 883c 8061 9bba 9aac a43d
000003b0: 8078 b33c d394 f03c c04f 8bbb 0c28 413d
000003c0: b796 85bd f67a 9f3d 664a 6dbd 8875 15bc
000003d0: 204d 09bc c0f8 463c 60ef 69bb 0c73 523d
000003e0: f8af b83d 0c3d e83c 50bd e23c 8117 54bd
000003f0: 00f1 d43c aa37 923d be40 adbd f76b 99bd

fc.2.bias f4 [4]
0.0071182996 0.038550958 -0.04601264 -0.06932391
00000000: a040 e93b 9ce7 1d3d c077 3cbd b2f9 8dbd
