Models/score_40_model_908216.pt (torch, 9695 bytes, 4 tensors)

fc.0.weight f4 [120, 12]
00000000: 630b 8a3e fca7 da3d 0081 413d 1d00 1bbe
00000010: 6e0b 953c 3185 1bbe 66a6 8c3d dc87 2a3d
00000020: 76e7 9a3d 40df 39be 1283 e63d 6f1d 07be
00000030: a022 0ebc 0a9c 56be 7c51 663e daa5 913d
00000040: ae0f 79be 5a2c cfbd a403 fe3d 9a80 6d3e
00000050: e062 4ebc 6083 3ebe 00b0 34bb 0ebf d2bd
00000060: 776d 0dbe ccad b1bd d068 74bd c639 84bd
00000070: 3195 8abe 4280 1bbe e03c 293e 981d 58bd
00000080: b3de 8d3e 12ec d43d 01b5 863e 5252 70be
00000090: 9b76 06be 25ba 6fbe caa6 29be 50d0 3abd
000000a0: 3c33 1e3e 30c2 23be 2c53 853d f5c5 143e
000000b0: e800 97bd 4b7a 10be af89 853e 8004 dfbb
000000c0: 494c 33be 9eba 9ebd de6b d53d 6fd9 46be
000000d0: 98f5 59be a0eb ab3d c06c 793c 4ca5 f5bd
000000e0: 5712 7cbe d87e 2b3d 6699 69be 07a6 42be
000000f0: e834 883e d610 443e 636a 8c3e d048 dabc
00000100: e24d 873e 9ef4 fabd 5bf5 183e de29 78be
00000110: e42e 66bd 8cf9 a03d 4ca3 11be 1c34 5c3d
00000120: 6012 4f3c ec1e c7bd 02eb 933d 70c5 3f3e
00000130: 4aaf 663e 2588 0b3e 35fc 8c3e 6aff 733e
00000140: 164a 02be d015 923e 8339 70be 1f24 443e
00000150: 6ec3 c3bd d5c8 2b3e baa7 8c3e e067 f5bc
00000160: 9a2a 813e 2e74 45be 1098 b63c 5694 4cbe
00000170: 80e6 7dbb 954f 683e 4257 b4bd 5064 943d
00000180: ba0a babd f04e 82bc d40d 4cbd a0e8 863e
00000190: 3026 ad3d c073 983c 6ac7 6dbe 469b 57be
000001a0: 5a7d 7ebe a4c8 32be eafa e13d 19fb 06be
000001b0: 770b 863e 4377 5abe 52b6 703e d2ee 813e
000001c0: 3059 733e 398f 473e 20ff 7d3d 0a81 b93d
000001d0: 4ae4 023e 801d 81bb 5aac fd3d f834 91bd
000001e0: 0373 6ebe 802d 053b 4cbd 6e3e f072 11bd
000001f0: 60f8 203d 1736 ac3c 2084 76bc 43ce 41be
00000200: 2021 293e 1ad7 0dbe 52a2 dabd d40c 8a3e
00000210: f06d ff3d 9d4d 89be ce7b 81be 40fb f03d
00000220: b085 8cbe dce4 8fbe 9ea6 e83d 071e 0fbe
00000230: f455 3d3e 5c54 28be 1c29 15be 7805 6abd
00000240: 5ba7 303e e85e 853e 8737 883e 4618 ed3d
00000250: fc07 633d 4fb4 3a3e b94b e6bc a589 4e3e
00000260: f4f1 79be 672b 853e 207d 0d3c 20ea ba3d
00000270: eeb6 e33d 5eb6 413e fe68 2bbe 2343 73be
00000280: 3819 2fbd aa58 58be 1037 95bd 6840 003e
00000290: fa46 b2bd 5016 863c ba3b 0e3e 8ea2 b43d
000002a0: 3972 f7bc 6a65 303e 2068 40bd 3005 043e
000002b0: 5efe 8fbe e02d b4bc 96cb f3bd c6f3 083e
000002c0: 004a 71bc d82c 353e 53b8 693e dd3b 7abe
000002d0: 00ac 2d3c c84b 1d3e aea8 8c3d 923b 243e
000002e0: cd09 3d3e 863a 603e 7f88 13be 0ef2 093e
000002f0: db25 7d3e 70bb ce3c 724f 1d3e a57e 06be
00000300: 0a7c 80bd 603b 503c c80f 43be a175 3f3e
00000310: 9088 d4bc 620f 01be 04b4 4dbd f00a d83c
00000320: d26b c8bc 6810 89bd 55d7 17be 0020 673c
00000330: 9aef 533e 9261 893d c8df 803e 585e 83bd
00000340: 3e2f 1fbe 9585 05be 34e0 7bbd 8037 c7bd
00000350: 22ff 6a3e 41b1 11be 4220 f5bd 2662 14be
00000360: 00c8 e53d 1946 7dbe caee 193e 48c6 68be
00000370: 7a0d 37be a445 533d 0632 4b3e b3ad 7e3e
00000380: d918 7c3e 9c01 1dbe 7415 96bd 9e91 df3d
00000390: 7031 3a3e 6c37 6abe 82d4 a1bd fea9 5fbe
000003a0: f449 5a3d 9169 30be 6cf3 713e 136f 4a3e
000003b0: f05d ba3c 0be4 1dbe 88fd 193e 60e1 90bd
000003c0: dc0b babd b664 21be d4e3 dd3d dee6 c5bd
000003d0: 226b 763e 4650 ca3d bcaa b3bd 5db3 6abe
000003e0: 50ad efbc b17f 0f3e 663c 81be b8f3 84be
000003f0: 0eb7 223e 380a 453d 903f d83c e9e3 56be
0.26961812 0.10676572 0.047242165 -0.15136762 0.018193927 -0.15187527 0.068676755 0.04163347
0.07563679 -0.1815157 0.112554684 -0.13194822 -0.008675247 -0.20957962 0.22492021 0.07111712
-0.24322388 -0.10115881 0.12403038 0.23193589 -0.012596816 -0.18604803 -0.0027570724 -0.10290347
-0.13811289 -0.08675727 -0.05967027 -0.06456332 -0.2706695 -0.15185645 0.16527128 -0.052762598
0.2770897 0.10396589 0.2630997 -0.23468903 -0.13131182 -0.23410852 -0.16567531 -0.04560882
0.15449232 -0.15992045 0.065100044 0.1452864 -0.0737322 -0.14109151 0.26081607 -0.0068059564
-0.17509569 -0.07750438 0.10420965 -0.19418882 -0.21285093 0.08394551 0.015223682 -0.119944185
-0.24616371 0.041869015 -0.22812423 -0.19008647 0.26602864 0.19147047 0.27424917 -0.026646048
0.26426607 -0.12253688 0.14937346 -0.24234721 -0.056197062 0.07860097 -0.14222449 0.053760633
0.012638658 -0.09722695 0.072225586 0.1872766 0.22527805 0.13626154 0.2753617 0.23827901
-0.12723574 0.28532267 -0.23459439 0.19154404 -0.0955876 0.1677583 0.27471715 -0.029956758
0.25227815 -0.192826 0.022289306 -0.1997846 -0.0038742125 0.22686608 -0.088057056 0.072456956
-0.09084077 -0.015906781 -0.049817875 0.26349354 0.08454549 0.018609881 -0.23220602 -0.21055326
-0.24852505 -0.17459351 0.11034186 -0.13181724 0.26180622 -0.21334557 0.2350705 0.25377518
0.23764491 0.19488229 0.062010884 0.090578154 0.12782398 -0.0039402843 0.12386389 -0.07090181
-0.23286061 0.002032131 0.23314399 -0.035510004 0.03929937 0.021021886 -0.0150461495 -0.18926339
0.16516542 -0.13851586 -0.106754914 0.26962912 0.12472141 -0.26817027 -0.25289768 0.11766672
-0.27445745 -0.28104293 0.11359905 -0.13976298 0.1848982 -0.1643843 -0.14566463 -0.05713412
0.17251341 0.2604897 0.26604864 0.115768954 0.055427536 0.18232845 -0.02811228 0.20169695
-0.24408704 0.26009676 0.008635789 0.09126687 0.111188754 0.18917224 -0.1673927 -0.2375608
-0.04274866 -0.21127573 -0.07285893 0.12524569 -0.08704944 0.016368061 0.13889971 0.08820067
-0.030205833 0.17226186 -0.0469743 0.12892604 -0.28123754 -0.021994531 -0.11904065 0.13374242
-0.014727116 0.17692888 0.2282422 -0.24436899 0.01060009 0.1536094 0.068681106 0.1603835
0.1846077 0.21897325 -0.14407538 0.13471243 0.24721472 0.025235862 0.15362337 -0.13134249
-0.062736586 0.012709469 -0.19048989 0.18697216 -0.025944024 -0.12603524 -0.050220504 0.026372403
-0.024465475 -0.06692582 -0.14828236 0.0141067505 0.2069687 0.06708063 0.25170732 -0.06414479
-0.15545365 -0.13039239 -0.061493114 -0.09727383 0.22948888 -0.14227773 -0.11969043 -0.14490566
0.112197876 -0.24733771 0.15032497 -0.22731888 -0.17876235 0.051580086 0.19843301 0.24870948
0.24618854 -0.15332645 -0.073283106 0.10916446 0.18182921 -0.22872704 -0.07901861 -0.2184219
0.053293183 -0.1722777 0.23628014 0.19768934 0.022749871 -0.15419023 0.15038121 -0.07074237
-0.09084293 -0.15761074 0.108344704 -0.09663175 0.24064305 0.09878592 -0.087727994 -0.22919984
-0.029257447 0.14013554 -0.25241393 -0.25967193 0.15890142 0.04810545 0.026397496 -0.20985378

fc.0.bias f4 [120]
00000000: 0cb6 ef3d 1028 423e 5952 5abe 6a6f 0a3e
00000010: 0cb7 40bd fcef a53d f8df d9bd e88b 3f3e
00000020: 4818 203e 4a31 6abe 5e64 b3bd 2347 4fbe
00000030: 01b5 90be c813 80be 7081 b0bd b6c8 3ebe
00000040: f2ab 68be eb99 82be 60d3 cebc b0be 063e
00000050: f6df 9cbd 6e73 67be 0050 4639 ccc6 053d
00000060: ce43 153c a085 403e 00cc bebc cf40 81be
00000070: f8c8 423d d68c 5dbe 507b 8b3c 1870 5fbe
00000080: 6095 353c d243 7abe 283c 89be 1c99 413e
00000090: 8dd9 83be fe4d 923d 8fee 933e bc19 4cbd
000000a0: e858 323d 7679 f53d 1ae8 e9bd 02ef 1abe
000000b0: 444f a63d 50f1 103d b413 e7bd 584f 4abd
000000c0: 94f3 613d 5a40 8dbe acce 6ebe ef1e 7dbe
000000d0: ac89 263d 6168 363e 1214 88be f746 013e
000000e0: 3da9 0cbe 4cf5 4dbe 30d0 c63c 787d e0bd
000000f0: c88d 14be 529b dabd b4cf ccbd 60d2 423e
00000100: 6c26 bfbd a93a 4a3e d96a ecbc a461 95bd
00000110: ac1a 4d3d 7036 fb3c 6f77 70be 0d5a 6e3e
00000120: 9804 673d 70c5 853d 1ad2 603e fb57 93be
00000130: 10aa 323e 03f0 07be e9db 633e 5cad f63d
00000140: 38a0 bc3d 82c5 e7bd b2df 613e 0397 533e
00000150: e00c 3d3c b28c 9abd 1e2a 51be ac8b a43d
00000160: 0a73 dd3d d805 083e 38ac 233e fa24 873d
00000170: 7296 de3d c5bd 64be 9593 7f3e 8fb4 173e
00000180: dd3b 93be 2ee1 863d 7eed c93d b630 523e
00000190: 3744 08be 1421 47be f4a3 26be 86f9 b43d
000001a0: ccf8 7ebe 170e 06be ee64 cabd 5bef 7a3e
000001b0: e88d 7b3e 7669 be3d 7022 493d 99db d2bc
000001c0: 1018 8ebd 9856 bbbd 3d5b 023e e8f0 90be
000001d0: 3825 533e 5928 07be a522 6abe 0c17 b5bd
0.117046446 0.18960595 -0.21320476 0.13519064 -0.047049567 0.08102414 -0.10638422 0.18705714
0.15634263 -0.22870365 -0.08759378 -0.2024198 -0.28263095 -0.25015092 -0.08618438 -0.18631253
-0.22721842 -0.25508055 -0.025247276 0.13158679 -0.07659905 -0.22602627 0.00018912554 0.03266029
0.009110404 0.18800974 -0.023290634 -0.25244758 0.04755494 -0.21635756 0.017026573 -0.21820104
0.011082977 -0.24439934 -0.26803708 0.18906063 -0.25751916 0.07143782 0.28892943 -0.04982923
0.04354182 0.119860575 -0.11421223 -0.15130237 0.081205875 0.035386384 -0.11283055 -0.049392074
0.055163935 -0.2758816 -0.23321027 -0.24718831 0.040658638 0.17813255 -0.26577812 0.12624727
-0.13736434 -0.20113105 0.024269193 -0.10961431 -0.1450721 -0.10674156 -0.10000554 0.19025564
-0.093335 0.1974894 -0.028859543 -0.07294014 0.050074264 0.030665606 -0.2348306 0.23276539
0.056400865 0.06531799 0.21955147 -0.2877806 0.17447686 -0.13275151 0.22251858 0.120447844
0.09210247 -0.113169685 0.22057989 0.20663075 0.011538714 -0.07546367 -0.20426223 0.08034453
0.108129576 0.13283479 0.15983665 0.065988496 0.10868539 -0.22338016 0.24958642 0.14814971
-0.2875661 0.06585918 0.09859751 0.20526394 -0.13307272 -0.19446212 -0.1627348 0.08836655
-0.24899596 -0.13091312 -0.09882532 0.2450537 0.24565852 0.09297459 0.049105108 -0.025739478
-0.06938183 -0.09147376 0.12730117 -0.28308797 0.20619667 -0.13198985 -0.22864778 -0.088422865

fc.2.weight f4 [4, 120]
00000000: 507d 943d 39b4 81bd e860 6d3c 9c3d ae3c
00000010: a866 123c 9b48 d63c 03f2 11bd 605d 363b
00000020: e025 483d 114c b7bd 08af 4dbc f44c b03d
00000030: e1ac 12bd 1c7d b33d 207f 713c b8e8 2a3d
00000040: 8cde 75bd 04e4 ab3d 7465 d23c 80bc 4b3c
00000050: 0806 96bd c34d 90bd e90d a9bd 0009 aabc
00000060: c05a f5bb 8044 57bc a7ec 97bd 5dc9 8bbd
00000070: 0ae0 b0bd 6ea0 3ebd 21ed 81bd b20f abbd
00000080: 76aa 963d 145d 4e3d b8b6 8ebc f094 903d
00000090: d8aa b63d 0466 903c f8b9 143d c43e aa3c
000000a0: a40a 1d3d a043 563c 0770 55bd 222f ab3d
000000b0: 0004 47bc d8c0 a5bc 9ef8 9fbd 20cc df3b
000000c0: c867 8dbc 4486 76bc 0a4a 913d 7cdc ad3d
000000d0: 80ba 3a3b 5516 9cbd e7ed 62bd 9082 423c
000000e0: 6492 723d 9186 a5bd 5032 dfbb 6d4c 9abd
000000f0: 6a47 40bd c085 e63a 8036 86bd 6411 9a3d
00000100: 2828 783c 9e5e 31bd 7094 693d 3c37 583d
00000110: 8e72 853d c600 95bd 98fd a8bd 540d 6a3d
00000120: 9087 1d3d 67d2 f63c ec5f 50bd 8894 713d
00000130: cad0 b23d 4916 a3bd cc1a 7a3d 00d2 a3b9
00000140: 62c6 71bd a0d7 ce3c 609e 353c 8bd0 ff3c
00000150: e68d 9c3d fb56 28bd 0080 93b8 08dc 59bd
00000160: 1c2d b73c b401 5a3d 38c9 df3c baf1 9a3d
00000170: f2f9 983d 10a6 8d3b fc0b b93b 3bf4 43bd
00000180: 00c9 17bd 2c45 3dbd 40d9 9d3d d17c a6bc
00000190: 444a 99bc 7eb3 863d 5377 0dbd 00fa 303b
000001a0: 5058 703c 748a b2bd 080e 553d 2061 a6bd
000001b0: 118d 97bd 9564 d8bc e0fc 5ebb fae0 82bd
000001c0: 84df a3bd f248 803d 34fa 90bd 0cd9 903d
000001d0: 8010 a33b 5786 86bd ebf9 1abd 26e7 343c
000001e0: 881f 4bbd 8caf 973d 75d9 a4bd 4016 853b
000001f0: 0054 713c 0eb2 b9bd ca35 5dbd dcf0 4fbd
00000200: 8ca8 fd3c 3a08 053d 6746 903c 3021 87bd
00000210: c0eb d0ba fa31 9d3d d8cc 57bc 2099 593c
00000220: 7462 193d 0cfa 4abd 7a76 3abd f6a7 b23d
00000230: 80c0 82bb d0da ae3c d0eb 7c3d 349c 003d
00000240: 3074 42bc 64f5 50bd 70e3 ee3b 049d 7f3d
00000250: 7448 94bd fda3 71bd f0c5 f43b 4a29 71bd
00000260: f3a6 4cbd 3066 3ebc aca0 653d 496d e9bc
00000270: f0a7 75bc 72de 96bd 1aeb 61bc f8cd 3c3d
00000280: de01 b43d a4b2 44bd 946f 8dbd 16f0 803d
00000290: 6087 b03d a496 71bd a5c6 b0bd 9458 6b3d
000002a0: 80c8 0d3a 85bf 82bd 64b7 f43c dc93 443d
000002b0: e546 90bd b01e a6bc a47d 5d3d c8ae 913d
000002c0: b816 323d 8dd9 e9bc 10c3 a83b f092 c0bc
000002d0: 8cfc e5bc 8699 5abd 9eff e73c 70d6 a5bd
000002e0: c83a 2f3d f8be 363d f943 4fbd 621d 1ebd
000002f0: 3c2f 08bd 9666 3fbd d845 9e3d 12e8 fb3c
00000300: adc7 e4bc 24c9 113d 5ae1 a83d cc2a 84bd
00000310: 806d c63b 26c9 f0bc 5ec0 9fbd d02a 863d
00000320: c0db 633d 685d 363d f8e1 0fbc 39da 363b
00000330: e421 a33d 16bb 8b3d 5003 783d fcfb 01bd
00000340: b84a c4bc c043 133b 10a5 2b3d a24e 96bd
00000350: f43e a93d 68bb 263d 17ab 68bd 0049 fa39
00000360: 089d 533d 10f5 4d3c 1f67 8cbd b2f8 0abd
00000370: 8fc9 89bd 303f c8bb c222 a73d a6dc 3a3c
00000380: 6203 b1bd aae6 903d e839 eabc a005 51bc
00000390: 1abd 98bd f869 e43c 9082 b2bd 4044 e33b
000003a0: c6b5 46bd f08e 883c 8061 9bba e449 a53d
000003b0: 8078 b33c 1cc3 ef3c c04f 8bbb 30bf 403d
000003c0: 25cb 85bd acdd 9e3d d20f 6cbd 8875 15bc
000003d0: 204d 09bc c0f8 463c 60ef 69bb 0c73 523d
000003e0: f8af b83d 0c3d e83c 50bd e23c a5ae 53bd
000003f0: 00f1 d43c 3c03 923d be40 adbd f76b 99bd
0.07250464 -0.06333203 0.014488436 0.021269612 0.008935608 0.026157668 -0.03563119 0.0027826652
0.048864245 -0.089500554 -0.012553938 0.08608428 -0.0358094 0.08764097 0.014739782 0.041725844
-0.06002669 0.083931 0.025683142 0.012435079 -0.07325369 -0.07046082 -0.08254606 -0.020756245
-0.007487625 -0.01313889 -0.07418185 -0.068255164 -0.08636482 -0.046539716 -0.06344057 -0.08352603
0.073567316 0.050381735 -0.017421111 0.070596576 0.089193046 0.01762677 0.036310166 0.020781882
0.038340226 0.0130776465 -0.05210879 0.08358599 -0.01214695 -0.020233557 -0.07811092 0.0068297535
-0.0172614 -0.01504666 0.070942 0.0848932 0.002849251 -0.07621447 -0.055402663 0.011871949
0.05922164 -0.08082307 -0.0068114176 -0.07534108 -0.046943106 0.0017587468 -0.06553364 0.07522848
0.015146293 -0.043303125 0.057026327 0.05278705 0.0651599 -0.07275538 -0.08251494 0.057141617
0.03845936 0.030129625 -0.05087273 0.05897954 0.087312296 -0.07963235 0.06106071 -0.00031246245
-0.059027083 0.025249302 0.011085123 0.03122737 0.076442525 -0.041098576 -7.033348e-05 -0.053188354
0.022360377 0.05322428 0.027317628 0.07565637 0.07469548 0.0043227747 0.0056471806 -0.04784034
-0.037056923 -0.046208546 0.07707453 -0.020323189 -0.01871217 0.06577204 -0.034537625 0.002700448
0.014669493 -0.08717814 0.052015334 -0.08123994 -0.07399953 -0.026415149 -0.0034025237 -0.06390567
-0.080016166 0.06263913 -0.070789725 0.070726484 0.004976332 -0.06568592 -0.037835997 0.011041438
-0.049590617 0.0740653 -0.08049289 0.0040614903 0.0147295 -0.09067164 -0.054006375 -0.05076681
0.030964158 0.03247855 0.017611695 -0.06598127 -0.00159394 0.07675548 -0.013171397 0.013281137
0.037447408 -0.04955487 -0.045523144 0.08723442 -0.003990233 0.021344572 0.061748326 0.031398967
-0.011868522 -0.051015273 0.0072902963 0.0624056 -0.07240382 -0.058994282 0.007469885 -0.058877267
-0.049963903 -0.011621043 0.05606143 -0.028494494 -0.014993653 -0.07366647 -0.013788963 0.046094865
0.08789419 -0.048021927 -0.069060475 0.06295793 0.08619571 -0.058981553 -0.086316384 0.05745752
0.00054086 -0.06384186 0.029872604 0.047992572 -0.07044772 -0.020278305 0.0540749 0.07113415
0.043478698 -0.02854612 0.0051502064 -0.023507565 -0.028074525 -0.053369068 0.02832013 -0.08097541
0.042780668 0.044615716 -0.050601933 -0.03860224 -0.03324817 -0.046728693 0.077281654 0.030750308
-0.027927244 0.035592213 0.082461074 -0.06453475 0.006055534 -0.02939279 -0.07800363 0.065511346
0.05562949 0.044522673 -0.0087819025 0.0027901067 0.079654485 0.06822793 0.060550034 -0.03173445
-0.02396141 0.0022470802 0.041905463 -0.07339217 0.082639605 0.04070607 -0.05680379 0.00047738105
0.05166343 0.0125706345 -0.06855606 -0.03392858 -0.067278974 -0.006111048 0.081609264 0.011405146
-0.08643223 0.07075246 -0.028592065 -0.012757689 -0.07457943 0.027882561 -0.08716309 0.0069356263
-0.048513196 0.01666972 -0.0011854619 0.08070734 0.021908045 0.02926784 -0.0042514503 0.04705733
-0.06532887 0.07757124 -0.057632275 -0.00912226 -0.008380204 0.012144268 -0.0035695657 0.05137925
0.090179384 0.028349422 0.027678162 -0.051680226 0.025993824 0.07129523 -0.08459614 -0.07491296

fc.2.bias f4 [4]
00000000: a040 e93b 9ce7 1d3d 7849 3dbd 202e 8ebd
0.0071182996 0.038550958 -0.046212643 -0.069423914
