Models/score_40_model_77174.pt (torch, 9695 bytes, 4 tensors)

fc.0.weight f4 [120, 12]
0	0x3e8a0b63	0.26961812
1	0x3ddb10d8	0.10696572
2	0x3d418100	0.047242165
3	0xbe1ab178	-0.15106761
4	0x3c9439b7	0.018093927
5	0xbe1b6afa	-0.15177527
6	0x3d8c71f8	0.06857675
7	0x3d2a87dc	0.04163347
8	0x3d9b5052	0.07583679
9	0xbe3a13ae	-0.1817157
10	0x3de6ebee	0.11275469
11	0xbe071d6f	-0.13194822
12	0xbc0e22a0	-0.008675247
13	0xbe56b641	-0.20967962
14	0x3e66517c	0.22492021
15	0x3d913cfe	0.070917115
16	0xbe788c9b	-0.24272387
17	0xbdcf2c5a	-0.10115881
18	0x3dfd665a	0.12373038
19	0x3e6dcf3f	0.2322359
20	0xbc4e62e0	-0.012596816
21	0xbe3e4ef2	-0.18584803
22	0xbb34b000	-0.0027570724
23	0xbdd28aa0	-0.10280347
24	0xbe0d5340	-0.13801289
25	0xbdb1795e	-0.08665727
26	0xbd7468d0	-0.05967027
27	0xbd840558	-0.06446332
28	0xbe8a6de0	-0.27036953
29	0xbe1b1766	-0.15145645
30	0x3e28ee3b	0.16497128
31	0xbd574be0	-0.052562594
32	0x3e8df8e9	0.27728966
33	0x3dd52080	0.104065895
34	0x3e86f688	0.26359963
35	0xbe70381b	-0.23458903
36	0xbe060dbf	-0.13091181
37	0xbe6f9fee	-0.23400852
38	0xbe298c93	-0.16557531
39	0xbd3b392c	-0.04570882
40	0x3e1e1905	0.15439232
41	0xbe23dc67	-0.16002046
42	0x3d85f076	0.06540005
43	0x3e14fa63	0.1454864
44	0xbd9700e8	-0.0737322
45	0xbe106014	-0.14099151
46	0x3e856f79	0.2606161
47	0xbbdbbda4	-0.0067059565
48	0xbe333212	-0.17499569
49	0xbd9e8630	-0.07740438
50	0x3dd5a04c	0.10430965
51	0xbe463c25	-0.19358881
52	0xbe59db61	-0.21275093
53	0x3dac88ea	0.08424552
54	0x3c796cc0	0.015223682
55	0xbdf53c70	-0.11974418
56	0xbe7c1257	-0.24616371
57	0x3d2cb96c	0.04216902
58	0xbe691653	-0.22762422
59	0xbe42da75	-0.19028647
60	0x3e8827cd	0.26592866
61	0x3e4410d6	0.19147047
62	0x3e8ced71	0.27524903
63	0xbcda48d0	-0.026646048
64	0x3e87824e	0.26466602
65	0xbdfa5754	-0.12223688
66	0x3e18db24	0.14927346
67	0xbe784415	-0.24244721
68	0xbd65c608	-0.05609706
69	0x3da0f98c	0.07860097
70	0xbe1154a7	-0.14192449
71	0x3d5c9cf8	0.053860635
72	0x3c4f1260	0.012638658
73	0xbdc681a2	-0.09692694
74	0x3d941f70	0.07232559
75	0x3e3fc570	0.1872766
76	0x3e667adc	0.22507805
77	0x3e0b8825	0.13626154
78	0x3e8cfc35	0.2753617
79	0x3e744e0f	0.23857902
80	0xbe01fb71	-0.12693574
81	0x3e92718d	0.28602257
82	0xbe701f4c	-0.23449439
83	0x3e448cfb	0.19194405
84	0xbdc2f1b6	-0.09518759
85	0x3e2c8056	0.16845831
86	0x3e8ccf0b	0.2750171
87	0xbcf2f2bb	-0.029656759
88	0x3e818657	0.25297806
89	0xbe453fc0	-0.192626
90	0x3cb69810	0.022289306
91	0xbe4c45b1	-0.1994846
92	0xbb7de680	-0.0038742125
93	0x3e68355e	0.22676608
94	0xbdb45742	-0.088057056
95	0x3d9498be	0.07255696
96	0xbdb96d70	-0.09054077
97	0xbc817d39	-0.015806781
98	0xbd4c0dd4	-0.049817875
99	0x3e86f5bb	0.26359352
100	0x3dadc37a	0.0848455
101	0x3c9873c0	0.018609881
102	0xbe6dfbd8	-0.23240602
103	0xbe571833	-0.21005325
104	0xbe7dfa47	-0.24802504
105	0xbe32e2db	-0.17469351
106	0x3de1c67c	0.11024186
107	0xbe06923d	-0.13141723
108	0x3e864cfe	0.26230615
109	0xbe5a7743	-0.21334557
110	0x3e71539c	0.2356705
111	0x3e8257aa	0.25457507
112	0x3e735930	0.23764491
113	0x3e478f39	0.19488229
114	0x3d7ed0d8	0.062210888
115	0x3db9b578	0.090678155
116	0x3e0295a5	0.12752397
117	0xbb811d80	-0.0039402843
118	0x3dfe1536	0.124063894
119	0xbd91008a	-0.07080181
120	0xbe6ec1a8	-0.23316061
121	0x3b052d80	0.002032131
122	0x3e6ea315	0.23304398
123	0xbd1244a8	-0.035710007
124	0x3d21613c	0.03939937
125	0x3cac3617	0.021021886
126	0xbc768420	-0.0150461495
127	0xbe417f9e	-0.18896338
128	0x3e29a433	0.16566543
129	0xbe0d8875	-0.13821585
130	0xbddaa252	-0.106754914
131	0x3e8a19ef	0.2697291
132	0x3dff3982	0.124621406
133	0xbe89264c	-0.2678703
134	0xbe814762	-0.25249773
135	0x3df09264	0.11746672
136	0xbe8c1cd8	-0.27365756
137	0xbe8fcaa6	-0.28084296
138	0x3de90f7a	0.11379905
139	0xbe0ee999	-0.13956298
140	0x3e3d3bbd	0.1847982
141	0xbe2805b7	-0.1640843
142	0xbe14c040	-0.14526463
143	0xbd6933c0	-0.05693412
144	0x3e30a75b	0.17251341
145	0x3e859354	0.26088965
146	0x3e886bf3	0.2664486
147	0x3ded4cb4	0.115868956
148	0x3d6307fc	0.055427536
149	0x3e3ae8bd	0.18252845
150	0xbce71d70	-0.02821228
151	0x3e4f0cb8	0.20219696
152	0xbe79f1f4	-0.24408704
153	0x3e856cee	0.2605967
154	0x3c0d7d20	0.008635789
155	0x3dbb876a	0.091566876
156	0x3de3b6ee	0.111188754
157	0x3e41d095	0.18927224
158	0xbe2b3490	-0.1671927
159	0xbe72f47e	-0.23726079
160	0xbd2f1938	-0.04274866
161	0xbe58c186	-0.21167573
162	0xbd9502a2	-0.07275893
163	0x3e002631	0.12514569
164	0xbdb2128c	-0.08694944
165	0x3c86e807	0.016468061
166	0x3e0e8a5f	0.13919972
167	0x3db5a8b4	0.08870068
168	0xbcf843f0	-0.030305833
169	0x3e3016c5	0.17196186
170	0xbd3f9668	-0.046774298
171	0x3e04399e	0.12912604
172	0xbe901894	-0.28143752
173	0xbcb35c29	-0.021894531
174	0xbdf362ba	-0.11884065
175	0x3e090dfd	0.13384242
176	0xbc714a00	-0.014727116
177	0x3e352cd8	0.17692888
178	0x3e699e1c	0.2281422
179	0xbe7a3bdd	-0.24436899
180	0x3c2dac00	0.01060009
181	0x3e1d65ff	0.1537094
182	0x3d8c3fd2	0.0684811
183	0x3e243b92	0.1603835
184	0x3e3da717	0.18520771
185	0x3e603a86	0.21897325
186	0xbe13887f	-0.14407538
187	0x3e09d7d7	0.13461243
188	0x3e7d7480	0.24751472
189	0x3ccebb70	0.025235862
190	0x3e1d69a9	0.15372337
191	0xbe067ea5	-0.13134249
192	0xbd80132e	-0.06253658
193	0x3c503b60	0.012709469
194	0xbe42f591	-0.19038989
195	0x3e3f26fc	0.18667215
196	0xbcd3b6d9	-0.025844024
197	0xbe00c0bd	-0.12573524
198	0xbd4eee98	-0.05052051
199	0x3cd80af0	0.026372403
200	0xbcca0f40	-0.024665475
201	0xbd88dbfa	-0.06682582
202	0xbe17d755	-0.14828236
203	0x3c672000	0.0141067505
204	0x3e53d563	0.2068687
205	0x3d892d24	0.06698063
206	0x3e810719	0.25200728
207	0xbd8329ea	-0.06404479
208	0xbe1efad0	-0.15525365
209	0xbe056b5e	-0.13029239
210	0xbd7aa5a0	-0.06119311
211	0xbdc70312	-0.097173825
212	0x3e6aff22	0.22948888
213	0xbe11ffe6	-0.14257774
214	0xbdf4b766	-0.11949043
215	0xbe13df13	-0.14440565
216	0x3de630dc	0.11239788
217	0xbe7d11ab	-0.24713771
218	0x3e19d493	0.15022497
219	0xbe6891da	-0.22711888
220	0xbe370d7a	-0.17876235
221	0x3d52dcc8	0.051480085
222	0x3e4b4c3d	0.19853301
223	0x3e7f30c6	0.2492095
224	0x3e7c3310	0.24628854
225	0xbe1d019c	-0.15332645
226	0xbd961574	-0.073283106
227	0x3ddf5d30	0.10906446
228	0x3e3a4ba7	0.18192922
229	0xbe6a02fe	-0.22852704
230	0xbda208f0	-0.07911861
231	0xbe5f5b59	-0.2181219
232	0x3d5ab2d0	0.053393185
233	0xbe303523	-0.1720777
234	0x3e72aaed	0.23698016
235	0x3e4aa381	0.19788934
236	0x3cbb2fa7	0.02284987
237	0xbe1dfe42	-0.15429023
238	0x3e1a6664	0.15078121
239	0xbd90acf2	-0.07064237
240	0xbdb96e92	-0.09054293
241	0xbe20c76c	-0.15701073
242	0x3dddaf66	0.1082447
243	0xbdc61b4c	-0.09673175
244	0x3e76ee35	0.24114306
245	0x3dca1bd8	0.09868592
246	0xbdb30d72	-0.08742799
247	0xbe6ae7cb	-0.22939985
248	0xbceedb99	-0.029157447
249	0x3e0f7fb1	0.14013554
250	0xbe812230	-0.25221395
251	0xbe84f3b8	-0.25967193
252	0x3e22b70e	0.15890142
253	0x3d457314	0.04820545
254	0x3cd91147	0.026497496
255	0xbe56c9b2	-0.20975378

fc.0.bias f4 [120]
0	0x3def4d30	0.11684644
1	0x3e424247	0.18970595
2	0xbe599ad8	-0.21250474
3	0x3e0abe0f	0.13549064
4	0xbd404e30	-0.046949565
5	0x3da68d46	0.081324145
6	0xbdd942ae	-0.10608421
7	0x3e3fa61f	0.18715714
8	0x3e2066ed	0.15664263
9	0xbe69ae37	-0.22820364
10	0xbdb32ff0	-0.08749378
11	0xbe4f12b5	-0.2022198
12	0xbe90c21c	-0.28273094
13	0xbe7fd8ec	-0.24985093
14	0xbdb08170	-0.08618438
15	0xbe3eae7f	-0.18621252
16	0xbe680ea8	-0.22661841
17	0xbe827fb5	-0.25488058
18	0xbcce01a9	-0.025147276
19	0x3e06f31e	0.1317868
20	0xbd9d1464	-0.07669905
21	0xbe673f00	-0.22582626
22	0x39465000	0.00018912554
23	0x3d055df0	0.03256029
24	0x3c13a060	0.009010404
25	0x3e40d445	0.18830974
26	0xbcbecc00	-0.023290634
27	0xbe810c63	-0.25204763
28	0x3d42c8f8	0.04755494
29	0xbe5da70d	-0.21645756
30	0x3c8c4d07	0.017126573
31	0xbe5eed05	-0.21770103
32	0x3c359560	0.011082977
33	0xbe7957e3	-0.24349932
34	0xbe8914d7	-0.26773712
35	0x3e41b353	0.18916063
36	0xbe837dd0	-0.25681925
37	0x3d92b6da	0.071637824
38	0x3e9422fb	0.28932938
39	0xbd4c19bc	-0.04982923
40	0x3d32c1c4	0.04364182
41	0x3df57976	0.119860575
42	0xbde9e81a	-0.11421223
43	0xbe1aba94	-0.15110236
44	0x3da683b2	0.08130588
45	0x3d11c308	0.035586387
46	0xbde641fc	-0.11243054
47	0xbd4a4f58	-0.049392074
48	0x3d61f394	0.055163935
49	0xbe8d2624	-0.2756816
50	0xbe6e9a3e	-0.23301026
51	0xbe7d1eef	-0.24718831
52	0x3d25b7f4	0.040458634
53	0x3e36b706	0.17843255
54	0xbe87dfa6	-0.26537818
55	0x3e0146f7	0.12624727
56	0xbe0c8f06	-0.13726434
57	0xbe4d8c70	-0.20073104
58	0x3cc6d030	0.024269193
59	0xbde0e654	-0.109814316
60	0xbe140ab5	-0.1445721
61	0xbdda3276	-0.10654156
62	0xbdcc66d8	-0.099805534
63	0x3e436faa	0.19085565
64	0xbdbef1fe	-0.093235
65	0x3e4a894e	0.1977894
66	0xbcec6ad9	-0.028859543
67	0xbd959612	-0.07304014
68	0x3d4d1aac	0.050074264
69	0x3cfc0827	0.030765606
70	0xbe7028ca	-0.2345306
71	0x3e6ea8b2	0.2330654
72	0x3d670498	0.056400865
73	0x3d855c94	0.065117985
74	0x3e61899b	0.22025149
75	0xbe9330aa	-0.28748065
76	0x3e328fd9	0.17437686
77	0xbe076cf0	-0.1322515
78	0x3e645efc	0.22301859
79	0x3df77f14	0.12084785
80	0x3dbca038	0.09210247
81	0xbde75ca6	-0.11296968
82	0x3e62cba1	0.22147991
83	0x3e53b13a	0.20673075
84	0x3c3d0ce0	0.011538714
85	0xbd9a5844	-0.075363666
86	0xbe50db79	-0.20396222
87	0x3da4573e	0.080244526
88	0x3dde1054	0.10842958
89	0x3e086eb4	0.1332348
90	0x3e23c66f	0.15993665
91	0x3d8724fa	0.065988496
92	0x3ddeff4e	0.10888539
93	0xbe646f20	-0.22308016
94	0x3e7f795e	0.24948642
95	0x3e181d6b	0.14854972
96	0xbe93148c	-0.28726614
97	0x3d867852	0.06565918
98	0x3dca21ec	0.09869751
99	0x3e52ce00	0.20586395
100	0xbe085e6e	-0.13317272
101	0xbe4706dd	-0.19436212
102	0xbe26554f	-0.1624348
103	0x3db4f986	0.08836655
104	0xbe7e8ff0	-0.24859595
105	0xbe065cbc	-0.13121313
106	0xbdcb0238	-0.099125326
107	0x3e7b23c9	0.2452537
108	0x3e7bc256	0.24585852
109	0x3dbe009a	0.092774585
110	0x3d47e7dc	0.048805103
111	0xbcd2db99	-0.025739478
112	0xbd8e80ec	-0.06958184
113	0xbdbb8b06	-0.09157376
114	0x3e027574	0.12740117
115	0xbe90af61	-0.28258803
116	0x3e538e14	0.20659667
117	0xbe072859	-0.13198985
118	0xbe69d400	-0.22834778
119	0xbdb479c2	-0.08812286

fc.2.weight f4 [4, 120]
0	0x3d94b1be	0.07260464
1	0xbd81e8a7	-0.06343203
2	0x3c6d60e8	0.014488436
3	0x3cae3d9c	0.021269612
4	0x3c140a16	0.009035608
5	0x3cd576e4	0.026057668
6	0xbd11f203	-0.03563119
7	0x3b3ceb19	0.0028826653
8	0x3d4825e0	0.048864245
9	0xbdb7807f	-0.089600556
10	0xbc4daf08	-0.012553938
11	0x3db04cf4	0.08608428
12	0xbd12ace1	-0.0358094
13	0x3db44ed4	0.08804098
14	0x3c717f20	0.014739782
15	0x3d2b5194	0.041825846
16	0xbd7575b0	-0.05992669
17	0x3dab7b28	0.083730996
18	0x3cd26574	0.025683142
19	0x3c4bbc80	0.012435079
20	0xbd95d19a	-0.07315369
21	0xbd8f7c0b	-0.07006081
22	0xbda8a50d	-0.08234606
23	0xbca86592	-0.020556245
24	0xbbf213e4	-0.007387625
25	0xbc55a112	-0.01303889
26	0xbd97eca7	-0.07418185
27	0xbd8bfdcb	-0.068355165
28	0xbdb0ab9c	-0.08626482
29	0xbd3ea06e	-0.046539716
30	0xbd82218f	-0.06354057
31	0xbdaaa6d6	-0.08332603
32	0x3d967608	0.073467314
33	0x3d4ec5f0	0.050481737
34	0xbc8eb6b8	-0.017421111
35	0x3d90fdcc	0.07079658
36	0x3db74822	0.08949305
37	0x3c9137bb	0.01772677
38	0x3d14b9f8	0.036310166
39	0x3caa3ec4	0.020781882
40	0x3d1d7380	0.038440228
41	0x3c5643a0	0.0130776465
42	0xbd543573	-0.051808786
43	0x3dabcc6c	0.083886
44	0xbc470400	-0.01214695
45	0xbca4ef21	-0.020133557
46	0xbd9f8fc2	-0.077910915
47	0x3bdfcc20	0.0068297535
48	0xbc8c9611	-0.017161401
49	0xbc7829b2	-0.01514666
50	0x3d917e78	0.071042
51	0x3daddc7c	0.0848932
52	0x3b3aba80	0.002849251
53	0xbd9b790b	-0.075914465
54	0xbd6356c3	-0.055502664
55	0x3c4425fe	0.011971949
56	0x3d722988	0.05912164
57	0xbda5baff	-0.08092307
58	0xbbdf3250	-0.0068114176
59	0xbd9a17ff	-0.07524108
60	0xbd3f75b2	-0.046743102
61	0x3ae685c0	0.0017587468
62	0xbd859936	-0.06523363
63	0x3d99dcf6	0.07512848
64	0x3c782828	0.015146293
65	0xbd31c77a	-0.043403126
66	0x3d699470	0.057026327
67	0x3d58a018	0.052887052
68	0x3d85728e	0.0651599
69	0xbd94cc58	-0.07265538
70	0xbda93206	-0.08261494
71	0x3d6bb0c4	0.057541624
72	0x3d1df06c	0.038559362
73	0x3cf6d267	0.030129625
74	0xbd505fec	-0.05087273
75	0x3d71fd64	0.059079543
76	0x3db23380	0.08701229
77	0xbda31649	-0.07963235
78	0x3d7a83a8	0.061160713
79	0xb9a3d200	-0.00031246245
80	0xbd722f3e	-0.059127085
81	0x3cd07b0e	0.025449302
82	0x3c359e60	0.011085123
83	0x3cfefed4	0.03112737
84	0x3d9c8de6	0.076442525
85	0xbd27ee1f	-0.040998574
86	0xb8938000	-7.033348e-05
87	0xbd590a50	-0.05298835
88	0x3cb7fed3	0.022460377
89	0x3d5a01b4	0.05322428
90	0x3cdfc938	0.027317628
91	0x3d9af1ba	0.07565637
92	0x3d99973c	0.07499549
93	0x3b8da610	0.0043227747
94	0x3bb90bfc	0.0056471806
95	0xbd432283	-0.047640335
96	0xbd176024	-0.03695692
97	0xbd3e16e4	-0.04640855
98	0x3d9e0dae	0.07717453
99	0xbca74e88	-0.020423189
100	0xbc994a44	-0.01871217
101	0x3d867f10	0.06567204
102	0xbd0d7753	-0.034537625
103	0x3b30fa00	0.002700448
104	0x3c705850	0.014669493
105	0xbdb25606	-0.08707814
106	0x3d550e08	0.052015334
107	0xbda62cb2	-0.08113994
108	0xbd978d11	-0.07399953
109	0xbcd9364c	-0.026515149
110	0xbb5efce0	-0.0034025237
111	0xbd8243b0	-0.063605666
112	0xbda3423a	-0.07971616
113	0x3d8048f2	0.06263913
114	0xbd90287c	-0.07038972
115	0x3d9141e8	0.07092649
116	0x3ba6575c	0.005076332
117	0xbd8651e9	-0.06558592
118	0xbd1bcba3	-0.038036
119	0x3c34e726	0.011041438
120	0xbd4b1f88	-0.049590617
121	0x3d97e3fa	0.0741653
122	0xbda47099	-0.08029289
123	0x3b851640	0.0040614903
124	0x3c715400	0.0147295
125	0xbdb94932	-0.09047164
126	0xbd5a57c6	-0.053306364
127	0xbd4f1f24	-0.050566807
128	0x3cfe7a43	0.031064158
129	0x3d049f5e	0.032378547
130	0x3c904667	0.017611695
131	0xbd86b854	-0.065781265
132	0xbad0ebc0	-0.00159394
133	0x3d9cfd8c	0.07665548
134	0xbc57ccd8	-0.013171397
135	0x3c599920	0.013281137
136	0x3d1a342c	0.03764741
137	0xbd4b62e8	-0.04965487
138	0xbd3adf56	-0.045623146
139	0x3db27388	0.08713442
140	0xbb82c080	-0.003990233
141	0x3cafac87	0.021444572
142	0x3d7c82f4	0.061648324
143	0x3d009c34	0.031398967
144	0xbc427430	-0.011868522
145	0xbd50f564	-0.051015273
146	0x3beee370	0.0072902963
147	0x3d7f9d04	0.0624056
148	0xbd93df98	-0.072203815
149	0xbd713b21	-0.05889428
150	0x3bf4c5f0	0.007469885
151	0xbd71294a	-0.058877267
152	0xbd4c3e17	-0.0498639
153	0xbc3e6630	-0.011621043
154	0x3d660988	0.056161433
155	0xbcea3f00	-0.028594494
156	0xbc740482	-0.014893653
157	0xbd96aa04	-0.07356647
158	0xbc638e88	-0.013888963
159	0x3d3ccdf8	0.046094865
160	0x3db401de	0.08789419
161	0xbd451b80	-0.04812193
162	0xbd8d06b8	-0.06886047
163	0x3d80f016	0.06295793
164	0x3db01e84	0.085995704
165	0xbd72685c	-0.059181556
166	0xbdb0295b	-0.08601638
167	0x3d6c2a4c	0.057657525
168	0x3a0dc880	0.00054086
169	0xbd82bf85	-0.06384186
170	0x3cf4b764	0.029872604
171	0x3d4493dc	0.047992572
172	0xbd8f752d	-0.070047714
173	0xbca54cf9	-0.020178305
174	0x3d5de680	0.0541749
175	0x3d91aec8	0.07113415
176	0x3d3216b8	0.043478698
177	0xbce9d98d	-0.02854612
178	0x3ba8c310	0.0051502064
179	0xbcc092f0	-0.023507565
180	0xbce5fc8c	-0.028074525
181	0xbd5b6b3e	-0.05356907
182	0x3ce65c30	0.02812013
183	0xbda60ade	-0.081075415
184	0x3d2e6910	0.042580664
185	0x3d36bef8	0.044615716
186	0xbd4edb1d	-0.05050193
187	0xbd1db486	-0.03850224
188	0xbd089818	-0.033348173
189	0xbd3fcf72	-0.046828695
190	0x3d9d7420	0.07688165
191	0x3cfa44a4	0.030550309
192	0xbce3243f	-0.027727244
193	0x3d11c924	0.035592213
194	0x3da8e15a	0.082461074
195	0xbd83c1f0	-0.06433475
196	0x3bc66d80	0.006055534
197	0xbcf0c926	-0.02939279
198	0xbd9ff4cc	-0.07810363
199	0x3d8693ac	0.06571135
200	0x3d64ad78	0.055829495
201	0x3d36c644	0.044622675
202	0xbc0fe1f8	-0.0087819025
203	0x3b304c80	0.0026901066
204	0x3da35652	0.07975449
205	0x3d8bef84	0.06832793
206	0x3d780350	0.060550034
207	0xbd01fbfc	-0.03173445
208	0xbcc37901	-0.02386141
209	0x3b1343c0	0.0022470802
210	0x3d2c0dec	0.042005464
211	0xbd95e5c6	-0.073192164
212	0x3da9a7d0	0.08283961
213	0x3d26528c	0.040606067
214	0xbd68ab17	-0.05680379
215	0x39fa4900	0.00047738105
216	0x3d53342c	0.051563427
217	0x3c4df510	0.0125706345
218	0xbd8c32b1	-0.06845606
219	0xbd0af8b2	-0.03392858
220	0xbd8a66d9	-0.06757898
221	0xbbc4f854	-0.0060110483
222	0x3da75730	0.081709266
223	0x3c3adca6	0.011405146
224	0xbdb06618	-0.08613223
225	0x3d9183f4	0.07105246
226	0xbcea39e8	-0.028592065
227	0xbc5105a0	-0.012757689
228	0xbd9888ac	-0.07447943
229	0x3ce469f8	0.027882561
230	0xbdb219b4	-0.08696309
231	0x3be68b1c	0.007035626
232	0xbd464cea	-0.048413195
233	0x3c888ef0	0.01666972
234	0xba9b6180	-0.0011854619
235	0x3da4e108	0.08050734
236	0x3cb37880	0.021908045
237	0x3cf1668a	0.02946784
238	0xbb8b4fc0	-0.0042514503
239	0x3d41f9c4	0.047357336
240	0xbd863401	-0.06552888
241	0x3d9faf64	0.07797125
242	0xbd6d4a66	-0.05793228
243	0xbc157588	-0.00912226
244	0xbc07a9b2	-0.008280205
245	0x3c46f8c0	0.012144268
246	0xbb69ef60	-0.0035695657
247	0x3d5344c4	0.051579252
248	0x3db8aff8	0.090179384
249	0x3ce83d0c	0.028349422
250	0x3ce2bd50	0.027678162
251	0xbd541781	-0.051780228
252	0x3cd4f100	0.025993824
253	0x3d92033c	0.07129523
254	0xbdad0c50	-0.08449614
255	0xbd99a065	-0.07501296

fc.2.bias f4 [4]
0	0x3be940a0	0.0071182996
1	0x3d1de79c	0.038550958
2	0xbd3c0ee4	-0.04591264
3	0xbd8df9b2	-0.06932391
