Models/score_45_model_690790.pt (torch, 9695 bytes, 4 tensors)

fc.0.weight f4 [120, 12]
0.2698181 0.10686572 0.047242165 -0.15146762 0.017993927 -0.15187527 0.06837675 0.04163347
0.07573679 -0.1815157 0.113154694 -0.13194822 -0.008675247 -0.20987962 0.22522022 0.07111712
-0.24272387 -0.10115881 0.12373038 0.23213589 -0.012596816 -0.18554802 -0.0027570724 -0.10300347
-0.13821289 -0.08665727 -0.059270263 -0.06466332 -0.27026954 -0.15195645 0.16507128 -0.052662596
0.27748963 0.10386589 0.2631997 -0.23508903 -0.13141182 -0.23420852 -0.1653753 -0.04560882
0.15469232 -0.15982045 0.065100044 0.1452864 -0.0738322 -0.14099151 0.261216 -0.0068059564
-0.17489569 -0.07720438 0.10430965 -0.19408882 -0.21295093 0.084045514 0.015223682 -0.119944185
-0.24606371 0.041969016 -0.22762422 -0.19028647 0.26592866 0.19127047 0.2747491 -0.026646048
0.26426607 -0.122636884 0.14967346 -0.24244721 -0.056197062 0.07850097 -0.14232449 0.053760633
0.012638658 -0.09722695 0.072125584 0.1869766 0.22507805 0.13626154 0.2753617 0.23847902
-0.12693574 0.2858226 -0.23459439 0.19194405 -0.09518759 0.1676583 0.2750171 -0.029856758
0.2525781 -0.192826 0.022289306 -0.1992846 -0.0038742125 0.22736609 -0.08765705 0.07275696
-0.09054077 -0.015906781 -0.049817875 0.26339355 0.0847455 0.018609881 -0.23250602 -0.21025325
-0.24872506 -0.1744935 0.11004186 -0.13181724 0.26240614 -0.21364558 0.2355705 0.25387517
0.23764491 0.19468229 0.062210888 0.090578154 0.12772398 -0.0039402843 0.12396389 -0.07100181
-0.2326606 0.002032131 0.23304398 -0.035710007 0.03939937 0.020921886 -0.0150461495 -0.18906339
0.16596544 -0.13871586 -0.106154904 0.2698291 0.12482141 -0.26807028 -0.25239775 0.11756672
-0.2740575 -0.28074297 0.11359905 -0.13966298 0.1847982 -0.1639843 -0.14536463 -0.05693412
0.17251341 0.2605897 0.26614863 0.11596896 0.05562754 0.18232845 -0.02821228 0.20169695
-0.24408704 0.26039672 0.008635789 0.09116687 0.111188754 0.18887223 -0.1674927 -0.23726079
-0.04284866 -0.21137573 -0.072558925 0.124945685 -0.08694944 0.016368061 0.13909972 0.08820067
-0.030305833 0.17236187 -0.0468743 0.12932605 -0.2808376 -0.021994531 -0.11894065 0.13364242
-0.014627116 0.17722888 0.2279422 -0.24446899 0.01060009 0.1537094 0.0683811 0.16028349
0.18510771 0.21897325 -0.14397538 0.13471243 0.24711472 0.025235862 0.15352337 -0.13144249
-0.062636584 0.012709469 -0.19038989 0.18657215 -0.025944024 -0.12583524 -0.050420508 0.026372403
-0.024565475 -0.06692582 -0.14798236 0.0141067505 0.20666869 0.06688063 0.25160733 -0.06404479
-0.15525365 -0.13029239 -0.061493114 -0.097173825 0.22958888 -0.14257774 -0.11949043 -0.14470565
0.11239788 -0.24753772 0.15062498 -0.22711888 -0.17856234 0.051580086 0.19833301 0.2492095
0.24608853 -0.15352646 -0.073283106 0.10946447 0.18192922 -0.22842704 -0.078918606 -0.2181219
0.053293183 -0.1720777 0.23668015 0.19778934 0.022749871 -0.15449023 0.15058121 -0.070542365
-0.09064293 -0.15761074 0.108344704 -0.09663175 0.24084306 0.09878592 -0.087727994 -0.22919984
-0.029257447 0.14003554 -0.25201398 -0.2598719 0.15890142 0.04820545 0.026497496 -0.21005379
00000000: 9925 8a3e 6adc da3d 0081 413d 541a 1bbe
00000010: 0068 933c 3185 1bbe 1c09 8c3d dc87 2a3d
00000020: e41b 9b3d 40df 39be a6bd e73d 6f1d 07be
00000030: a022 0ebc afea 56be 21a0 663e daa5 913d
00000040: 9b8c 78be 5a2c cfbd 5a66 fd3d 08b5 6d3e
00000050: e062 4ebc 4d00 3ebe 00b0 34bb 7cf3 d2bd
00000060: ae87 0dbe 5e79 b1bd 60c5 72bd 346e 84bd
00000070: c560 8abe 799a 1bbe 7208 293e bcb4 57bd
00000080: 1f13 8e3e a4b7 d43d 1cc2 863e 2ebb 70be
00000090: d290 06be 5cd4 6fbe 2558 29be 50d0 3abd
000000a0: aa67 1e3e f9a7 23be 2c53 853d f5c5 143e
000000b0: 5635 97bd 1460 10be 1bbe 853e 8004 dfbb
000000c0: db17 33be 541d 9ebd 4ca0 d53d 38bf 46be
000000d0: cf0f 5abe 0e20 ac3d c06c 793c 4ca5 f5bd
000000e0: 20f8 7bbe b4e7 2b3d 5316 69be 75da 42be
000000f0: cd27 883e 68dc 433e eaab 8c3e d048 dabc
00000100: e24d 873e 0c29 fbbd 0044 193e 1544 78be
00000110: e42e 66bd 1ec5 a03d 83bd 11be 1c34 5c3d
00000120: 6012 4f3c ec1e c7bd 94b6 933d cb76 3f3e
00000130: dc7a 663e 2588 0b3e 35fc 8c3e d833 743e
00000140: 71fb 01be 5757 923e 8339 70be fb8c 443e
00000150: b6f1 c2bd 9eae 2b3e 0bcf 8c3e 2996 f4bc
00000160: eb51 813e 2e74 45be 1098 b63c 4311 4cbe
00000170: 80e6 7dbb a8d2 683e 8a85 b3bd 9a01 953d
00000180: 706d b9bd f04e 82bc d40d 4cbd 85db 863e
00000190: 0c8f ad3d c073 983c 0f16 6ebe a14c 57be
000001a0: c8b1 7ebe 6dae 32be a05d e13d 19fb 06be
000001b0: 195a 863e e8c5 5abe 6539 713e edfb 813e
000001c0: 3059 733e cb5a 473e d8d0 7e3d 0a81 b93d
000001d0: 13ca 023e 801d 81bb c8e0 fd3d 6669 91bd
000001e0: 953e 6ebe 802d 053b 15a3 6e3e a844 12bd
000001f0: 3c61 213d 6064 ab3c 2084 76bc d599 41be
00000200: d8f2 293e 880b 0ebe be67 d9bd 0a27 8a3e
00000210: 5ea2 ff3d 8240 89be 473a 81be d2c6 f03d
00000220: 4451 8cbe 8bbd 8fbe 9ea6 e83d d003 0fbe
00000230: bd3b 3d3e 80eb 27be 77da 14be c033 69bd
00000240: 5ba7 303e 036c 853e a244 883e 2281 ed3d
00000250: b4d9 633d 4fb4 3a3e 701d e7bc a589 4e3e
00000260: f4f1 79be b852 853e 207d 0d3c b2b5 ba3d
00000270: eeb6 e33d b967 413e 3583 2bbe 7ef4 72be
00000280: 1482 2fbd e172 58be c699 94bd 86e3 ff3d
00000290: 8c12 b2bd 5016 863c 2870 0e3e 8ea2 b43d
000002a0: f043 f8bc a17f 303e 44ff 3fbd 0c6e 043e
000002b0: f2c9 8fbe e02d b4bc 2897 f3bd 8fd9 083e
000002c0: 92a6 6fbc 7d7b 353e ae69 693e 1456 7abe
000002d0: 00ac 2d3c ff65 1d3e 640b 8c3d 5b21 243e
000002e0: e08c 3d3e 863a 603e 486e 13be 0ef2 093e
000002f0: a40b 7d3e 70bb ce3c 3b35 1d3e dc98 06be
00000300: 9c47 80bd 603b 503c 91f5 42be c50c 3f3e
00000310: 9088 d4bc f4da 00be bc85 4ebd f00a d83c
00000320: 893d c9bc 6810 89bd b088 17be 0020 673c
00000330: f5a0 533e b6f8 883d add2 803e ea29 83bd
00000340: d0fa 1ebe 5e6b 05be 34e0 7bbd 1203 c7bd
00000350: 5919 6b3e e6ff 11be 66b7 f4bd b82d 14be
00000360: dc30 e63d 877a 7dbe 6f3d 1a3e da91 68be
00000370: 0cd9 36be a445 533d cf17 4b3e c630 7f3e
00000380: a2fe 7b3e 0a36 1dbe 7415 96bd e82e e03d
00000390: a74b 3a3e c7e8 69be 14a0 a1bd 595b 5fbe
000003a0: f449 5a3d 2335 30be 485c 723e 4a89 4a3e
000003b0: f05d ba3c b032 1ebe f631 1a3e 8478 90bd
000003c0: 00a3 b9bd b664 21be d4e3 dd3d dee6 c5bd
000003d0: 909f 763e 4650 ca3d bcaa b3bd 5db3 6abe
000003e0: 50ad efbc 7a65 0f3e fa07 81be ee0d 85be
000003f0: 0eb7 223e 1473 453d 4711 d93c 5718 57be

fc.0.bias f4 [120]
0.116946444 0.18970595 -0.21290475 0.13529064 -0.046849564 0.08082414 -0.106284216 0.18705714
0.15684263 -0.22870365 -0.087393776 -0.2023198 -0.28263095 -0.25015092 -0.086284384 -0.18611252
-0.2264184 -0.25488058 -0.025147276 0.1319868 -0.07669905 -0.22632627 0.00018912554 0.03256029
0.009110404 0.18840975 -0.023190634 -0.2523476 0.04765494 -0.21645756 0.017126573 -0.21780103
0.011182977 -0.24419934 -0.26773712 0.18926063 -0.25751916 0.07153782 0.28902942 -0.04992923
0.04364182 0.119860575 -0.11411223 -0.15130237 0.08130588 0.035586387 -0.11273055 -0.049292073
0.055163935 -0.27598158 -0.23311026 -0.24698831 0.040458634 0.17803255 -0.26557815 0.12634727
-0.13736434 -0.20073104 0.024369193 -0.10951431 -0.1449721 -0.10654156 -0.10000554 0.19055565
-0.093435004 0.1973894 -0.028959543 -0.07274014 0.050074264 0.030765606 -0.2345306 0.23276539
0.056200862 0.06521799 0.21985148 -0.28748065 0.17467687 -0.1325515 0.22291858 0.120447844
0.09200247 -0.11326969 0.2208799 0.20673075 0.011538714 -0.07546367 -0.20406222 0.080244526
0.10822958 0.1331348 0.15993665 0.0660885 0.10878539 -0.22318016 0.24978642 0.14854972
-0.28716615 0.06585918 0.098797515 0.20566395 -0.13287272 -0.19416212 -0.1627348 0.088466555
-0.24889596 -0.13081312 -0.09892532 0.2453537 0.24585852 0.09287459 0.048805103 -0.025739478
-0.06928183 -0.09147376 0.12740117 -0.28348792 0.20609666 -0.13178985 -0.22834778 -0.08812286
00000000: 9e81 ef3d 4742 423e b403 5abe a189 0a3e
00000010: 54e5 3fbd 2087 a53d 8aab d9bd e88b 3f3e
00000020: 5b9b 203e 4a31 6abe 82fb b2bd ec2c 4fbe
00000030: 01b5 90be c813 80be deb5 b0bd 4894 3ebe
00000040: 3ada 67be b57f 82be a901 cebc 8c27 073e
00000050: 6414 9dbd 13c2 67be 0050 4639 f05d 053d
00000060: ce43 153c 7cee 403e 49fa bdbc b433 81be
00000070: d431 433d 0da7 5dbe 074d 8c3c 3c07 5fbe
00000080: ce38 373c 640f 7abe d714 89be 8acd 413e
00000090: 8dd9 83be 6c82 923d aafb 933e 9882 4cbd
000000a0: c4c1 323d 7679 f53d acb3 e9bd 02ef 1abe
000000b0: b283 a63d 08c3 113d 46df e6bd 7ce6 49bd
000000c0: 94f3 613d 754d 8dbe 75b4 6ebe 81ea 7cbe
000000d0: f4b7 253d 2a4e 363e dcf9 87be 2e61 013e
000000e0: 3da9 0cbe 708c 4dbe e7a1 c73c 0a49 e0bd
000000f0: 9173 14be 7632 dabd b4cf ccbd 0521 433e
00000100: da5a bfbd 7220 4a3e 903c edbc c8f8 94bd
00000110: ac1a 4d3d 2708 fc3c ca28 70be 0d5a 6e3e
00000120: e032 663d 0291 853d bf20 613e aa30 93be
00000130: 7ede 323e 95bb 07be c544 643e 5cad f63d
00000140: ca6b bc3d f0f9 e7bd 572e 623e 3ab1 533e
00000150: e00c 3d3c b28c 9abd b0f5 50be 3e57 a43d
00000160: 78a7 dd3d 7d54 083e 6fc6 233e 6859 873d
00000170: e0ca de3d 5789 64be 03c8 7f3e 6b1d 183e
00000180: 7107 93be 2ee1 863d 5a56 ca3d 9299 523e
00000190: c90f 08be 6fd2 46be f4a3 26be f42d b53d
000001a0: 95de 7ebe e0f3 05be 5c99 cabd 003e 7b3e
000001b0: 56c2 7b3e 0835 be3d dce7 473d 99db d2bc
000001c0: a2e3 8dbd 9856 bbbd 7475 023e 5425 91be
000001d0: 010b 533e ebf3 06be 00d4 69be c279 b4bd

fc.2.weight f4 [4, 120]
0.07260464 -0.063132025 0.014588436 0.021469612 0.008935608 0.026057668 -0.035731193 0.0027826652
0.048964247 -0.08970056 -0.012453938 0.08618428 -0.0358094 0.087840974 0.014739782 0.041725844
-0.05992669 0.083831 0.025683142 0.012435079 -0.07315369 -0.07046082 -0.082746066 -0.020656245
-0.007487625 -0.01303889 -0.074081846 -0.06805516 -0.08636482 -0.046539716 -0.06344057 -0.08332603
0.073467314 0.050281733 -0.017421111 0.07039657 0.08929305 0.01762677 0.03651017 0.020781882
0.038440228 0.0130776465 -0.05210879 0.08358599 -0.01214695 -0.020233557 -0.07801092 0.0068297535
-0.0172614 -0.0152466595 0.071042 0.0848932 0.002849251 -0.07601447 -0.055502664 0.011871949
0.05912164 -0.08082307 -0.0068114176 -0.07524108 -0.046943106 0.0017587468 -0.065333635 0.07492848
0.015146293 -0.043403126 0.05712633 0.052887052 0.0650599 -0.07255538 -0.082714945 0.057041615
0.038559362 0.030129625 -0.05087273 0.059179544 0.087212294 -0.07963235 0.06146072 -0.00031246245
-0.059027083 0.025249302 0.011085123 0.03122737 0.07634252 -0.040998574 -7.033348e-05 -0.053188354
0.022360377 0.05322428 0.027317628 0.07555637 0.074795485 0.0043227747 0.005547181 -0.047740337
-0.03695692 -0.046308547 0.07677452 -0.020423189 -0.01871217 0.06567204 -0.034437623 0.002700448
0.014769493 -0.086878136 0.052215338 -0.08083993 -0.074199535 -0.026515149 -0.0034025237 -0.06380567
-0.080016166 0.062739134 -0.07068972 0.070826486 0.004976332 -0.06548592 -0.038036 0.010941438
-0.049590617 0.0741653 -0.08019289 0.0040614903 0.0148295 -0.09057164 -0.053906374 -0.050866812
0.031064158 0.03257855 0.017511696 -0.06598127 -0.00159394 0.07665548 -0.013171397 0.013281137
0.03764741 -0.04955487 -0.045523144 0.08703442 -0.003990233 0.021344572 0.061748326 0.031298965
-0.011868522 -0.05081527 0.007390296 0.0623056 -0.07210381 -0.058694277 0.007469885 -0.058877267
-0.0498639 -0.011621043 0.05596143 -0.028494494 -0.014993653 -0.073466465 -0.013888963 0.046094865
0.08799419 -0.048021927 -0.06926048 0.06305793 0.086095706 -0.05888155 -0.08611638 0.057557523
0.00054086 -0.063741855 0.029872604 0.048092574 -0.06994771 -0.020278305 0.0542749 0.07113415
0.043478698 -0.02854612 0.0051502064 -0.023507565 -0.027974525 -0.05356907 0.02822013 -0.08097541
0.042580664 0.044515714 -0.050601933 -0.03860224 -0.033548176 -0.046928696 0.07698165 0.030650308
-0.028027244 0.03549221 0.08236107 -0.06433475 0.0061555337 -0.02939279 -0.07820363 0.065511346
0.05562949 0.044622675 -0.008681903 0.0026901066 0.07995449 0.06812793 0.060450032 -0.03153445
-0.02386141 0.0022470802 0.04180546 -0.07309216 0.082639605 0.040606067 -0.05680379 0.00047738105
0.05176343 0.0125706345 -0.068656065 -0.03392858 -0.067378975 -0.006111048 0.08190927 0.011305146
-0.08613223 0.07095246 -0.028492065 -0.012757689 -0.07447943 0.02798256 -0.08696309 0.0069356263
-0.048613198 0.01666972 -0.0011854619 0.08070734 0.021908045 0.02926784 -0.0042514503 0.047257334
-0.06562888 0.077671245 -0.05783228 -0.00912226 -0.008280205 0.012144268 -0.0035695657 0.051579252
0.090279385 0.028349422 0.027878162 -0.051680226 0.025993824 0.07139523 -0.084196135 -0.07461295
00000000: beb1 943d 5d4b 81bd 5604 6f3c 0ae1 af3c
00000010: a866 123c e476 d53c df5a 12bd 605d 363b
00000020: bc8e 483d edb4 b7bd 9a0b 4cbc 6281 b03d
00000030: e1ac 12bd f8e5 b33d 207f 713c b8e8 2a3d
00000040: b075 75bd 96af ab3d 7465 d23c 80bc 4b3c
00000050: 9ad1 95bd c34d 90bd c576 a9bd 4937 a9bc
00000060: c05a f5bb 12a1 55bc 39b8 97bd 8160 8bbd
00000070: 0ae0 b0bd 6ea0 3ebd 21ed 81bd d6a6 aabd
00000080: 0876 963d 38f4 4d3d b8b6 8ebc 142c 903d
00000090: 46df b63d 0466 903c b08b 153d c43e aa3c
000000a0: 8073 1d3d a043 563c 0770 55bd 222f ab3d
000000b0: 0004 47bc d8c0 a5bc 30c4 9fbd 20cc df3b
000000c0: c867 8dbc 20cd 79bc 787e 913d 7cdc ad3d
000000d0: 80ba 3a3b 79ad 9bbd c356 63bd 9082 423c
000000e0: 8829 723d 9186 a5bd 5032 dfbb ff17 9abd
000000f0: 6a47 40bd c085 e63a a4cd 85bd 1a74 993d
00000100: 2828 783c 7ac7 31bd 4cfd 693d 18a0 583d
00000110: 203e 853d ea97 94bd 7466 a9bd 78a4 693d
00000120: 6cf0 1d3d 67d2 f63c ec5f 50bd 4066 723d
00000130: 5c9c b23d 4916 a3bd 3cbe 7b3d 00d2 a3b9
00000140: 62c6 71bd a0d7 ce3c 609e 353c 8bd0 ff3c
00000150: 7859 9c3d 1fee 27bd 0080 93b8 08dc 59bd
00000160: 1c2d b73c b401 5a3d 38c9 df3c 4cbd 9a3d
00000170: 602e 993d 10a6 8d3b 20c5 b53b 5f8b 43bd
00000180: 2460 17bd 08ae 3dbd f63b 9d3d 884e a7bc
00000190: 444a 99bc 107f 863d 770e 0dbd 00fa 303b
000001a0: befb 713c 2aed b1bd c0df 553d 688f a5bd
000001b0: edf5 97bd 4c36 d9bc e0fc 5ebb 8cac 82bd
000001c0: 84df a3bd 607d 803d c6c5 90bd 7a0d 913d
000001d0: 8010 a33b 7b1d 86bd a3cb 1bbd b843 333c
000001e0: 881f 4bbd fae3 973d 2b3c a4bd 4016 853b
000001f0: 6ef7 723c a07d b9bd eecc 5cbd b859 50bd
00000200: 437a fe3c 1671 053d b074 8f3c 3021 87bd
00000210: c0eb d0ba 8cfd 9c3d d8cc 57bc 2099 593c
00000220: 2c34 1a3d 0cfa 4abd 7a76 3abd 1a3f b23d
00000230: 80c0 82bb d0da ae3c d0eb 7c3d 5833 003d
00000240: 3074 42bc ac23 50bd 4c2a f23b 2834 7f3d
00000250: 2aab 93bd 6969 70bd f0c5 f43b 4a29 71bd
00000260: 173e 4cbd 3066 3ebc d037 653d 496d e9bc
00000270: f0a7 75bc 9675 96bd 888e 63bc f8cd 3c3d
00000280: 4c36 b43d a4b2 44bd 70d8 8dbd 8424 813d
00000290: f252 b03d c82d 71bd c95d b0bd 70c1 6b3d
000002a0: 80c8 0d3a 178b 82bd 64b7 f43c b8fc 443d
000002b0: bf40 8fbd b01e a6bc 5c4f 5e3d c8ae 913d
000002c0: b816 323d 8dd9 e9bc 10c3 a83b f092 c0bc
000002d0: d52a e5bc 3e6b 5bbd e72d e73c 70d6 a5bd
000002e0: 1069 2e3d 1c56 363d f943 4fbd 621d 1ebd
000002f0: d069 09bd 4e38 40bd 8ea8 9d3d 5b16 fb3c
00000300: 6499 e5bc 4860 113d ecac a83d f0c1 83bd
00000310: 5cb4 c93b 26c9 f0bc 3a29 a0bd d02a 863d
00000320: c0db 633d 44c6 363d 8a3e 0ebc 804c 303b
00000330: 2ebf a33d a886 8b3d 749a 773d 442a 01bd
00000340: 0179 c3bc c043 133b 343c 2b3d 58b1 95bd
00000350: f43e a93d 8c52 263d 17ab 68bd 0049 fa39
00000360: e405 543d 10f5 4d3c 8d9b 8cbd b2f8 0abd
00000370: fdfd 89bd 303f c8bb 0cc0 a73d 3839 393c
00000380: 1866 b0bd 864f 913d 3168 e9bc a005 51bc
00000390: ac88 98bd af3b e53c b419 b2bd 4044 e33b
000003a0: a21e 47bd f08e 883c 8061 9bba e449 a53d
000003b0: 8078 b33c 1cc3 ef3c c04f 8bbb e890 413d
000003c0: 6f68 86bd 1a12 9f3d 8ae1 6cbd 8875 15bc
000003d0: b2a9 07bc c0f8 463c 60ef 69bb c444 533d
000003e0: 66e4 b83d 0c3d e83c be60 e43c a5ae 53bd
000003f0: 00f1 d43c aa37 923d 066f acbd adce 98bd

fc.2.bias f4 [4]
0.0071182996 0.038850963 -0.04601264 -0.069423914
00000000: a040 e93b 3022 1f3d c077 3cbd 202e 8ebd
